saved_models/BCH_n31_k16__Ndec2_d16_h8/stage1_fp32__BCH_n31_k16__Ndec2_d16_h8__e2000_loss0.026891.pth (torch, 73285 bytes, 42 tensors)

src_embed f4 [46, 8]
0.61862415 0.33331797 0.90632635 -0.60140264 -0.61945045 -0.054591313 0.09466143 -0.838331
0.7498524 0.48020485 0.89050317 -0.83853745 -0.4404788 0.0054359487 -0.070096016 -0.6767578
0.61887676 0.5677197 0.79639506 -0.87457347 -0.39247778 0.0050740684 -0.13620602 -0.70811784
0.7678181 0.57508904 0.7457976 -0.7825613 -0.47566032 -0.035992663 -0.063275754 -0.5484553
0.48896062 0.5690709 0.112460464 -0.39050117 -0.3519159 0.12909879 0.21805918 -0.46896124
0.54968345 0.48790976 0.15223539 -0.21556555 -0.1125145 0.1468 0.43998766 -0.3036935
0.3830228 0.4251877 0.033697177 -0.10055309 -0.062044546 0.16156743 0.40565306 -0.36909232
0.38778567 0.38706377 -0.051378183 0.02002676 0.009215955 0.13303094 0.52191424 -0.34607434
0.421335 0.41132003 -0.010673354 0.024641925 0.011689351 0.14502025 0.5466349 -0.30289876
0.39910582 0.4595812 -0.059494883 0.025792565 -0.002523885 0.17481111 0.50525826 -0.29836553
0.3923225 0.46093765 -0.12412665 0.057044595 -0.009321132 0.17611925 0.5111795 -0.30239496
0.38402662 0.44947302 -0.1756062 0.01787991 -0.048186917 0.19482361 0.45059675 -0.37188485
0.38937017 0.41204447 -0.28693876 0.16468254 0.07094634 0.22528858 0.50693154 -0.34438872
0.40561086 0.4168437 -0.24860796 0.10799691 0.053449843 0.24346034 0.45797643 -0.35798842
0.43002084 0.42275602 -0.22847733 0.11867702 0.062148906 0.22130336 0.49794456 -0.34452868
0.35640973 0.46780342 -0.21331047 0.12130979 0.0294996 0.32433078 0.32921085 -0.33490646
0.46591526 0.39219326 -0.5491309 0.4301232 0.03403703 0.26889953 0.47562635 -0.26526216
0.45706302 0.42168146 -0.5589125 0.44907326 0.045444813 0.30373806 0.46194094 -0.23842342
0.50934696 0.36767918 -0.57482743 0.4294447 0.03746171 0.2697849 0.46118698 -0.30535862
0.3344726 0.41204232 -0.19853802 0.12706263 0.019732807 0.2906021 0.3989216 -0.3288719
0.36446846 0.4103985 -0.13504335 0.014483293 -0.004864227 0.2007431 0.45557484 -0.40668663
0.36564514 0.42421007 -0.054232027 -0.18709566 -0.074617356 0.19842418 0.3043523 -0.5088633
0.45794338 0.52432585 0.11092456 -0.39794406 -0.15548888 0.22806987 0.18965696 -0.45915812
0.43071032 0.4968955 0.118056476 -0.4187705 -0.15097506 0.22774677 0.19883145 -0.4684491
0.45056728 0.52541447 0.15260841 -0.35658193 -0.11923001 0.23334357 0.26855677 -0.38526434
0.4279937 0.51229525 0.14731768 -0.29550222 -0.09563973 0.23405905 0.31114554 -0.37885278
0.521421 0.56297696 0.24791238 -0.16477382 -0.07590646 0.24361919 0.49655885 -0.2283918
0.5125671 0.5556214 0.29006547 -0.25756302 0.03548701 0.17899005 0.2381211 -0.4955085
0.45871282 0.47614667 0.26583323 -0.2788065 0.031725578 0.15277381 0.20918049 -0.6174178
0.46027973 0.30892727 0.22283964 -0.25829682 -0.0063887457 0.020279426 0.22595027 -0.7398924
0.46013996 0.33318183 0.6388657 -0.5353281 -0.74569017 -0.17324138 0.26103196 -0.9415258
0.15438502 0.307381 -0.3304568 -0.17655125 0.4873507 -0.5958563 -0.22923388 -0.090236925
00000000: 275e 1e3f a7a8 aa3e 0105 683f 86f5 19bf
00000010: 4e94 1ebf 249b 5fbd dadd c13d dc9c 56bf
00000020: 54f6 3f3f 69dd f53e 04f8 633f 64aa 56bf
00000030: 7086 e1be 0b20 b23b 808e 8fbd 0040 2dbf
00000040: b56e 1e3f 1456 113f 8ce0 4b3f 0ce4 5fbf
00000050: d9f2 c8be 5f44 a63b 9779 0bbe 3647 35bf
00000060: ba8f 443f 0939 133f 97ec 3e3f f055 48bf
00000070: c089 f3be 0b6d 13bd b896 81bd 9167 0cbf
00000080: 0c59 fa3e a1ae 113f ac51 e63d c5ef c7be
00000090: 522e b4be 7932 043e e84a 5f3e b01b f0be
000000a0: 0eb8 0c3f 4fcf f93e 98e3 1b3e 37bd 5cbe
000000b0: 016e e6bd bd52 163e 1046 e13e b77d 9bbe
000000c0: 901b c43e 34b2 d93e 0d06 0a3d c7ee cdbd
000000d0: 6c22 7ebd ef71 253e c2b1 cf3e abf9 bcbe
000000e0: d88b c63e 392d c63e ee71 52bd 290f a43c
000000f0: 84fe 163c 4339 083e 2c9c 053f a830 b1be
00000100: 39b9 d73e 8a98 d23e 4bdf 2ebc dddd c93c
00000110: b184 3f3c 3080 143e 44f0 0b3f 8c15 9bbe
00000120: 9957 cc3e 3a4e eb3e e8b0 73bd ee4a d33c
00000130: c467 25bb af01 333e 9b58 013f 5ec3 98be
00000140: 7fde c83e 0500 ec3e 1d36 febd 98a7 693d
00000150: a9b7 18bc 9b58 343e a9dc 023f 83d3 9abe
00000160: 239f c43e 5421 e63e 1dd2 33be e478 923c
00000170: a55f 45bd d77f 473e 9eb4 e63e b167 bebe
00000180: 875b c73e 7ef7 d23e a3e9 92be 8aa2 283e
00000190: 514c 913d 0db2 663e 44c6 013f b853 b0be
000001a0: 3aac cf3e 8a6c d53e 1693 7ebe 7c2d dd3d
000001b0: 39ee 5a3d ab4d 793e e37b ea3e 424a b7be
000001c0: b12b dc3e 7a73 d83e f6f5 69be f00c f33d
000001d0: da8f 7e3d 599d 623e 97f2 fe3e 1066 b0be
000001e0: 567b b63e ee83 ef3e 0f6e 5abe 4471 f83d
000001f0: 25a9 f13c af0e a63e 538e a83e dc78 abbe
00000200: 728c ee3e 8ecd c83e d893 0cbf 1c39 dc3e
00000210: 6a6a 0b3d 33ad 893e 4c85 f33e 71d0 87be
00000220: 2a04 ea3e a2e6 d73e e414 0fbf eeec e53e
00000230: 5724 3a3d 8e83 9b3e 8683 ec3e 4525 74be
00000240: 9064 023f 7240 bc3e e427 13bf 2de0 db3e
00000250: 7371 193d 3f21 8a3e b320 ec3e f757 9cbe
00000260: fe3f ab3e 36f7 d23e 8d4d 4bbe b51c 023e
00000270: b2a6 a13c ccc9 943e 743f cc3e e661 a8be
00000280: 9c9b ba3e c11f d23e ce48 0abe 554b 6d3c
00000290: 1864 9fbb 998f 4d3e 1b41 e93e 3b39 d0be
000002a0: d735 bb3e 1032 d93e 6722 5ebd 0196 3fbe
000002b0: fcd0 98bd b52f 4b3e 11d4 9b3e dd44 02bf
000002c0: 8e77 ea3e 383a 063f 6a2c e33d 53bf cbbe
000002d0: 7a38 1fbe 268b 693e 6f35 423e c616 ebbe
000002e0: 1086 dc3e 1669 fe3e 98c7 f13d 1669 d6be
000002f0: 3599 1abe 7336 693e 799a 4b3e 8fd8 efbe
00000300: c1b0 e63e 9081 063f 6145 1c3e e891 b6be
00000310: dd2e f4bd 9ef1 6e3e 4680 893e 5e41 c5be
00000320: fe21 db3e c825 033f 72da 163e 114c 97be
00000330: c3de c3bd 2dad 6f3e 784e 9f3e fef8 c1be
00000340: d97b 053f 421f 103f bedc 7d3e 78ba 28be
00000350: d974 9bbd 4f77 793e f63c fe3e 8adf 69be
00000360: 9937 033f 343d 0e3f 7683 943e 4ddf 83be
00000370: d45a 113d 2b49 373e 05d6 733e 4ab3 fdbe
00000380: 68dc ea3e 7fc9 f33e 4b1b 883e babf 8ebe
00000390: aef2 013d bd70 1c3e 6933 563e 180f 1ebf
000003a0: c9a9 eb3e b72b 9e3e 1330 643e 7b3f 84be
000003b0: af58 d1bb 0a21 a63c 825f 673e 9769 3dbf
000003c0: 7797 eb3e cf96 aa3e b48c 233f 430b 09bf
000003d0: 8de5 3ebf 3066 31be fba5 853e d607 71bf
000003e0: 1b17 1e3e 0b61 9d3e a231 a9be dac9 34be
000003f0: 0886 f93e 0a8a 18bf 49bc 6abe 23ce b8bd

decoder.layers.0.self_attn.linears.0.weight f4 [16, 16]
-0.11293507 0.4883969 -0.7968799 0.20590825 0.10750007 -0.21897337 -0.29336888 -0.22441469
-0.3102107 -0.14105459 0.4934111 -0.1516203 0.24913564 0.2791694 0.10905824 -0.48701143
0.56330657 0.19113655 0.5859707 0.35388044 -0.05627125 0.36857536 0.27412304 -0.20247932
-0.5373233 0.6915876 0.42974153 0.30164364 0.44997832 -0.6681754 0.26172054 -0.20205958
-0.14323306 0.22390297 0.49640837 -0.08099066 -0.010482384 -0.31325793 -0.08986274 1.0603795
0.2677049 -0.4717035 -0.06064808 -0.7017011 -0.37184533 0.29250953 -0.25192013 0.54701746
-0.80782145 -0.41739494 -0.4127259 -0.25452083 0.13272981 -0.25347742 0.3836026 0.20926216
0.5671244 0.07473262 -0.4041179 0.15913829 -0.2285 0.0037743533 0.40928742 0.60307014
-0.11658102 -0.83478487 -0.74254555 0.45424595 1.0212299 -0.28655913 -0.23445402 -0.2385584
-0.41246384 0.37370092 0.33149418 0.59557307 0.43165106 -0.17756355 0.5261625 0.06668398
-0.4537745 0.16763918 -0.81758374 0.03130922 0.55078465 0.1737871 0.3243207 0.06819527
-0.14900863 -0.004327862 0.36835226 0.48325434 -0.04392143 -0.48932987 0.081474006 -0.43205008
-0.2821772 -0.045047905 -0.085066825 -0.23410973 0.09146003 -0.12915076 -0.3050879 0.11163902
0.14142308 -0.5750875 -0.7651865 -0.32585174 -0.69368315 0.46619713 0.16377391 0.07617235
0.04608731 0.103801385 0.22295456 0.55514926 0.08537773 0.034987785 0.25753707 -0.21336707
-0.018600604 -0.20744963 -0.08687978 0.21969055 -0.058652274 -0.25087407 0.573394 -0.39271012
0.07243478 0.8454081 0.63809127 0.7074302 0.13113695 -0.48760095 0.13658063 -0.120313
0.19102676 -0.16916691 -0.54627526 -0.15733851 -0.05460131 0.58251286 -0.06878657 0.71270585
-0.1973979 -0.20022495 0.039993532 -0.15092255 0.00480618 0.118738525 0.3494037 -0.77264863
-0.5605093 0.19879244 -0.22596942 -0.22035335 -0.17324361 0.18035254 0.045346767 -0.39316285
-0.2833067 -0.26309654 0.09220436 -0.20227782 -0.7014779 -0.4192812 -0.039840814 -0.095434055
-0.043628197 -0.3501621 -0.32300484 -0.5494147 0.012290788 0.7224573 -0.6681628 0.567414
0.5958238 0.1536433 0.01816598 -0.45155126 0.28304353 1.19257 -0.3954772 -0.79939836
-0.65267783 0.48591626 -0.18254776 -0.22677211 -0.12520483 -0.73353934 -0.034505542 0.1742373
0.02731347 0.9193228 -0.20803069 -0.49103975 0.7986225 0.43089014 0.28242612 0.3088147
-0.14231108 0.008575704 0.22725078 -0.021183915 0.1290312 -0.12363521 0.024671685 -0.14634724
0.3141018 0.32453072 0.10276667 0.061855372 0.045275733 0.7765043 0.027181752 -0.956539
0.29106027 0.28391555 -0.20164773 0.062337484 0.35867244 -0.5125385 -0.5329376 0.21852925
1.425432 1.1499147 -2.186774 1.7124354 0.8122245 0.9346418 0.9416333 -1.5703713
-0.024241047 0.33948842 -0.5327698 -0.17209633 0.19779621 -0.2572378 0.12926322 -0.07211038
0.11646936 0.85719514 -0.12610729 0.65472233 0.4355489 0.30739695 0.40103236 0.15281242
0.00056697294 -0.72324735 -0.5338321 -0.56113714 -0.4346513 0.5965306 -0.33677298 0.018593032
00000000: 814a e7bd 290f fa3e 5200 4cbf 9dd9 523e
00000010: ff28 dc3d 8e3a 60be 7234 96be f7cc 65be
00000020: f0d3 9ebe 9d70 10be 61a0 fc3e 5a42 1bbe
00000030: 6a1d 7f3e 4bef 8e3e ed59 df3d 9059 f9be
00000040: dc34 103f 4db9 433e 2d02 163f d12f b53e
00000050: af7c 66bd e9b5 bc3e db59 8c3e bd56 4fbe
00000060: 058e 09bf e30b 313f 1507 dc3e 0971 9a3e
00000070: 8f63 e63e 8b0d 2bbf 3c00 863e b5e8 4ebe
00000080: b0ab 12be d246 653e 3d29 fe3e 6ede a5bd
00000090: 4ebe 2bbc 5863 a0be f509 b8bd 84ba 873f
000000a0: 9e10 893e 1f83 f1be 1f6a 78bd afa2 33bf
000000b0: 8362 bebe cfc3 953e adfb 80be 5609 0c3f
000000c0: 63cd 4ebf cab4 d5be cf50 d3be 8e50 82be
000000d0: 53ea 073e cbc7 81be 8f67 c43e d248 563e
000000e0: 112f 113f 6a0d 993d 8be8 cebe 26f5 223e
000000f0: e7fb 69be 245b 773b 1f8e d13e ce62 1a3f
00000100: 08c2 eebd 76b4 55bf 7717 3ebf ed92 e83e
00000110: a9b7 823f e1b7 92be b714 70be a748 74be
00000120: 762e d3be ba55 bf3e 9bb9 a93e 7a77 183f
00000130: 5e01 dd3e 38d3 35be 96b2 063f 9c91 883d
00000140: 2255 e8be 9ba9 2b3e 2b4d 51bf 193e 003d
00000150: 3900 0d3f 3ff5 313e 5d0d a63e f6a9 8b3d
00000160: b895 18be bdd0 8dbb ab98 bc3e 1d6d f73e
00000170: f5e6 33bd 7289 fabe d8db a63d ab35 ddbe
00000180: 8879 90be 2784 38bd 8437 aebd 76ba 6fbe
00000190: 654f bb3d 1940 04be 7b34 9cbe 00a3 e43d
000001a0: 36d1 103e ef38 13bf 43e3 43bf 0ad6 a6be
000001b0: 3895 31bf 64b1 ee3e 59b4 273e 4000 9c3d
000001c0: 0cc6 3c3d d295 d43d 334e 643e 431e 0e3f
000001d0: 85da ae3d 5a4f 0f3d e6db 833e e67c 5abe
000001e0: 4b60 98bc ad6d 54be 07ee b1bd 8ff6 603e
000001f0: 5e3d 70bd 9172 80be f3c9 123f 4d11 c9be
00000200: b058 943d aa6c 583f f359 233f 251a 353f
00000210: c448 063e d5a6 f9be cbdb 0b3e aa66 f6bd
00000220: 859c 433e 173a 2dbe b2d8 0bbf 591d 21be
00000230: a0a5 5fbd 901f 153f f9df 8cbd e473 363f
00000240: ad22 4abe c507 4dbe 42d0 233d 718b 1abe
00000250: 297d 9d3b 2f2d f33d 0be5 b23e 4dcc 45bf
00000260: 8a7d 0fbf 3f90 4b3e 8764 67be 4fa4 61be
00000270: c666 31be 56ae 383e 88bd 393d a44c c9be
00000280: 930d 91be 97b4 86be a4d5 bc3d eb21 4fbe
00000290: 0e94 33bf 07ac d6be 1f30 23bd ee72 c3bd
000002a0: 7bb3 32bd 7248 b3be e460 a5be 71a6 0cbf
000002b0: 4d5f 493c f6f2 383f b80c 2bbf 0b42 113f
000002c0: e987 183f ab54 1d3e d2d0 943c ba31 e7be
000002d0: 15eb 903e 22a6 983f fd7b cabe 5fa5 4cbf
000002e0: e515 27bf 04ca f83e cded 3abe f336 68be
000002f0: b235 00be 3cc9 3bbf af55 0dbd 436b 323e
00000300: 80c0 df3c bd58 6b3f ff05 55be 9069 fbbe
00000310: 8672 4c3f a29d dc3e 289a 903e f61c 9e3e
00000320: ffb9 11be 1c81 0c3c 6eb4 683e e489 adbc
00000330: c120 043e 7534 fdbd 461c ca3c 0ddc 15be
00000340: f3d1 a03e e428 a63e 5577 d23d 0f5c 7d3d
00000350: 0c73 393d fcc8 463f 44ac de3c bddf 74bf
00000360: da05 953e 615d 913e be7c 4ebe 9755 7f3d
00000370: eaa3 b73e b935 03bf 996e 08bf 22c6 5f3e
00000380: 8e74 b63f 6830 933f 1bf4 0bc0 1531 db3f
00000390: f2ed 4f3f af44 6f3f e10e 713f ed01 c9bf
000003a0: 2995 c6bc 6dd1 ad3e 9a63 08bf 053a 30be
000003b0: 178b 4a3e acb4 83be 945d 043e 9bae 93bd
000003c0: 7d87 ee3d 2471 5b3f 4522 01be e29b 273f
000003d0: 4400 df3e 2263 9d3e 1d54 cd3e dc7a 1c3e
000003e0: e9a0 143a bd26 39bf 38a9 08bf afa6 0fbf
000003f0: 9d8a debe 3bb6 183f 826d acbe 6a50 983c

decoder.layers.0.self_attn.linears.0.bias f4 [16]
0.044699367 -0.5673961 0.43497595 0.2846758 -0.009230293 -0.41953608 0.57604593 -0.10630699
0.4086778 -0.016739607 0.27638382 -0.19776022 0.044415668 -0.2321212 0.1913827 0.009664479
00000000: af16 373d df40 11bf 2bb5 de3e 07c1 913e
00000010: a83a 17bc 6fcd d6be bf77 133f 7bb7 d9bd
00000020: 373e d13e 8021 89bc 2e82 8d3e a881 4abe
00000030: 34ed 353d 2eb1 6dbe d4f9 433e c357 1e3c

decoder.layers.0.self_attn.linears.1.weight f4 [16, 16]
0.05128673 -0.26695278 0.3499446 -0.035882704 -0.34354708 0.2554852 -0.2996034 -0.25521174
-0.05974273 0.43817383 0.13003685 0.4885141 0.3876424 0.25912696 0.44285354 -0.61325777
0.10671537 0.42510888 0.35778064 0.5610844 -0.12810227 0.3106406 0.31678906 -0.11060227
0.35070348 0.06417872 -0.32537767 -0.18403849 0.07317349 -0.39342913 0.3637168 0.67676103
-0.07953903 0.1550015 -0.5505383 -0.25601438 -0.23643526 -0.39625221 -0.3926706 0.6780866
0.1966338 -0.27936363 -0.028094765 0.0873611 -0.37983757 0.009469168 0.05838837 0.11309902
0.20750374 -0.454856 -0.1460025 -0.18906458 0.2890424 -0.4565234 -0.10602163 0.19790259
-0.20518698 -0.2434237 -0.29579076 0.16608311 0.054345213 0.23497887 0.012976247 0.004175229
0.39568573 0.22678155 -0.25445554 -0.3375151 0.71264035 0.18233515 0.01293233 -0.034387756
-0.42695495 -0.7542524 0.24254268 0.12464733 0.0045236167 0.34812233 0.21284974 -1.8775564
0.63306904 0.54144466 -0.30919826 -0.4001422 -0.112531364 0.004913395 0.3804588 -0.2985312
-0.337243 -0.885147 0.17449309 0.123067796 0.46609923 0.06406542 -0.12277415 -1.9157184
-0.3039036 -0.1563477 -0.12329117 -0.2650854 0.4206377 -0.28598654 -0.15362066 0.99792135
0.41707855 0.21037251 0.016586436 -0.05389036 0.5459563 0.57769346 -0.01939042 0.70317584
-0.98425126 0.07831329 0.21221136 0.4433879 -0.22383267 0.3033823 -0.18311156 -0.011005816
0.57479894 8.76237e-05 -0.65838385 0.35798678 -0.9560607 0.5347651 0.066620246 1.7302443
-0.21486245 -0.67396253 -0.017167643 -0.315332 -0.12405413 0.0807603 -0.17116503 0.39367875
-0.44877005 0.03452737 1.2242641 0.85272104 0.62775207 0.3687394 -0.7222367 -0.15256244
0.2398334 0.17033777 0.013418189 0.12528326 -0.2863912 0.41274297 0.40554127 -0.002974651
-0.25291154 -0.76552236 0.14003333 -0.4727663 -0.4688772 -0.48818582 -0.37080225 0.23432553
-0.49881303 -0.42996573 0.073238276 -0.51009506 0.6359087 0.38868767 -0.55772954 0.14763823
0.064586125 0.006015997 -0.31914216 -0.7085313 0.028462032 -0.5058887 0.7527752 1.0361608
0.21784598 0.4882447 0.5176743 0.0877957 -0.19061315 0.039944746 0.44950762 -0.11023088
-0.82146066 -0.33904973 0.69472337 0.6427778 0.8903815 0.4708334 -1.2962787 -1.0216589
-0.18901707 -0.18459412 0.24176672 0.27674797 -0.7302473 0.03379044 0.26470295 0.15493412
-0.40302283 -0.6394211 0.40149093 0.934926 0.13089155 0.01939739 -0.500114 -0.09487788
-0.35930303 0.49153537 0.1660176 0.17497723 -0.21736951 -0.35147873 0.42190486 -0.2846297
0.5097989 -0.74009836 0.14588256 -0.13856202 -0.5156757 0.32124805 -0.586617 -0.1907517
-0.5202351 -0.026005154 -0.008300931 -0.2566057 -0.6702937 0.51005566 -0.18361956 -0.23948744
1.9901646 -2.6635547 -0.5755363 0.2690714 -0.33343422 2.9649003 -1.613365 0.48461184
-0.17051822 -0.47983676 -0.3902408 -0.16336372 0.4776584 0.04569448 -0.35391015 0.3917154
-0.89351106 0.40759063 -0.76822805 -0.22361054 0.42734733 0.06102408 0.22935179 0.8491633
00000000: 0912 523d 09ae 88be f02b b33e bef9 12bd
00000010: 67e5 afbe f5ce 823e 9e65 99be 1dab 82be
00000020: cbb4 74bd 5258 e03e 6128 053e 851e fa3e
00000030: 1179 c63e 4aac 843e b3bd e23e 76fe 1cbf
00000040: 978d da3d dfa7 d93e 062f b73e 3aa3 0f3f
00000050: 3e2d 03be 490c 9f3e 2d32 a23e 7183 e2bd
00000060: 688f b33e 2270 833d e797 a6be 9674 3cbe
00000070: fcdb 953d 8b6f c9be 1739 ba3e 3640 2d3f
00000080: 5ce5 a2bd b7b8 1e3e 14f0 0cbf 5114 83be
00000090: 161c 72be 92e1 cabe 1f0c c9be 1597 2d3f
000000a0: 5f5a 493e c008 8fbe fe26 e6bc 60ea b23d
000000b0: 127a c2be 9224 1b3c a528 6f3d 76a0 e73d
000000c0: dc7b 543e e3e2 e8be ae81 15be 259a 41be
000000d0: 5efd 933e 6fbd e9be de21 d9bd faa6 4a3e
000000e0: 891c 52be 1044 79be e371 97be b111 2a3e
000000f0: 1699 5e3d 4d9e 703e 539a 543c 5cd0 883b
00000100: 5297 ca3e 6c39 683e ff47 82be c7ce acbe
00000110: 996f 363f 11b6 3a3e 20e2 533c 2dda 0cbd
00000120: d799 dabe af16 41bf 1c5d 783e 1947 ff3d
00000130: d93a 943b 173d b23e 48f5 593e c553 f0bf
00000140: d010 223f 1e9c 0a3f 3c4f 9ebe 70df ccbe
00000150: d876 e6bd 8b00 a13b 7fcb c23e 15d9 98be
00000160: 1dab acbe fe98 62bf 51ae 323e f80a fc3d
00000170: 8fa4 ee3e bb34 833d 0371 fbbd 4336 f5bf
00000180: 4199 9bbe 9d19 20be 1580 fcbd 46b9 87be
00000190: d35d d73e d46c 92be bc4e 1dbe c677 7f3f
000001a0: 528b d53e e46b 573e 47e0 873c 23bc 5cbd
000001b0: cbc3 0b3f b8e3 133f a8d8 9ebc 5503 343f
000001c0: e4f7 7bbf b862 a03d ef4d 593e bd03 e33e
000001d0: 6434 65be ed54 9b3e 9981 3bbe bd51 34bc
000001e0: 0626 133f 9ec2 b738 d88b 28bf 0b4a b73e
000001f0: 65c0 74bf 5ee6 083f 3270 883d a578 dd3f
00000200: e704 5cbe cf88 2cbf 28a3 8cbc 3273 a1be
00000210: 1710 febd a865 a53d e345 2fbe 4390 c93e
00000220: 30c5 e5be 926c 0d3d b0b4 9c3f ed4b 5a3f
00000230: 5cb4 203f 69cb bc3e 81e4 38bf 5439 1cbe
00000240: e396 753e 066d 2e3e f7d7 5b3c 414a 003e
00000250: dea1 92be 0c53 d33e 1ba3 cf3e 5df2 42bb
00000260: 9f7d 81be 46f9 43bf e664 0f3e 6d0e f2be
00000270: ac10 f0be 7ef3 f9be cbd9 bdbe 08f3 6f3e
00000280: 6c64 ffbe 7824 dcbe f3fd 953d 9795 02bf
00000290: eaca 223f 1202 c73e 5dc7 0ebf 7a2e 173e
000002a0: bb45 843d d721 c53b 9a66 a3be 4f62 35bf
000002b0: 3529 e93c ec81 01bf e0b5 403f eba0 843f
000002c0: 0413 5f3e 36fb f93e 4e86 043f 3bce b33d
000002d0: 1830 43be 1a9d 233d dd25 e63e bac0 e1bd
000002e0: 3f4b 52bf ed97 adbe 64d9 313f 168d 243f
000002f0: 0bf0 633f 1311 f13e 76ec a5bf b8c5 82bf
00000300: b18d 41be 3e06 3dbe b291 773e e9b1 8d3e
00000310: 7df1 3abf d867 0a3d 2587 873e 0da7 1e3e
00000320: 0259 cebe 1ab1 23bf 3890 cd3e 4f57 6f3f
00000330: 6f08 063e 46e7 9e3c 7907 00bf 554f c2bd
00000340: 91f6 b7be 86aa fb3e 8500 2a3e 3b2d 333e
00000350: 1d96 5ebe 05f5 b3be ea03 d83e fcba 91be
00000360: 2e82 023f 1677 3dbf 3d62 153e 34e3 0dbe
00000370: 5303 04bf a07a a43e 882c 16bf 6a54 43be
00000380: 212e 05bf c308 d5bc a100 08bc d361 83be
00000390: 5e98 2bbf 0293 023f c406 3cbe 323c 75be
000003a0: b7bd fe3f ae77 2ac0 5956 13bf bac3 893e
000003b0: e4b7 aabe edc0 3d40 bf82 cebf 0b1f f83e
000003c0: 549c 2ebe 2aad f5be a4cd c7be d248 27be
000003d0: a48f f43e 232a 3b3d b633 b5be ec8e c83e
000003e0: 24bd 64bf b8af d03e 98aa 44bf 29fa 64be
000003f0: 45cd da3e 63f4 793d 32db 6a3e c462 593f

decoder.layers.0.self_attn.linears.1.bias f4 [16]
0.45056272 0.7130041 -0.37173346 -0.22467105 0.54120904 0.09878388 -0.3584919 0.04880291
0.2685071 0.1878269 0.025942879 -0.0052041574 -0.022969896 -0.22795033 0.05361302 -0.3384289
00000000: 28b0 e63e 7087 363f d953 bebe 2b10 66be
00000010: ad8c 0a3f 344f ca3d 408c b7be 8fe5 473d
00000020: c379 893e b255 403e 2986 d43c a387 aabb
00000030: 5d2b bcbc d06b 69be 5399 5b3d 8e46 adbe

decoder.layers.0.self_attn.linears.2.weight f4 [16, 16]
-0.5743922 -0.56278616 0.49240088 0.4358753 -0.17006853 0.22999375 -0.58421963 0.33554253
0.013019319 -0.03703295 0.30387583 -0.42099798 0.027573638 -0.12768482 0.020301571 0.42510206
-0.4872507 -0.10920183 -0.08317939 -0.3240808 0.18164514 -0.5247998 -0.09371426 0.73907965
-0.17397231 0.23809934 0.35465598 0.09138977 0.19097719 0.39067462 -0.17679782 0.27182224
-0.1138722 0.73065454 -0.6239333 -0.48780802 0.3340465 -0.28470483 0.46398053 -0.277065
-0.26495883 0.40929538 -0.23674087 0.33451107 0.4410728 0.25957015 -0.025439974 -0.03320288
-0.51730657 -0.3940605 -0.19277725 -0.15940242 0.5144459 -0.16390449 -0.18686211 0.5227015
0.4563118 -0.002395361 0.31340235 0.35427496 -0.20800222 -0.2517646 0.41928226 -0.19281466
0.51954657 -0.21826339 0.46167064 0.4131866 -0.3046808 0.58105844 -0.23431425 -0.32151976
-0.079190105 0.28896952 0.2187818 0.25844315 0.21044216 0.31163782 0.012266561 -0.14235711
-1.0168275 -0.41370353 0.391885 0.1960143 0.18369545 -0.062611535 -0.24643204 0.6428525
0.19331522 -0.06872899 -0.275062 0.35684797 0.2970768 0.23781623 0.18367332 -0.08513853
-0.9519515 -0.9717825 0.31401962 0.40576887 0.0033282198 -0.22041672 -0.2566076 0.57766706
0.09922543 -0.30042836 -0.32745442 -0.2125612 -0.007342243 0.07337533 0.20526756 -0.32812867
0.10104451 0.4628359 -0.24559695 -0.0584487 0.42227516 -0.074925445 0.7603489 -0.05244086
0.016586088 0.05986139 -0.13417882 -0.10337591 0.053334486 0.02152336 0.2496405 -0.14858602
0.4227207 0.2406949 0.15221843 -0.45688504 0.1909214 0.18738687 -0.08900597 -0.10958429
-0.124848396 -0.36548188 -0.31945178 -0.33333993 0.27476463 -0.11996591 -0.23221081 -0.36173564
0.24942099 0.8181152 -0.15407628 0.10097147 0.114231765 0.28546643 0.36950758 -0.40252638
-0.15787196 -0.116196714 -0.13717635 0.48210478 -0.18780838 -0.3892827 0.26624006 0.22904053
-0.69789124 -0.5893724 -0.2394884 0.4861846 -0.01990571 -0.1504217 -0.17749695 0.22278817
0.20657782 0.09066137 0.14926459 -0.042486124 0.2966733 0.08165534 -0.07867211 0.27087244
-0.06586283 0.14936455 -0.6723634 0.71163034 0.009178781 -0.046282064 0.29172885 -0.30602828
-0.032324433 0.30779788 0.21815762 -0.17007111 -0.28142372 0.33460405 -0.07657599 -0.23230863
0.098855466 0.4849777 -0.021498723 -0.50055325 -0.02390878 0.22265893 0.45261735 -0.0064922143
-0.44720623 0.38760427 -0.21063557 0.25439826 -0.32922423 -0.47946432 -0.32322463 0.30265114
0.117212646 -0.37575758 0.16010797 -1.1436377 -0.06297358 0.15767956 -0.22399259 -0.017922526
0.15507306 0.31662115 -0.4409058 0.15986982 -0.20536071 0.090650655 0.23835246 -0.22821902
0.20372757 0.20644224 0.4097326 -0.600574 0.5026739 0.37813184 -0.058462817 -0.4245712
0.3009935 -0.095222466 0.2030178 0.41108823 0.030982822 0.20962405 0.13575369 -0.19748595
-0.11996308 -0.31266645 0.70411956 -0.19784647 -0.03262868 -0.1074005 -0.26659134 0.50032866
0.1730794 0.11313112 -0.10044068 -0.04667174 -0.31119543 0.34290567 0.3169759 -0.2049626
00000000: 5e0b 13bf c112 10bf f81b fc3e 0c2b df3e
00000010: 7226 2ebe 7b83 6b3e 6b8f 15bf 3bcc ab3e
00000020: fb4e 553c ddaf 17bd 9d95 9b3e 0c8d d7be
00000030: 1ce2 e13c cfbf 02be 7b4f a63c faa6 d93e
00000040: ec78 f9be 36a5 dfbd f559 aabd ebed a5be
00000050: 2f01 3a3e 4859 06bf 43ed bfbd 5334 3d3f
00000060: cc25 32be 50d0 733e 7895 b53e 8f2a bb3d
00000070: 868f 433e 8106 c83e 7d0a 35be 492c 8b3e
00000080: d435 e9bd 2d0c 3b3f 18ba 1fbf f9c1 f9be
00000090: 2508 ab3e d5c4 91be db8e ed3e 77db 8dbe
000000a0: afa8 87be 2a8f d13e 336c 72be 0945 ab3e
000000b0: 4bd4 e13e 61e6 843e 7e67 d0bc beff 07bd
000000c0: 346e 04bf 4cc2 c9be 6667 45be 633a 23be
000000d0: bab2 033f 94d6 27be c858 3fbe c4cf 053f
000000e0: b3a1 e93e 7dfb 1cbb 4676 a03e 8763 b53e
000000f0: 89fe 54be 4ae7 80be 2aac d63e 3571 45be
00000100: 0101 053f 7080 5fbe 1860 ec3e 328d d33e
00000110: 1fff 9bbe 3fc0 143f 13f0 6fbe 3d9e a4be
00000120: 6c2e a2bd d0f3 933e 5608 603e a952 843e
00000130: 267e 573e fe8e 9f3e b0f9 483c 10c6 11be
00000140: 6727 82bf f3d0 d3be 27a5 c83e f9b7 483e
00000150: a91a 3c3e 7a3a 80bd ae58 7cbe fb91 243f
00000160: 6df4 453e c9c1 8cbd edd4 8cbe c7b4 b63e
00000170: 731a 983e 1986 733e dc14 3c3e 1c5d aebd
00000180: 18b3 73bf bdc6 78bf 2ec7 a03e f0c0 cf3e
00000190: 431e 5a3b ecb4 61be 1262 83be fde1 133f
000001a0: b436 cb3d bfd1 99be 1ba8 a7be a5a9 59be
000001b0: 3397 f0bb ce45 963d a931 523e 7b00 a8be
000001c0: 6df0 ce3d d4f8 ec3e c47d 7bbe e767 6fbd
000001d0: 7334 d83e 8372 99bd 3aa6 423f 3acc 56bd
000001e0: 8cdf 873c 3831 753d 2c66 09be c0b6 d3bd
000001f0: 4375 5a3d c251 b03c c2a1 7f3e ef26 18be
00000200: d96e d83e b978 763e 26df 1b3e d6ec e9be
00000210: e680 433e 58e2 3f3e c348 b6bd ba6d e0bd
00000220: 84b0 ffbd 7120 bbbe 2f8f a3be 88ab aabe
00000230: f3ad 8c3e b0b0 f5bd acc8 6dbe 6a35 b9be
00000240: 3768 7f3e ff6f 513f 2cc6 1dbe 21ca ce3d
00000250: 58f2 e93d a828 923e 1930 bd3e f017 cebe
00000260: 30a9 21be 8bf8 edbd f577 0cbe 70d6 f63e
00000270: d750 40be 1050 c7be 9e50 883e 9a89 6a3e
00000280: 00a9 32bf 1ce1 16bf 723c 75be 30ed f83e
00000290: 4d11 a3bc 2508 1abe c3c1 35be 9522 643e
000002a0: 2389 533e abac b93d d1d8 183e ee05 2ebd
000002b0: 90e5 973e ea3a a73d d81e a1bd cbaf 8a3e
000002c0: 17e3 86bd 05f3 183e 0220 2cbf 682d 363f
000002d0: 9962 163c 4392 3dbd 7c5d 953e bdaf 9cbe
000002e0: a066 04bd af97 9d3e b664 5f3e 1f27 2ebe
000002f0: c516 90be 3951 ab3e dfd3 9cbd 50e2 6dbe
00000300: bc74 ca3d ff4e f83e 171e b0bc 4224 00bf
00000310: 59dc c3bc b400 643e 76bd e73e a4bc d4bb
00000320: 37f8 e4be 1174 c63e dab0 57be 7d40 823e
00000330: 1490 a8be 597c f5be b37d a5be 17f5 9a3e
00000340: 2f0d f03d 4c63 c0be 58f3 233e b862 92bf
00000350: 4bf8 80bd c076 213e 505e 65be 43d2 92bc
00000360: 79cb 1e3e 2b1c a23e 68be e1be eab4 233e
00000370: 144a 52be 0da7 b93d ab12 743e 3fb2 69be
00000380: f69d 503e 9865 533e 79c8 d13e 38bf 19bf
00000390: 3daf 003f 7f9a c13e b576 6fbd 6561 d9be
000003a0: d21b 9a3e ff03 c3bd e6e3 4f3e 287a d23e
000003b0: b0cf fd3c b0a7 563e 0403 0b3e c239 4abe
000003c0: 34af f5bd d115 a0be 2e41 343f 4498 4abe
000003d0: a7a5 05bd cbf4 dbbd a97e 88be 8a15 003f
000003e0: ba3b 313e 4ab1 e73d d8b3 cdbd de2a 3fbd
000003f0: 0255 9fbe 5591 af3e aa4a a23e b7e1 51be

decoder.layers.0.self_attn.linears.2.bias f4 [16]
0.157017 -0.22173657 0.09321832 0.15908569 0.17205235 -0.28575274 0.13142772 -0.25484046
0.106353596 0.046558443 -0.1374274 -0.054458242 -0.13681819 -0.13980559 0.002619376 -0.2152648
00000000: 10c9 203e e90e 63be 3fe9 be3d 5ce7 223e
00000010: 7e2e 303e 2f4e 92be fd94 063e 737a 82be
00000020: eacf d93d 11b4 3e3d c5b9 0cbe 9b0f 5fbd
00000030: 111a 0cbe 3229 0fbe d6a9 2b3b 606e 5cbe

decoder.layers.0.self_attn.linears.3.weight f4 [16, 16]
-0.10746625 0.33385023 -0.112852305 0.5015622 -0.37785384 0.19299357 -0.09992476 0.5564997
-0.03565875 0.22870646 0.19564834 0.19082695 0.11624935 0.1007946 0.1878901 -0.09469962
-0.28861418 0.018699115 0.6429329 -0.09987684 -0.31803933 -0.4802455 -0.38300171 0.1794962
-0.10238136 -0.054827817 0.21667473 -0.19762656 -0.1283804 0.2960036 -0.056531098 0.09401181
0.1626001 -0.017428296 0.17759223 -0.10760305 -0.028869761 -0.13679524 0.041071627 -0.045221876
-0.12701567 0.1633754 0.112173826 0.27890018 0.2535994 -0.093021356 -0.2682722 -0.30799097
-0.25865197 -0.27616152 0.3719214 -0.2818141 -0.020133927 0.19419287 -0.09443976 0.19104473
0.1851107 -0.31650344 0.3374596 -0.18022849 -0.009914205 0.061557982 -0.19179878 0.2272139
0.34839824 -0.058188178 -0.08105994 0.04338577 -0.27035895 0.25746647 0.15711975 -0.13366945
0.063497804 0.13070847 0.0062556122 0.17857987 0.1520699 -0.095401645 0.10428886 -0.21852611
0.42847812 0.04503543 -0.10055886 0.32545236 -0.2795745 0.252266 0.1048517 -0.21488777
-0.17294708 -0.13349313 0.22974323 -0.04897035 -0.040448982 0.052205503 -0.094076104 0.08543889
-0.03796567 -0.40469968 0.047341824 -0.33936155 0.43010753 0.09544008 0.23792063 0.15686181
0.33104017 0.34284943 -0.043653693 0.14267997 0.5230299 -0.056159507 -0.035097964 -0.33119
0.19828178 0.1407359 0.2918704 0.05567245 0.30921 -0.26253656 0.038198005 -0.008297601
-0.032984708 0.26832974 0.021956388 0.01930514 0.3005518 0.14918193 0.13889217 -0.24345319
-0.19894361 -0.046952214 0.4084171 0.11887456 -0.7185576 0.15943342 -0.036881663 0.15751947
0.2474023 -0.0773928 0.02188893 -0.20950083 0.4120074 0.14159343 0.012326526 0.022572758
0.5053757 -0.09668159 -0.15664616 0.0884688 0.27493826 0.09162042 0.24766052 -0.35197893
0.022845864 0.40321267 -0.22630672 -0.007209279 0.086275466 0.44679338 0.16654074 -0.0055109267
-0.0752527 0.318848 0.30686074 0.19622314 -0.32033584 0.20732802 -0.13287365 0.48136795
0.080861814 0.05814038 0.00086292287 0.20649613 -0.36371312 0.00946883 -0.24775419 -0.0664156
0.5142406 -0.2786735 -0.029142093 -0.20078376 0.20723884 0.23220673 0.57465327 -0.26167503
0.19567104 -0.14687954 0.5118855 -0.09811392 -0.2470802 0.15567149 -0.23982373 0.18904425
-0.19730559 -0.270373 0.3743721 -0.015425534 -0.34280452 0.181926 -0.34049618 -0.16432661
-0.40022328 0.24489361 0.039243896 0.2623567 -0.13480906 0.019274434 0.21768667 0.05542895
-0.113858126 -0.44479346 -0.16394897 -0.3302698 0.23765421 -0.4012391 -0.12188333 0.032833263
0.119934954 0.120505035 0.14663993 -0.26648813 0.69234926 0.3238266 -0.07829296 0.06369838
-0.5338529 -0.26246113 0.5366316 -0.42544347 -0.22864299 -0.35462555 -0.4099315 0.30496407
0.10611593 -0.12066728 0.21659562 -0.06922883 0.016622115 0.1727976 -0.1885599 0.026910799
0.2194745 -0.24268837 -0.32708958 -0.48700064 0.44268495 -0.6393117 -0.073773004 -0.05035294
0.06590573 -0.017562903 0.08738206 0.007611846 0.08050191 0.07408752 -0.39421114 0.03844707
00000000: 4417 dcbd 6bee aa3e 1c1f e7bd 6166 003f
00000010: 0f76 c1be 1ba0 453e 5aa5 ccbd c476 0e3f
00000020: e90e 12bd 0732 6a3e 0a58 483e 2468 433e
00000030: 2414 ee3d 666d ce3d 4366 403e e0f1 c1bd
00000040: 3dc5 93be e32e 993c 4097 243f 3b8c ccbd
00000050: 0dd6 a2be bde2 f5be cd18 c4be dacd 373e
00000060: 52ad d1bd 2293 60bd fbdf 5d3e 9e5e 4abe
00000070: 2776 03be c98d 973e 278d 67bd 4489 c03d
00000080: a480 263e c9c5 8ebc bdda 353e fd5e dcbd
00000090: 4780 ecbc 0d14 0cbe b93a 283d 933a 39bd
000000a0: 6510 02be e14b 273e 64bb e53d 01cc 8e3e
000000b0: c8d7 813e fb81 bebd f95a 89be feb0 9dbe
000000c0: 086e 84be 0b65 8dbe 7b6c be3e f049 90be
000000d0: e8ef a4bc 7fda 463e a269 c1bd 3ba1 433e
000000e0: a98d 3d3e bd0c a2be 81c7 ac3e d18d 38be
000000f0: 316f 22bc 3924 7c3d e666 44be c3aa 683e
00000100: 4161 b23e ba56 6ebd c102 a6bd 47b5 313d
00000110: 7d6c 8abe a5d2 833e 00e4 203e a5e0 08be
00000120: 230b 823d 71d8 053e e1fb cc3b a4dd 363e
00000130: 36b8 1b3e f061 c3bd 6695 d53d 4fc5 5fbe
00000140: 7c61 db3e 1277 383d cef1 cdbd b1a1 a63e
00000150: 6424 8fbe 0229 813e 7dbc d63d 8a0b 5cbe
00000160: 0a19 31be 6cb2 08be cf41 6b3e 2295 48bd
00000170: d5ad 25bd 70d5 553d f9aa c0bd 96fa ae3d
00000180: e481 1bbd cc34 cfbe 80e9 413d ccc0 adbe
00000190: 0e37 dc3e 1776 c33d 77a1 733e 62a0 203e
000001a0: 197e a93e f689 af3e 37ce 32bd b31a 123e
000001b0: 4ae5 053f 8307 66bd e2c2 0fbd bc91 a9be
000001c0: 610a 4b3e 121d 103e 0970 953e cc08 643d
000001d0: c650 9e3e 316b 86be 8375 1c3d a9f2 07bc
000001e0: f91a 07bd 8462 893e e2dd b33c d025 9e3c
000001f0: ede1 993e 26c3 183e c039 0e3e cb4b 79be
00000200: e0b7 4bbe f750 40bd 0c1c d13e 8174 f33d
00000210: 64f3 37bf 8442 233e 3a11 17bd c94c 213e
00000220: 0757 7d3e 1e80 9ebd 6a50 b33c 6387 56be
00000230: a2f2 d23e defd 103e 33f5 493c 81ea b83c
00000240: 4d60 013f ff00 c6bd da67 20be 212f b53d
00000250: b5c4 8c3e 7da3 bb3d b89a 7d3e 9536 b4be
00000260: 4027 bb3c e471 ce3e f3bc 67be d13b ecbb
00000270: 31b1 b03d 1ac2 e43e a889 2a3e 0195 b4bb
00000280: 161e 9abd 0c40 a33e da1c 9d3e b8ee 483e
00000290: 0f03 a4be cc4d 543e 0810 08be dc75 f63e
000002a0: e19a a53d 9b24 6e3d c635 623a b973 533e
000002b0: 9b38 babe 2723 1b3c 46b3 7dbe e704 88bd
000002c0: 46a5 033f 4bae 8ebe 66bb eebc 429a 4dbe
000002d0: 6b36 543e 9ac7 6d3e 7a1c 133f 45fa 85be
000002e0: fd5d 483e 9767 16be ee0a 033f f3ef c8bd
000002f0: 9802 7dbe 5968 1f3e 5a94 75be d194 413e
00000300: 7a0a 4abe 546e 8abe b3ad bf3e 61bb 7cbc
00000310: 1384 afbe cf4a 3a3e 8455 aebe 3c45 28be
00000320: 11ea ccbe 64c5 7a3e 35be 203d 9e53 863e
00000330: 630b 0abe 6be5 9d3c 41e9 5e3e 7709 633d
00000340: 732e e9bd f8bb e3be 3de2 27be 2019 a9be
00000350: a05b 733e 366f cdbe f89d f9bd 2c7c 063d
00000360: 75a0 f53d 58cb f63d c728 163e 2271 88be
00000370: cd3d 313f 9acc a53e 0f58 a0bd 4c74 823d
00000380: 95aa 08bf 4e61 86be b060 093f bad3 d9be
00000390: 6321 6abe 7b91 b5be 8be2 d1be 4024 9c3e
000003a0: 4f53 d93d 6820 f7bd 3ecb 5d3e d8c7 8dbd
000003b0: 1a2b 883c dbf1 303e d915 41be 0974 dc3c
000003c0: ecbd 603e 4d83 78be 4978 a7be 2658 f9be
000003d0: 9aa7 e23e eea9 23bf 4d16 97bd e23e 4ebd
000003e0: 95f9 863d 14e0 8fbc 5ef5 b23d cb6c f93b
000003f0: 2fde a43d 33bb 973d 0bd6 c9be ad7a 1d3d

decoder.layers.0.self_attn.linears.3.bias f4 [16]
0.12902153 -0.16507901 0.029584032 0.18206304 0.120662324 -0.1384027 0.112342924 -0.026298046
-0.042321388 0.17867687 0.0759608 0.067877196 0.0951303 -0.3123923 0.17657116 -0.41002396
00000000: 381e 043e 790a 29be 365a f23c bc6e 3a3e
00000010: cf1d f73d 70b9 0dbe 0c14 e63d 006f d7bc
00000020: 3159 2dbd 12f7 363e 5691 9b3d 3303 8b3d
00000030: add3 c23d e2f1 9fbe 12cf 343e a9ee d1be

decoder.layers.0.feed_forward.w_1.weight f4 [64, 16]
-0.019398484 0.050699543 0.706136 -0.037845977 -0.5247589 0.0016270416 -0.010880648 0.17109574
-0.09799066 -0.05356086 0.14011255 -0.2300192 0.12208104 -0.115399584 0.16836646 0.051851034
0.17978844 0.11263106 0.21046394 0.10399553 -0.283659 -0.17878914 0.03531922 -0.19102539
0.12536728 -0.27351645 0.044621002 -0.50144243 -0.054778915 -0.07808711 0.26185346 -0.3085605
-0.30073726 0.3187924 -0.09885954 0.35127768 -0.34684798 -0.306543 0.4245108 0.08699529
-0.00078812323 -0.28728622 0.2102188 -0.24192107 0.10517156 -0.106345825 0.38050082 0.046588045
0.21546815 -0.042913258 -0.2247336 -0.17398195 -0.12414603 0.14126001 0.026469387 0.009092919
0.30624056 -0.097933196 0.20730948 -0.09373961 -0.07412798 -0.113366894 -0.17135471 0.1441767
0.22204563 -0.016063534 -0.03605076 -0.09750235 -0.20527591 -0.18301609 0.03171574 0.031235745
0.218489 -0.08498747 0.15198341 0.25012496 -0.22863992 -0.111280724 -0.15814327 0.03736827
0.08853684 0.12189951 0.4435665 0.23051728 0.32274878 -0.6414535 -0.6207904 -0.09149293
0.037742484 -0.044994406 0.19455513 0.3830109 -0.0017191445 0.048954003 0.14430355 0.104217134
-0.052052084 0.34638625 0.5805682 -0.0338355 -0.013225637 0.1237569 0.059589233 -0.37960893
0.12569812 0.013585112 -0.285765 0.075071536 0.30258086 -0.08067684 -0.07269261 0.07404534
0.11262559 -0.107499845 0.12148733 0.07281094 -0.044769723 -0.23062165 -0.27968186 0.363823
0.052445736 -0.26651517 0.19371897 0.014846206 0.46093315 -0.029961212 0.07519501 -0.30568925
-0.64281696 -0.20319755 0.57784665 0.15448502 -0.5594647 0.0987861 -0.21815097 -0.059657753
-0.3482424 -0.3162156 0.0037619036 0.141804 0.12371116 0.089058995 0.17843525 0.012154942
0.054906715 -0.24184388 0.1407456 0.22299193 -0.1513165 -0.17917323 -0.23181297 -0.20196182
0.011202593 -0.2569668 0.13230379 0.13135734 -0.25633928 -0.24192464 0.062200554 0.431328
-0.064351246 -0.12318268 0.47059354 -0.042097203 -0.17832752 0.13609153 -0.011424615 0.02430822
0.18007554 -0.37280807 -0.03539233 0.021383299 0.1628237 0.3419599 -0.0877116 -0.31840545
-0.30176893 -0.027890999 -0.2977035 -0.1823554 -0.3926998 0.39403555 0.23823763 0.108770244
0.003795418 -0.2933067 -0.0883717 -0.04895396 -0.05219143 0.21784975 0.11737964 0.011547331
0.12665044 0.05858257 0.23137009 0.21127036 -0.56173193 -0.2444097 -0.091568984 0.31472662
-0.40217462 0.13395543 -0.15112515 0.19512019 0.2709032 -0.112877846 0.2975517 0.1236413
-0.050340086 -0.3085051 -0.32140803 0.5256706 0.06661898 -0.050290562 -0.13753225 0.606748
-0.07027536 0.2809967 0.11960235 -0.1003149 -0.15666294 -0.012539307 0.150041 0.2150254
0.17464721 0.025499715 -0.24875812 -0.09624269 0.3329291 -0.03729529 0.17697449 -0.31253335
-0.24297182 -0.3616476 -0.0691255 0.32598528 0.0405421 0.0915111 -0.12589554 0.100306556
-0.049271286 0.0021795854 0.0024751804 0.20468359 0.17870016 0.31080037 -0.30313256 0.22962178
0.2515287 -0.0881549 0.096583635 0.28473306 -0.15159313 0.028088704 0.09012828 0.06618298
00000000: 92e9 9ebc 53aa 4f3d 54c5 343f 6204 1bbd
00000010: 9956 06bf 7542 d53a bf44 32bc b933 2f3e
00000020: 54af c8bd a262 5bbd aa79 0f3e 278a 6bbe
00000030: a005 fa3d 9e56 ecbd 4268 2c3e c061 543d
00000040: 761a 383e 1dab e63d dc83 573e 9cfb d43d
00000050: c13b 91be 8014 37be e3aa 103d 299c 43be
00000060: 4860 003e 590a 8cbe 83c4 363d 885e 00bf
00000070: db5f 60bd 22ec 9fbd a811 863e a4fb 9dbe
00000080: 3cfa 99be c238 a33e df76 cabd abda b33e
00000090: 0f96 b1be 34f3 9cbe 7b59 d93e 962a b23d
000000a0: 0e9a 4eba 2e17 93be 9943 573e 28ba 77be
000000b0: 3064 d73d d7cb d9bd 01d1 c23e 1bd3 3e3d
000000c0: afa3 5c3e d0c5 2fbd 9120 66be 5328 32be
000000d0: 4640 febd 77a6 103e 54d6 d83c 77fa 143c
000000e0: 90cb 9c3e 3391 c8bd f048 543e 8dfa bfbd
000000f0: 69d0 97bd e72c e8bd 9c77 2fbe 0fa3 133e
00000100: ee5f 633e ac97 83bc f6a9 13bd 50af c7bd
00000110: d933 52be 9268 3bbe 5de8 013d 1be2 ff3c
00000120: 95bb 5f3e e90d aebd 8aa1 1b3e 6110 803e
00000130: 9520 6abe 26e7 e3bd 4ff0 21be 790f 193d
00000140: ce52 b53d 73a6 f93d 261b e33e b90c 6c3e
00000150: 543f a53e 4c36 24bf 1fec 1ebf a560 bbbd
00000160: dd97 1a3d 0e4c 38bd 7639 473e 011a c43e
00000170: eb54 e1ba fe83 483d 4fc4 133e cb6f d53d
00000180: 9134 55bd 8a59 b13e 1ea0 143f 1897 0abd
00000190: 58b0 58bc 4274 fd3d d713 743d 1a5c c2be
000001a0: 02b7 003e 1794 5e3c ca4f 92be 1bbf 993d
000001b0: e1eb 9a3e e639 a5bd dddf 94bd 15a5 973d
000001c0: 3fa8 e63d e128 dcbd 59ce f83d e71d 953d
000001d0: 7560 37bd 1528 6cbe 7632 8fbe 0247 ba3e
000001e0: 57d1 563d ad74 88be 445e 463e 803d 733c
000001f0: 6eff eb3e 3771 f5bc d7ff 993d 4d83 9cbe
00000200: a78f 24bf 0513 50be c2ed 133f 5231 1e3e
00000210: 1439 0fbf 5e50 ca3d f862 5fbe b05b 74bd
00000220: d44c b2be 03e7 a1be 458a 763b 1135 113e
00000230: 475c fd3d 9064 b63d bbb7 363e 8625 473c
00000240: dde5 603d eca5 77be 9d1f 103e ff57 643e
00000250: b6f2 1abe 3079 37be 6160 6dbe 14cf 4ebe
00000260: 158b 373c 2791 83be a57a 073e 8a82 063e
00000270: e73e 83be 18bb 77be 02c6 7e3d 06d7 dc3e
00000280: 96ca 83bd 3347 fcbd a3f1 f03e 1e6e 2cbd
00000290: 7d9b 36be 945b 0b3e 4f2e 3bbc 0822 c73c
000002a0: b965 383e b3e0 bebe 8cf7 10bd 072c af3c
000002b0: 42bb 263e 5e15 af3e 24a2 b3bd 0a06 a3be
000002c0: 7581 9abe aa7b e4bc 986c 98be 60bb 3abe
000002d0: f30f c9be 07bf c93e 91f4 733e efc2 de3d
000002e0: 8cbc 783b 4c2c 96be 39fc b4bd f383 48bd
000002f0: aec6 55bd 0114 5f3e bd64 f03d 0431 3d3c
00000300: a7b0 013e 47f4 6f3d 48ec 6c3e 4257 583e
00000310: aacd 0fbf 8946 7abe 8588 bbbd d923 a13e
00000320: d5e9 cdbe 9d2b 093e 8dc0 1abe 96cd 473e
00000330: d3b3 8a3e 802c e7bd b258 983e a637 fd3d
00000340: 6831 4ebd 61f4 9dbe 988f a4be 5992 063f
00000350: 886f 883d 7afd 4dbd 41d5 0cbe d653 1b3f
00000360: 87ec 8fbd cdde 8f3e 14f2 f43d e671 cdbd
00000370: 406c 20be aa71 4dbc 59a4 193e 9e2f 5c3e
00000380: b8d6 323e c7e4 d03c 73ba 7ebe e31a c5bd
00000390: af75 aa3e f2c2 18bd cd38 353e 5f04 a0be
000003a0: 9bcd 78be e029 b9be ac91 8dbd 8be7 a63e
000003b0: 790f 263d 2c6a bb3d c3ea 00be 866d cd3d
000003c0: b0d0 49bd 60d7 0e3b a336 223b 9398 513e
000003d0: 2dfd 363e 3a21 9f3e 3134 9bbe f921 6b3e
000003e0: 5fc8 803e 8e8a b4bd a4cd c53d 88c8 913e
000003f0: 3b3b 1bbe 481a e63c 2d95 b83d f18a 873d

decoder.layers.0.feed_forward.w_1.bias f4 [64]
-0.25575596 -0.183134 0.018286975 0.21543668 -0.13064936 0.04552966 -0.035059597 0.042359862
-0.24703927 0.19186412 0.1720065 -0.14558247 -0.08635355 -0.07042571 0.16820638 0.25498098
0.01356488 -0.066993415 0.28190896 -0.093830794 -0.122746825 -0.023858186 -0.18953255 0.058474153
-0.13484651 0.011515608 0.07727728 -0.07839617 -0.22523603 -0.26880497 0.1481231 0.17423792
-0.18820289 -0.022529326 -0.1893454 0.03386134 0.20606166 0.19385277 -0.24619174 0.19859159
0.25877157 -0.04805993 0.29852185 0.047730636 -0.04065406 -0.13552818 0.071008936 0.09132763
-0.021567939 -0.12563719 -0.120730035 0.055334948 -0.17510344 -0.04005431 -0.013665318 -0.14771503
0.16785541 -0.13318157 0.06909286 0.013581281 -0.14561735 0.15225989 0.011041472 -0.089098185
00000000: 72f2 82be 7b87 3bbe 91ce 953c 6f9b 5c3e
00000010: f2c8 05be 4f7d 3a3d a79a 0fbd 8981 2d3d
00000020: ddf7 7cbe 0778 443e 7922 303e 9213 15be
00000030: 21da b0bd 5b3b 90bd 4b3e 2c3e de8c 823e
00000040: 3b3f 5e3c d833 89bd 5f56 903e 5c2a c0bd
00000050: b062 fbbd 3e72 c3bc d214 42be 9882 6f3d
00000060: 3415 0abe f6ab 3c3c 8d43 9e3d 2c8e a0bd
00000070: 46a4 66be cea0 89be 95ad 173e 6d6b 323e
00000080: 42b8 40be 6c8f b8bc c3e3 41be 30b2 0a3d
00000090: d401 533e 5781 463e b019 7cbe 985b 4b3e
000000a0: b57d 843e 7dda 44bd dbd7 983e 3381 433d
000000b0: df84 26bd e6c7 0abe 226d 913d fb09 bb3d
000000c0: 3faf b0bc 09a7 00be 4f41 f7bd e6a6 623d
000000d0: 514e 33be fd0f 24bd 7fe4 5fbc 9c42 17be
000000e0: 4ae2 2b3e c060 08be 8f80 8d3d 0584 5e3c
000000f0: b71c 15be 04ea 1b3e 4ae7 343c 1c79 b6bd

decoder.layers.0.feed_forward.w_2.weight f4 [16, 64]
-0.24378434 -0.1312949 -0.4338143 -0.27514264 0.027516412 -0.12414734 0.100638814 -0.31531224
-0.5704884 0.02506753 -0.13548663 0.060045492 -0.106154196 0.2525226 -0.26544923 -0.087654665
0.06431338 -0.0868879 0.30895767 -0.058865197 0.39175463 -0.01884242 -0.097001 -0.085965656
0.37684715 0.25057074 0.1428808 0.097106926 0.023620877 0.038656607 0.26404658 0.124591075
-0.22055086 -0.52225757 -0.24806589 0.1626281 -0.111268245 0.2787663 -0.4935506 0.06693151
0.17242232 0.0146673815 -0.23318046 -0.19020274 -0.013517754 -0.15435438 -0.32771868 -0.120140895
-0.4134679 -0.2556228 0.09109823 0.1883959 0.30455938 0.118944384 0.18337204 0.33737504
-0.31809935 -0.08645816 0.06925544 -0.28634608 0.21547006 0.11710332 -0.15726788 -0.18523341
0.30808944 0.4936192 0.27578443 -0.11034384 0.11940899 -0.335123 0.11909002 -0.44568437
-0.07653047 0.12761892 0.03943716 0.15608059 0.13725649 -0.21467543 0.23842174 -0.050929047
-0.097582236 0.1480793 -0.088323995 -0.026219517 -0.3903859 0.00976138 0.044121772 -0.144456
0.4912407 -0.14350861 0.0054371236 -0.020529237 0.10571288 -0.08954424 -0.08656924 -0.07903695
0.011573128 -0.16131441 0.18632813 -0.11162017 -0.012367303 -0.05634638 -0.46093553 -0.07979466
-0.035313983 0.13673629 -0.456004 -0.06645999 0.04620214 -0.14689131 0.07716327 0.08124371
-0.076787725 0.023830561 0.3579255 -0.041887067 -0.27943766 0.2554664 -0.10207925 -0.02311702
-0.02229057 -0.36752376 0.3582699 -0.040737778 -0.019474978 -0.27909943 0.18497935 0.23369569
-0.40741056 0.045734514 0.45340934 -0.07752974 0.22582532 0.29258105 -0.06477642 0.41697282
0.09066679 0.024508588 0.030393898 -0.48889205 0.6819655 -0.465695 0.34847867 -0.30291516
0.19167352 -0.3986796 0.1587605 0.108237736 0.06316607 -0.6802674 -0.0066247373 0.09086601
-0.14136665 0.052465647 -0.17759958 0.06653049 0.20731929 0.24473853 -0.22218192 0.060192745
0.045296285 -0.10687245 0.14954777 0.055177838 0.08196755 0.32646433 -0.03693703 0.25733683
0.3326576 -0.19668458 -0.15888834 0.040834766 -0.12533964 -0.02985379 0.14855184 0.07320487
0.1953707 -0.34380698 -0.37821382 0.21224919 -0.035952244 0.50272405 0.19272812 -0.07303775
0.03048252 -0.69879544 -0.019214505 0.36653772 0.012760737 0.17853662 -0.27342886 0.4634487
-0.057077434 -0.10799181 -0.09834794 -0.0926348 0.047807254 0.83439654 -0.33015713 -0.4672439
0.54021287 0.10132893 -0.22320768 -0.29736257 0.54947436 0.6081878 -0.17470509 0.16751206
0.35535845 -0.11255865 -0.19082214 0.24323976 0.7238787 0.11318483 0.2761517 -0.1349724
0.045375258 -0.12253479 -0.13052055 0.052329518 -0.41203535 0.06667792 0.14488886 0.21488686
-0.16186105 0.17023191 0.18591659 0.014377795 0.14241804 -0.031304333 0.016406508 0.24276488
-0.27730566 0.05271712 -0.22130181 -0.29871416 -0.16863422 0.15121932 0.2949328 -0.17820193
-0.22838472 0.2669239 -0.19303063 -0.3062055 -0.07813643 -0.17793225 0.0122663565 0.20471928
0.240227 -0.53550225 0.26831135 0.07043067 0.29784593 0.24025722 -0.09753867 -0.15329249
00000000: 9aa2 79be 2c72 06be e81c debe 7fdf 8cbe
00000010: 196a e13c f640 febd b91b ce3d 9b70 a1be
00000020: 870b 12bf 6c5a cd3c 02bd 0abe 43f2 753d
00000030: 5f67 d9bd a44a 813e f6e8 87be 4a84 b3bd
00000040: bcb6 833d 49f2 b1bd b32f 9e3e a21c 71bd
00000050: 1094 c83e 6b5b 9abc 76a8 c6bd c30e b0bd
00000060: 1cf2 c03e cf4a 803e 584f 123e ffdf c63d
00000070: 9280 c13c 6456 1e3d 1d31 873e 9b29 ff3d
00000080: 16d8 61be acb2 05bf fc04 7ebe fb87 263e
00000090: 9be0 e3bd 75ba 8e3e aab2 fcbe 6313 893d
000000a0: 7a8f 303e 754f 703c dcc6 6ebe 82c4 42be
000000b0: 9279 5dbc 130f 1ebe beca a7be 6e0c f6bd
000000c0: 11b2 d3be fee0 82be b591 ba3d dbea 403e
000000d0: 35ef 9b3e 1d99 f33d e1c5 3b3e 6cbc ac3e
000000e0: ebdd a2be fa10 b1bd ccd5 8d3d f49b 92be
000000f0: 2fa4 5c3e ded3 ef3d d50a 21be d4ad 3dbe
00000100: e6bd 9d3e a8bb fc3e 9e33 8d3e f4fb e1bd
00000110: b38c f43d 3e95 abbe 78e5 f33d be30 e4be
00000120: 02bc 9cbd 89ae 023e dc88 213d 97d3 1f3e
00000130: f78c 0c3e e0d3 5bbe d424 743e fa9a 50bd
00000140: 32d9 c7bd 1aa2 173e 36e3 b4bd 50ca d6bc
00000150: a9e0 c7be 32ee 1f3c 08b9 343d 46ec 13be
00000160: e783 fb3e ecf3 12be e629 b23b ee2c a8bc
00000170: ff7f d83d f862 b7bd 374b b1bd 20de a1bd
00000180: 389d 3d3c 9b2f 25be cdcc 3e3e 1e99 e4bd
00000190: 3aa0 4abc 76cb 66bd beff ebbe 626b a3bd
000001a0: 65a5 10bd 9904 0c3e 5b79 e9be 2d1c 88bd
000001b0: 753e 3d3d ad6a 16be c707 9e3d 1a63 a63d
000001c0: e242 9dbd 4f38 c33c 0342 b73e c691 2bbd
000001d0: 7412 8fbe 7ecc 823e ed0e d1bd e85f bdbc
000001e0: b79a b6bc 132c bcbe 276f b73e a8dc 26bd
000001f0: fd89 9fbc 1fe6 8ebe 3a6b 3d3e ec4d 6f3e
00000200: 1e98 d0be 1d54 3b3d 4525 e83e eac7 9ebd
00000210: c13e 673e 2fcd 953e 80a9 84bd 767d d53e
00000220: 83af b93d 3cc6 c83c a0fc f83c 0f50 fabe
00000230: 4a95 2e3f 936f eebe cc6b b23e b217 9bbe
00000240: 1046 443e bc1f ccbe 1d92 223e bfab dd3d
00000250: 365d 813d 0126 2ebf 5314 d9bb f517 ba3d
00000260: 6bc2 10be 38e6 563d aadc 35be 2341 883d
00000270: 824b 543e bd9c 7a3e a883 63be ab8c 763d
00000280: 9988 393d f1df dabd 0d23 193e 2802 623d
00000290: 9ade a73d 5526 a73e 484b 17bd a7c1 833e
000002a0: 1952 aa3e af67 49be a0b3 22be 5b42 273d
000002b0: 0959 00be ef8f f4bc f91d 183e 6fec 953d
000002c0: 420f 483e 7807 b0be 3ea5 c1be da57 593e
000002d0: a942 13bd 86b2 003f 855a 453e d194 95bd
000002e0: 7ab6 f93c 42e4 32bf bd67 9dbc d5aa bb3e
000002f0: 6912 513c 4ed2 363e defe 8bbe 2649 ed3e
00000300: 07ca 69bd cf2a ddbd a56a c9bd 50b7 bdbd
00000310: 8ad1 433d 039b 553f 5b0a a9be 983a efbe
00000320: 644b 0a3f 8b85 cf3d 8e90 64be e83f 98be
00000330: 5aaa 0c3f 32b2 1b3f e4e5 32be 4888 2b3e
00000340: 8bf1 b53e 2685 e6bd e166 43be d813 793e
00000350: 1d50 393f 73cd e73d c163 8d3e 3436 0abe
00000360: 68db 393d 85f3 fabd 2ea7 05be 7a57 563d
00000370: 4cf6 d2be 6f8e 883d bf5d 143e 4d0b 5c3e
00000380: e7be 25be 4651 2e3e eb60 3e3e d890 6b3c
00000390: 09d6 113e f938 00bd f166 863c 5b97 783e
000003a0: 02fb 8dbe e8ed 573d f19c 62be 10f1 98be
000003b0: 73ae 2cbe 3dd9 1a3e 6f01 973e 917a 36be
000003c0: afdd 69be 40aa 883e d2a9 45be f8c6 9cbe
000003d0: fe05 a0bd df33 36be d4f8 483c eea1 513e
000003e0: 11fe 753e ad16 09bf 1b60 893e f53d 903d
000003f0: 437f 983e fd05 763e 5bc2 c7bd b5f8 1cbe

decoder.layers.0.feed_forward.w_2.bias f4 [16]
-0.011073728 0.028071657 0.107993744 -0.094623834 -0.0113971345 -0.029364398 -0.17462628 0.0639119
-0.09908958 -0.13801494 -0.07475606 0.010078222 0.15566169 0.071234755 -0.026145423 -0.080203965
00000000: 956e 35bc 88f6 e53c d32b dd3d 24ca c1bd
00000010: 0cbb 3abc 9b8d f0bc 3bd1 32be 3ee4 823d
00000020: 7aef cabd ca53 0dbe b519 99bd 201f 253c
00000030: c765 1f3e 87e3 913d ed2e d6bc fa41 a4bd

decoder.layers.0.sublayer.0.norm.weight f4 [16]
0.9314314 1.0552622 1.478961 1.1640239 1.1635942 1.3605844 1.044121 1.1163714
0.8455437 1.0987637 0.9250953 1.2724191 0.86767673 0.896471 1.0472614 0.8561539
00000000: 4a72 6e3f d512 873f 984e bd3f bcfe 943f
00000010: a8f0 943f a127 ae3f c2a5 853f 42e5 8e3f
00000020: 8d75 583f 4aa4 8c3f 0cd3 6c3f a1de a23f
00000030: 1020 5e3f 207f 653f a90c 863f e72c 5b3f

decoder.layers.0.sublayer.0.norm.bias f4 [16]
-0.0028767665 -0.04108732 -0.05852527 -0.020474536 -0.08606266 0.056096707 -0.086093016 0.065556556
-0.1073039 -0.027512819 0.13687494 0.073716775 0.12644313 -0.08944619 0.042571176 -0.10507409
00000000: 2288 3cbb 2d4b 28bd 32b8 6fbd 37ba a7bc
00000010: 9f41 b0bd a9c5 653d 8951 b0bd 8442 863d
00000020: 26c2 dbbd 9062 e1bc f228 0c3e d2f8 963d
00000030: 4f7a 013e 902f b7bd 1d5f 2e3d 1631 d7bd

decoder.layers.0.sublayer.1.norm.weight f4 [16]
0.9908825 1.0282705 0.9077375 1.2762157 1.081352 1.2324171 1.1222194 1.017521
0.97454387 0.65882784 1.0257131 1.17083 0.9272866 1.0969269 1.1628219 0.9591369
00000000: 7aaa 7d3f 5e9e 833f 7c61 683f 095b a33f
00000010: be69 8a3f d8bf 9d3f e3a4 8f3f 213e 823f
00000020: b57b 793f f1a8 283f 914a 833f c2dd 953f
00000030: a862 6d3f 1a68 8c3f 59d7 943f ff89 753f

decoder.layers.0.sublayer.1.norm.bias f4 [16]
0.023216743 0.010470713 -0.0056638373 0.044387396 -0.13009764 -0.00077280065 -0.13618167 -0.109368846
0.087862946 -0.049552035 -0.020814523 0.03799723 0.05607263 -0.032895546 0.008310662 0.062926464
00000000: 0a31 be3c 5a8d 2b3c b697 b9bb 8fcf 353d
00000010: 5138 05be c695 4aba 3573 0bbe c6fc dfbd
00000020: 7df1 b33d 13f7 4abd 3883 aabc fca2 1b3d
00000030: 6aac 653d 7bbd 06bd 7129 083c 97df 803d
