saved_models/BCH_n31_k16__Ndec2_d16_h8/stage2_qat__BCH_n31_k16__Ndec2_d16_h8__e2000_loss0.030843.pth (torch, 77702 bytes, 42 tensors)

src_embed f4 [46, 8]
000000 81 c2 84 3f 90 41 83 3f b3 bb 83 3f ef 67 38 bf
       1.0371858 1.0254383 1.0291656 -0.7203359
000010 be 48 17 bf b7 37 37 be 09 16 a8 be 83 c3 84 bf
       -0.5909537 -0.17892347 -0.3282931 -1.0372165
000020 6e 50 7c 3f f4 eb 78 3f 66 8d 79 3f c5 65 24 bf
       0.98560226 0.97235036 0.9748138 -0.6421779
000030 06 6a 04 bf 05 39 f6 bd 90 25 dd be 3b 30 51 bf
       -0.5172428 -0.12022594 -0.4319272 -0.8171422
000040 86 c9 87 3f a3 ce 87 3f 21 a4 7f 3f bd 0b 54 bf
       1.0608375 1.0609936 0.99859816 -0.8283041
000050 69 5d 25 bf 34 c4 64 be 10 d7 a9 be eb ae 5e bf
       -0.6459566 -0.2234047 -0.33171892 -0.86985654
000060 2c a3 86 3f a9 a4 86 3f 53 88 66 3f a7 18 3d bf
       1.0518546 1.0519 0.90051764 -0.7386574
000070 c7 4d 3c bf ef 39 af be ff eb b9 be 64 67 6c bf
       -0.7355618 -0.34223887 -0.36312863 -0.9234526
000080 80 5a 3d 3f 78 19 84 3f 51 ba a6 3e 08 b9 72 bf
       0.7396622 1.0320272 0.32564023 -0.94813585
000090 fe ee be be c5 0a 6b 3d 88 d7 cb 3e 8a 37 44 bf
       -0.37291712 0.057383318 0.39812875 -0.76647246
0000a0 4e 4d 44 3f 28 99 57 3f 4e 4c fa 3d eb af 14 bf
       0.7668046 0.8421807 0.12221585 -0.5808093
0000b0 9d 07 55 be 19 c0 0e 3e 42 ad 0d 3f 55 3c 0e bf
       -0.20803685 0.13940467 0.55342495 -0.5556081
0000c0 b9 c9 41 3f de ec 31 3f a7 b3 9a bd df 0c b8 be
       0.7569843 0.69502056 -0.07553797 -0.3594732
0000d0 cf 57 44 be de 57 28 3e ec 36 17 3f 3d d4 1a bf
       -0.19174121 0.16439769 0.5906818 -0.604801
0000e0 1a 40 36 3f d1 19 25 3f 72 47 10 be 4c c6 10 be
       0.7119156 0.6449252 -0.14089754 -0.14138144
0000f0 4d 28 11 be 71 f1 3b 3e a9 91 1f 3f 79 45 13 bf
       -0.1417553 0.18353821 0.62331635 -0.5752788
000100 3b c6 34 3f 5f 16 32 3f be d3 01 be 13 35 55 be
       0.70614976 0.69565386 -0.1267843 -0.20821027
000110 a0 16 ad bd da 27 4e 3e 46 7d 19 3f 7e f1 08 bf
       -0.08451581 0.2013239 0.5995678 -0.5349349
000120 16 47 4f 3f be e0 26 3f 80 61 76 be 6e 02 44 be
       0.80967844 0.6518668 -0.24060631 -0.19141552
000130 6f 31 ef bd 7e f0 2e 3e 16 1f 1b 3f eb e5 04 bf
       -0.116793506 0.17083928 0.6059431 -0.51913327
000140 c1 64 65 3f 7e 8a 3f 3f 49 a8 ad be b2 11 19 be
       0.89606863 0.748207 -0.33917454 -0.14948156
000150 2e a4 c0 bd bb 95 47 3e bb 84 14 3f e6 1c cd be
       -0.09406315 0.19490711 0.5801503 -0.4006111
000160 4e d3 65 3f 35 cc 48 3f c4 b1 b2 be 83 90 3b be
       0.8977555 0.78436595 -0.3490125 -0.18316846
000170 42 ba b8 bd 9a 60 4d 3e 60 6b 0e 3f 90 f0 c3 be
       -0.09019901 0.20056382 0.5563259 -0.38269472
000180 4c 9c 82 3f 14 86 47 3f 62 34 10 bf 6c 5a 9e 3d
       1.0203948 0.7793896 -0.5632993 0.0773209
000190 87 79 95 bd d8 b4 44 3e 29 f1 d9 3e 0f cc a8 be
       -0.0729857 0.19209611 0.42566803 -0.32968184
0001a0 c2 c7 7b 3f 13 71 42 3f cc 06 fd be ac 03 6e 3d
       0.9835168 0.7595379 -0.49419248 0.05810897
0001b0 4f 93 ad bd 75 20 50 3e 8c 3c e1 3e 73 c6 90 be
       -0.084753625 0.20324881 0.43991506 -0.28276405
0001c0 af 65 74 3f 11 12 41 3f 31 ac f4 be 99 50 96 3d
       0.95467657 0.7541819 -0.47787622 0.073395915
0001d0 c0 e6 84 bd fd c2 4c 3e 57 dc eb 3e ae ca aa be
       -0.064893246 0.19996257 0.46066543 -0.33357757
0001e0 fe dc 56 3f 8a 50 24 3f de 5e c7 be c1 63 74 3d
       0.8393096 0.6418539 -0.38939565 0.059665445
0001f0 37 98 0a be bc 35 5b 3e 9d 49 d3 3e 3b 66 11 bf
       -0.13534628 0.21407217 0.412671 -0.56796616
000200 3f 2f 77 3f 8c 8a 0a 3f 75 3d f7 be 9a 58 84 3e
       0.96556467 0.54117656 -0.48289075 0.25848848
000210 87 8c a9 bd 76 f9 45 3e 1f b2 db 3e de 0a 05 bf
       -0.082787566 0.19333443 0.42909333 -0.51969707
000220 f0 67 70 3f 3a d5 0c 3f 17 f5 03 bf 6c d4 8c 3e
       0.93908596 0.5501286 -0.5154585 0.27505815
000230 90 e6 93 bd 39 dd 3a 3e 5f a4 d8 3e 85 7c 00 bf
       -0.07221711 0.18248452 0.42312905 -0.5019
000240 e2 d4 73 3f 50 36 0d 3f 6c 80 f3 be 02 bf 86 3e
       0.9524671 0.55161 -0.47558916 0.26317602
000250 b9 21 bb bd f4 23 40 3e 6c 1b e2 3e 50 ab 07 bf
       -0.091372915 0.18763715 0.44161546 -0.5299578
000260 7c 6b 35 3f b6 7c 27 3f c3 af 78 be 54 a2 4f 3d
       0.70867133 0.6542467 -0.24285798 0.050691918
000270 38 dd b1 bd 47 2d 80 3e 24 ce 06 3f ba ef 03 bf
       -0.08684772 0.25034544 0.52658296 -0.5153767
000280 f7 5d 46 3f c4 ec 34 3f 73 ed 87 be 2e b8 2d be
       0.7748713 0.70673776 -0.26548347 -0.1696479
000290 f5 e3 ed bd 40 51 48 3e 65 db 13 3f ca 1f f0 be
       -0.11615745 0.19562244 0.57756644 -0.46899253
0002a0 9b 36 47 3f 03 64 4b 3f d5 3b fe bd f5 83 e6 be
       0.77817696 0.7944948 -0.12413756 -0.4502255
0002b0 c5 49 52 be e4 c2 15 3e bb 7d f9 3e a3 fd 05 bf
       -0.20535953 0.14625126 0.48728737 -0.52340144
0002c0 be 01 39 3f 4b d6 47 3f bb c4 8e 3e 02 ba 43 bf
       0.72268283 0.7806136 0.27884468 -0.764557
0002d0 1f f0 96 be 2a 5d 44 3d 7d 8f d1 3e b8 c1 3c bf
       -0.29480073 0.04794041 0.40929785 -0.7373309
0002e0 08 34 2d 3f 5d 54 3c 3f af a9 62 3e 84 d7 40 bf
       0.6765752 0.7356623 0.22135042 -0.7532885
0002f0 1f cc 99 be 5f 88 f1 3c 37 fa db 3e 82 a9 46 bf
       -0.30038545 0.029483972 0.42964336 -0.776024
000300 c4 4a 2e 3f 87 b6 49 3f 7f 43 5c 3e 06 97 3b bf
       0.68082833 0.7879414 0.21510123 -0.7327732
000310 34 6d 8f be 96 a8 74 3d a7 07 fb 3e 9f a4 39 bf
       -0.28013003 0.05973109 0.49029276 -0.72516817
000320 ca ab 31 3f ff 73 4e 3f 2c c5 34 3e 2e 30 34 bf
       0.69402754 0.80645746 0.1765334 -0.70386016
000330 7e 41 71 be d2 91 c9 3d ef 14 f2 3e cb d5 2a bf
       -0.2356014 0.09842266 0.47281596 -0.6673247
000340 97 2a 29 3f 70 a0 4a 3f 6e 07 93 3e 6c eb 09 bf
       0.6608061 0.7915106 0.28716606 -0.5387485
000350 fa 91 5c be a5 98 0a 3e 12 ec ea 3e 2e 16 23 bf
       -0.2154006 0.13534792 0.45883232 -0.6370572
000360 6a 6a 4d 3f 9f 7d 4d 3f da 95 28 3f f2 0a 37 bf
       0.802405 0.8026981 0.65853655 -0.71501076
000370 b7 d4 25 be a7 30 05 bd 10 41 e2 3e 3e 63 5c bf
       -0.16194426 -0.0325171 0.44190264 -0.8608893
000380 bf 50 40 3f b9 52 4a 3f 9c a9 45 3f 6d 26 2e bf
       0.7512321 0.79032475 0.7721193 -0.68027383
000390 05 a8 03 be a1 dc eb 3c 64 ea d7 3e 82 d8 47 bf
       -0.12857063 0.028791727 0.42171013 -0.7806474
0003a0 1f 83 4f 3f 27 3e 28 3f 0b 5e 36 3f 40 8a 16 bf
       0.8105945 0.65719837 0.7123725 -0.588047
0003b0 f5 f8 5b be 1d bc 8d bc 22 68 fa 3e 9f 79 5b bf
       -0.21481688 -0.017301613 0.48907572 -0.85732454
0003c0 cc 23 82 3f ad fc 69 3f 2f 32 6c 3f 0c f3 3e bf
       1.0167174 0.9140118 0.92264074 -0.7458961
0003d0 8e 61 30 bf f9 e9 62 be 80 f8 62 be cc 22 82 bf
       -0.68898857 -0.22159566 -0.22165108 -1.0166869
0003e0 ee d7 5e 3e 9b 53 89 3e 45 8c 30 bf df c4 45 be
       0.21762058 0.26821598 -0.68964034 -0.19313382
0003f0 18 c9 cf 3e a2 71 cb be 60 64 4f be 13 a1 94 be
       0.4058311 -0.39735132 -0.20253134 -0.2902914

decoder.layers.0.self_attn.linears.0.weight f4 [16, 16]
000000 7c 7f 1d bd 1a ae 1f 3f 52 00 4c bf 5b d9 93 3c
       -0.038451657 0.6237503 -0.7968799 0.01804798
000010 f3 df fa 3e ce e8 12 be 20 ba 17 be 13 43 d0 bd
       0.48998985 -0.1434662 -0.14817095 -0.101690434
000020 6a 10 0b bf 19 61 26 3e 44 1d 16 3f de db 1d 3e
       -0.5432192 0.16247977 0.58638406 0.15415904
000030 8c 26 07 3f e7 0e 7f 3e a9 59 ec 3e 8d dd 17 bf
       0.5279319 0.24908029 0.46162155 -0.59322435
000040 63 c4 1f 3f f3 a9 0d 3f b9 af 80 3e cc b2 8b 3e
       0.6240904 0.55337447 0.25134066 0.2728485
000050 9c 0b 92 bc 8f 51 18 3f 36 e6 1a 3f 48 79 6c be
       -0.017827801 0.5949945 0.60507524 -0.2309314
000060 79 13 1e bf e3 0b 31 3f 1d 6d 09 3f 49 3c fc 3e
       -0.6174846 0.6915876 0.5368212 0.49264744
000070 06 8c 1f 3f 8b 0d 2b bf 99 7b 1e 3f 8b 37 1e bf
       0.62323034 -0.6681754 0.61907345 -0.618035
000080 8f 7c 1e bf 03 fa b8 bd 19 cc 1e 3f d7 4c 1d be
       -0.6190881 -0.09032061 0.6203018 -0.15361343
000090 32 46 1d be 2d 8b f3 be 93 4d 20 bf 84 ba 87 3f
       -0.15358809 -0.4756712 -0.6261837 1.0603795
0000a0 00 be bd 3e e8 14 1e bf 13 1b 3d be af a2 33 bf
       0.3705902 -0.6175065 -0.18467359 -0.7017011
0000b0 b2 de 1d bf 7f b9 7c 3c 12 ca 3a be 8c 67 1f 3f
       -0.6166793 0.015425085 -0.18241146 0.62267375
0000c0 63 cd 4e bf a7 88 1d bf d0 57 07 bf 02 fd 06 bf
       -0.80782145 -0.6153664 -0.52868366 -0.5272981
0000d0 cd 7f 69 be ba 6c 88 be 54 e3 1a 3e 90 d6 92 bc
       -0.22802658 -0.26645452 0.15125781 -0.017924577
0000e0 e0 82 1f 3f 54 d4 c4 be 0c 56 1f bf 9c 16 d8 be
       0.62309074 -0.38443244 -0.6224067 -0.4220475
0000f0 6d 31 1c bf 8e fb b4 3e c9 95 10 be ac 8e 1f 3f
       -0.6101292 0.3534817 -0.14119639 0.62327075
000100 ab 47 9b bd 76 b4 55 bf 77 17 3e bf 33 78 1f 3f
       -0.07582029 -0.83478487 -0.74254555 0.62292784
000110 a9 b7 82 3f 3b 84 49 3e f1 e7 82 be 66 dc 7b 3d
       1.0212299 0.19679348 -0.25567582 0.061489485
000120 88 dd fd be 95 5f 13 3f 26 a8 ae 3e 2f 3b 1e 3f
       -0.49583077 0.5756772 0.34112662 0.61809057
000130 08 de c7 3e 19 5d 8c 3d 37 07 1e 3f cd 0d b7 bd
       0.39036584 0.068536945 0.6172976 -0.08938179
000140 60 9c 35 be e8 76 65 3e 2b 4d 51 bf 22 1e b7 3e
       -0.17735434 0.2240864 -0.81758374 0.35765177
000150 0c 24 0d 3e 1a ba 0d 3f fe 45 fb 3e 43 3a 1b 3e
       0.13783282 0.55362093 0.49076837 0.15158944
000160 83 68 3f be da 42 ab 3e 44 13 81 3e c4 c4 fc 3e
       -0.18692212 0.3344944 0.2521001 0.4936887
000170 13 f9 46 be 0b c3 b0 3c 03 a8 ae 3e 10 68 d3 be
       -0.19430952 0.021577379 0.34112558 -0.4129033
000180 eb 69 8b be 62 46 38 3d 63 56 1d 3e 6e 6f 66 be
       -0.27229246 0.044988997 0.15364985 -0.22503445
000190 68 56 1d be 75 56 1d be 2a e8 1e bf bd 54 1d be
       -0.15364993 -0.15365012 -0.62073004 -0.15364356
0001a0 b9 2d 07 3f 41 71 1e bf 43 e3 43 bf 77 f3 06 bf
       0.5280414 -0.6189156 -0.7651865 -0.5271525
0001b0 38 95 31 bf 98 1d c6 3e 4e 2d 06 bf 94 19 07 3f
       -0.69368315 0.38694453 -0.5241288 0.52773404
0001c0 02 68 56 3e 51 bd ab 3c fd 98 81 bd 8e 74 1f 3f
       0.20938113 0.020964297 -0.06328008 0.62287223
0001d0 ad da 8f 3d 57 a7 02 3f a5 94 fb 3e ee aa 1d be
       0.07024131 0.5103659 0.49136844 -0.15397236
0001e0 98 f8 4e be bf 32 10 3e 35 08 07 be 51 0f 43 3e
       -0.20212018 0.14081858 -0.13186724 0.19048811
0001f0 1a fa eb bd c3 35 75 be 2b 93 1f 3f 2c 94 1a bf
       -0.115223125 -0.2394629 0.62333935 -0.6038234
000200 5e f6 5f 3e aa 6c 58 3f f3 59 23 3f 25 1a 35 3f
       0.21871325 0.8454081 0.63809127 0.7074302
000210 17 2d 2b be eb be 8a 3e a5 e4 fa 3e f1 e3 32 be
       -0.16716419 0.27098784 0.49002567 -0.17469765
000220 75 68 98 3e 9c ec 58 bd 32 ad ae 3e 3e 32 8a 3e
       0.29767194 -0.052960023 0.34116513 0.26991457
000230 b9 21 27 be fd fc 1f 3f 0d 6e 96 be e4 73 36 3f
       -0.16321458 0.62495404 -0.29380837 0.71270585
000240 85 a9 ae 3e eb ba 5f bd 6e 47 1d 3e 10 2f 0e 3d
       0.34113708 -0.05462162 0.1535928 0.03471285
000250 28 d2 14 3e 90 c3 d0 be c4 aa ae 3e 4d cc 45 bf
       0.14533293 -0.40774202 0.3411466 -0.77264863
000260 a3 32 1a bf 0b 3b c4 3e 86 3b 07 bf 1d e4 f2 be
       -0.60233516 0.38326296 -0.528252 -0.47439662
000270 31 0b 8f bb b8 8c 1c bf 11 45 0e 3f 84 d0 a3 be
       -0.004365348 -0.6115222 0.55574137 -0.31995022
000280 b4 0d 44 be cb ea 53 bd b8 59 9f bd 2d 17 1b be
       -0.19145852 -0.051737588 -0.07780784 -0.1514556
000290 0e 94 33 bf 39 d6 95 3d 3a 55 1d 3e 89 7b 75 be
       -0.7014779 0.0731625 0.15364543 -0.23972906
0002a0 a6 79 ae 3e 0a 77 f5 be ce e6 ab be fc 71 f2 be
       0.34077185 -0.47942382 -0.33574528 -0.47352588
0002b0 af 50 90 be f6 f2 38 3f b8 0c 2b bf 9d 33 14 3f
       -0.28186557 0.7224573 -0.6681628 0.57891256
0002c0 40 e3 1f 3f 06 07 6b bd f0 ed d3 bd f6 a8 82 be
       0.6245613 -0.057379745 -0.10348117 -0.25519532
0002d0 69 9e ae 3e 22 a6 98 3f c6 9f 70 be 5f a5 4c bf
       0.34105232 1.19257 -0.23498449 -0.79939836
0002e0 e5 15 27 bf 0f 0b 0b 3f 8c 60 1d be 4f 28 7e bd
       -0.65267783 0.5431375 -0.15368861 -0.06205016
0002f0 d5 43 1e 3e 3c c9 3b bf 3e d9 17 3f ba 3c 05 be
       0.15455563 -0.73353934 0.5931586 -0.13011447
000300 9b ef 8e 3e bd 58 6b 3f c7 cf 91 be 49 b9 a1 3e
       0.2791718 0.9193228 -0.28478834 0.31586674
000310 86 72 4c 3f 3b 91 a3 3e f0 63 99 3e f4 66 93 3b
       0.7986225 0.3194674 0.2995906 0.004498357
000320 96 0d 29 3e 4f 11 fe 3e 7c 62 04 bd 0d fb db be
       0.16509089 0.4962258 -0.032320485 -0.42964974
000330 07 0d f3 be bc c3 15 3f bd e3 02 3f cc 14 0d 3e
       -0.47470877 0.5850179 0.5112875 0.13777465
000340 41 c8 1f 3f 6b a5 19 3f 63 58 1d 3e a3 18 c9 be
       0.6241494 0.6001803 0.15365748 -0.3927661
000350 90 32 28 3e fc c8 46 3f 72 0f af 3d bd df 74 bf
       0.16425538 0.7765043 0.08547868 -0.956539
000360 50 5b 7f 3e d4 4a e0 3c 9e a0 ae 3e 70 0a db 3e
       0.24937177 0.02737943 0.34106916 0.427814
000370 47 06 07 3f 04 ad ee 3d ab 11 20 bf 3b e2 29 bd
       0.52743953 0.11654094 -0.6252696 -0.041475516
000380 8e 74 b6 3f 68 30 93 3f 1b f4 0b c0 15 31 db 3f
       1.425432 1.1499147 -2.186774 1.7124354
000390 f2 ed 4f 3f af 44 6f 3f e1 0e 71 3f ed 01 c9 bf
       0.8122245 0.9346418 0.9416333 -1.5703713
0003a0 02 b2 fd be 1d c2 11 3f 2d d0 fc be 83 6a 14 3d
       -0.49549872 0.5693682 -0.49377576 0.03623439
0003b0 1c 45 12 3f fb 09 1f bf 49 50 0b 3f f6 64 b4 be
       0.571367 -0.62124604 0.5441938 -0.35233277
0003c0 ca a9 7f 3e 24 71 5b 3f 60 61 06 bf e2 9b 27 3f
       0.24967113 0.85719514 -0.5249233 0.65472233
0003d0 d4 05 1c 3f dc ae 1f 3f 50 ed 1f 3f 42 a2 e1 3d
       0.60946393 0.6237619 0.62471485 0.11017276
0003e0 03 e0 f0 3e bd 26 39 bf 7f 66 fd be 29 dc 0d bf
       0.47045907 -0.72324735 -0.4949226 -0.5541406
0003f0 95 f1 18 bf 9c 23 1f 3f 20 7b 1d bf ef 5d ae 3e
       -0.59743625 0.6216371 -0.61516 0.3405604

decoder.layers.0.self_attn.linears.0.bias f4 [16]
000000 7d e4 b3 be a0 98 71 bf eb 88 28 3f db bf 79 3f
       -0.3513526 -0.9437351 0.6583392 0.97558373
000010 68 6b b3 be d5 f7 0f bf 29 71 a4 3f 74 f5 b1 be
       -0.35042882 -0.56237537 1.2847034 -0.34757578
000020 0b 48 73 3f de 57 3d bf 96 ac 62 3f ac 26 5b bf
       0.95031804 -0.739622 0.88544595 -0.85605884
000030 e8 d0 9e 3e 7e 40 18 be 49 cb 2e bf 38 df 21 3f
       0.31018758 -0.14868352 -0.6827894 0.6323123

decoder.layers.0.self_attn.linears.1.weight f4 [16, 16]
000000 e0 13 07 3f 27 05 3d 3e f0 df fb 3e 72 70 3a 3e
       0.527647 0.18458997 0.49194288 0.18206957
000010 ff f9 bd bd f9 62 81 3e a6 b6 2c 3e 43 8b cd be
       -0.092761986 0.25270823 0.1686655 -0.4014531
000020 ad cf 13 bf bb d2 bf 3e fc 3f 67 3e 51 52 14 3f
       -0.57738763 0.37465462 0.22583002 0.57938105
000030 27 63 e5 3e a8 58 39 3e 63 42 7d 3e 76 fe 1c bf
       0.4480221 0.18100226 0.24732356 -0.61325777
000040 24 7e 14 3f df 38 11 3f 82 80 f3 3e 89 e9 13 3f
       0.58004975 0.56727403 0.4755898 0.5777822
000050 b7 06 3d be ca 5c 14 3f b3 50 14 3f 27 36 e9 be
       -0.18459593 0.57954085 0.5793564 -0.45549127
000060 02 6a 14 3f 54 13 a0 be bb 34 14 bf 54 61 14 bf
       0.57974255 -0.31264746 -0.5789296 -0.5796101
000070 53 0e 7f be 8b 3f 12 bf 9b 3e 57 bc 36 40 2d 3f
       -0.24907808 -0.5712821 -0.013137485 0.67676103
000080 1a 35 10 bf c9 b8 ab be 28 4a 14 bf 11 b5 76 be
       -0.56331027 -0.33539417 -0.57925653 -0.24092509
000090 52 0f a5 bd 72 8d 14 bf 85 7e 14 bf 15 97 2d 3f
       -0.08059563 -0.5802833 -0.58005553 0.6780866
0000a0 40 a2 39 3e f6 7d 14 bf 55 40 04 be 08 05 d6 be
       0.181283 -0.580047 -0.12915166 -0.41800714
0000b0 59 8b a1 be c0 e9 3c 3e e1 3c 42 be 13 7a cb be
       -0.31551626 0.18448544 -0.18968536 -0.39741573
0000c0 62 05 3d be dd 55 14 bf e7 6b a6 be fb da c6 be
       -0.18459085 -0.57943517 -0.32504198 -0.38838944
0000d0 42 9f 97 3e 1c 60 14 bf 76 89 14 bf b7 ee 40 ba
       0.29613692 -0.5795915 -0.5802225 -0.000735979
0000e0 ef 6d 14 bf 31 1f 82 bc 35 88 13 3f bb 1f 0e 3f
       -0.57980245 -0.015884014 0.5762971 0.55517167
0000f0 0b 86 85 3e b6 62 14 3f 60 2e 48 3e 69 4d 14 bf
       0.2607883 0.5796312 0.1954894 -0.5793062
000100 96 f8 13 3f d7 20 13 3f 25 2c 9d 3d 81 25 79 be
       0.5780119 0.57471985 0.076744355 -0.24330713
000110 99 6f 36 3f 14 29 e5 3d c8 a1 13 3f 27 cc b7 bd
       0.71264035 0.11189476 0.57668734 -0.08974486
000120 6a 75 14 bf af 16 41 bf eb 6f 2f be 8a 11 fa bd
       -0.5799166 -0.7542524 -0.17132537 -0.122103766
000130 ca 59 c4 be 90 9d 92 3e 3b 7d 14 3f c5 53 f0 bf
       -0.38349754 0.28635836 0.58003587 -1.8775564
000140 d0 10 22 3f c3 c6 13 3f dd 1d a5 3d ab 06 3d be
       0.63306904 0.5772516 0.080623366 -0.18459575
000150 73 4c cb 3e 02 85 28 3e dc d5 13 3f e3 74 14 bf
       0.39706764 0.16456988 0.577482 -0.57990855
000160 b3 69 10 bf fe 98 62 bf 99 07 67 be 5f 5a 41 3d
       -0.56411284 -0.885147 -0.22561492 0.047205325
000170 0a 04 08 3e 29 b1 e3 bd 1d 25 2f 3d 43 36 f5 bf
       0.13282791 -0.11117775 0.042760003 -1.9157184
000180 73 50 14 bf a2 0c 04 bf 91 83 c5 be e5 59 13 bf
       -0.57935256 -0.51581776 -0.3857694 -0.57559043
000190 ed 60 14 3f 76 59 14 bf e3 27 3d be c6 77 7f 3f
       0.57960397 -0.57949007 -0.18472247 0.99792135
0001a0 03 ec d5 be eb 60 f2 3e 99 18 c9 3e ff 31 4a be
       -0.41781625 0.47339568 0.3927658 -0.19745634
0001b0 09 6a ae 3e 72 87 14 3f d4 05 3d 3e 55 03 34 3f
       0.34065273 0.58019173 0.18459255 0.70317584
0001c0 e4 f7 7b bf 58 a4 0e 3f d9 e8 2c 3e 2c d9 13 3f
       -0.98425126 0.5571952 0.168857 0.57753253
0001d0 5e 90 fa be 8a 69 14 3f 50 a1 55 3e bb d3 02 bf
       -0.48938268 0.5797354 0.20862317 -0.51104325
0001e0 e1 6b 14 3f f6 28 47 3e d8 8b 28 bf f0 e8 b5 be
       0.5797711 0.19449219 -0.65838385 -0.3552928
0001f0 65 c0 74 bf d8 30 a2 bc c8 ca 47 3e a5 78 dd 3f
       -0.9560607 -0.019798681 0.19510949 1.7302443
000200 23 ab eb be cf 88 2c bf c5 c9 2d 3e 8c 49 14 bf
       -0.46029004 -0.67396253 0.169715 -0.57924724
000210 6c 94 13 3f c4 a1 8b be c3 a2 0c bf 3c 85 10 3f
       0.5764835 -0.27271855 -0.54935855 0.564533
000220 bd 5e 14 bf 25 76 7c 3e b0 b4 9c 3f ed 4b 5a 3f
       -0.5795706 0.24654444 1.2242641 0.85272104
000230 5c b4 20 3f 44 13 54 3d 81 e4 38 bf 98 38 0f bf
       0.62775207 0.051776186 -0.7222367 -0.5594573
000240 e8 a5 0d 3f df 54 12 3f 1c 1f c6 3e f4 82 b6 be
       0.5533128 0.57160753 0.3869561 -0.35646784
000250 22 92 14 bf e6 58 12 3f 6b 69 14 3f 9f 52 14 bf
       -0.5803548 0.571669 0.57973355 -0.5793857
000260 8b 21 0c bf 46 f9 43 bf ae 66 14 3f 06 65 14 3f
       -0.5473868 -0.76552236 0.57969177 0.5796665
000270 62 76 14 3f cd 1d bd bd 33 8f 14 bf 5c d5 fb be
       0.5799314 -0.092342 -0.58031005 -0.49186218
000280 3d 3e f5 be 31 a0 08 bf 33 f8 3c 3e 33 dc 61 be
       -0.47899047 -0.5336943 0.18454055 -0.22056656
000290 ea ca 22 3f 80 01 a0 3d 16 59 0f bf f7 9a ba 3e
       0.6359087 0.07812786 -0.5599531 0.36446354
0002a0 0c 0c 0e 3f e4 e8 2a be f9 7e 14 bf 4f 62 35 bf
       0.5548713 -0.16690403 -0.58006245 -0.7085313
0002b0 54 14 fc be 58 4f 14 bf e0 b5 40 3f eb a0 84 3f
       -0.4923426 -0.5793357 0.7527752 1.0361608
0002c0 e4 4c e8 3e 21 d9 0a 3f 9a fd 1e 3e ed cc 72 be
       0.45371163 0.5423756 0.15526429 -0.23710985
0002d0 e8 75 10 bf f6 9b fb 3e 42 27 13 3f 01 1a a9 be
       -0.5642991 0.49142426 0.5748178 -0.33027652
0002e0 3f 4b 52 bf 94 f8 12 bf 64 d9 31 3f 16 8d 24 3f
       -0.82146066 -0.5741055 0.69472337 0.6427778
0002f0 0b f0 63 3f 8e 4a 14 3f 76 ec a5 bf b8 c5 82 bf
       0.8903815 0.5792626 -1.2962787 -1.0216589
000300 9c 6e ef be 5c 01 0d bf 54 de 90 be 58 a5 13 3f
       -0.46764076 -0.550802 -0.28294623 0.5767417
000310 7d f1 3a bf c5 9f 4c 3e 8b 40 3e 3e 3b d0 fb 3e
       -0.7302473 0.19982822 0.18579309 0.49182305
000320 b5 8f 13 be 1a b1 23 bf 7d f4 12 3f 4f 57 6f 3f
       -0.14410289 -0.6394211 0.5740431 0.934926
000330 bf 4c 4e 3e 45 25 82 3e 32 e6 a0 be 49 8a 0e be
       0.20146464 0.2541906 -0.31425625 -0.13919939
000340 e5 52 39 be 7d 93 07 3f c8 53 70 be 24 da 2a 3e
       -0.18098028 0.52959424 -0.2346946 0.16684777
000350 e0 03 3d 3e d5 b9 f2 3d e0 6f f2 3e a7 84 3f be
       0.1845851 0.11851851 0.4735098 -0.18702947
000360 4c 64 14 3f 16 77 3d bf 02 64 f5 bd 19 7d 14 bf
       0.5796554 -0.74009836 -0.119819656 -0.58003384
000370 2a 4b 14 bf 5c 64 14 3f 88 2c 16 bf 54 84 9e 3e
       -0.5792719 0.57965636 -0.586617 0.30960333
000380 4f 5a 01 bf b0 4c 42 3e 4a f1 fb 3e b7 95 13 bf
       -0.50528425 0.18974566 0.49207526 -0.5765032
000390 5e 98 2b bf c2 5c 14 3f fc 49 b7 3e a8 46 0e bf
       -0.6702937 0.5795404 0.35798633 -0.5557656
0003a0 b7 bd fe 3f ae 77 2a c0 11 70 34 3d ea 62 14 3f
       1.9901646 -2.6635547 0.044052187 0.5796343
0003b0 7f 67 14 3f ed c0 3d 40 bf 82 ce bf 31 f2 13 bf
       0.5797042 2.9649003 -1.613365 -0.5779143
0003c0 00 31 0e bf 43 95 13 bf 13 0a aa 3e d3 85 14 bf
       -0.5554352 -0.5764963 0.3321081 -0.580167
0003d0 b7 5e 11 3f 57 18 11 bf ad 61 14 bf 64 26 0f 3f
       0.5678515 -0.56677765 -0.5796154 0.55917954
0003e0 24 bd 64 bf e6 ee 3f 3e 98 aa 44 bf 72 db cc 3e
       -0.89351106 0.18743476 -0.76822805 0.40011173
0003f0 c9 7d 14 3f d8 da e9 be 36 f3 c8 3d c4 62 59 3f
       0.5800443 -0.45674777 0.09812014 0.8491633

decoder.layers.0.self_attn.linears.1.bias f4 [16]
000000 7e e1 01 3f 74 e6 56 3f 28 49 e9 be b9 bf 9d be
       0.507347 0.83945394 -0.45563626 -0.30810335
000010 a0 b6 1f 3f 9a 2d 40 3e 4a f0 da be 7e 14 af 3d
       0.6238804 0.18767396 -0.4276145 0.085488304
000020 38 1a 8b 3e 2a 97 3f 3e 41 72 a7 3c 65 9b 1a 3b
       0.2716844 0.18710008 0.020440223 0.0023591158
000030 64 c0 c4 bc e5 d2 6a be 2f 9f 27 3d 35 1d a9 be
       -0.02401752 -0.22932012 0.040923294 -0.33030096

decoder.layers.0.self_attn.linears.2.weight f4 [16, 16]
000000 5e 0b 13 bf c1 12 10 bf f8 1b fc 3e 0c 2b df 3e
       -0.5743922 -0.56278616 0.49240088 0.4358753
000010 80 28 9b be 3a 22 fb 3d 6b 8f 15 bf ab 76 c6 3e
       -0.30304337 0.122623876 -0.58421963 0.3876241
000020 4a 18 20 3d 21 4a 18 be aa ed 98 3e 0c 8d d7 be
       0.039085664 -0.14872028 0.29868823 -0.42099798
000030 0f 09 61 3c 70 50 fa 3d 87 59 a5 bd fa a6 d9 3e
       0.01373507 0.122223735 -0.080737166 0.42510206
000040 ec 78 f9 be eb b4 be be b7 e2 72 3e 19 76 bf be
       -0.4872507 -0.37247404 0.23719297 -0.3739479
000050 fa e6 c1 3e 48 59 06 bf fd 1f fb 3d 53 34 3d 3f
       0.37871534 -0.5247998 0.12261961 0.73907965
000060 d3 39 fb 3d 98 06 a5 3d 94 26 bf 3e d4 2e 08 3e
       0.122668885 0.08057898 0.3733412 0.13299114
000070 f3 22 fb 3d 81 06 c8 3e d0 ce 9b be a4 0b bf 3e
       0.122625254 0.39067462 -0.30431223 0.3731357
000080 07 8d be 3e 2d 0c 3b 3f 18 ba 1f bf f9 c1 f9 be
       0.3721697 0.73065454 -0.6239333 -0.48780802
000090 d7 f6 c5 3e 6d 5a 2b be db 8e ed 3e 57 10 bf be
       0.38664886 -0.16733713 0.46398053 -0.37317154
0000a0 0b 99 b7 be 2a 8f d1 3e cf 22 fb bd 38 fe be 3e
       -0.3585895 0.40929538 -0.122624986 0.3730333
0000b0 4b d4 e1 3e bb e1 e8 3d 8b 23 0b 3e 16 37 cb bd
       0.4410728 0.1137118 0.13587777 -0.09922616
0000c0 34 6e 04 bf 4c c2 c9 be b8 03 bf 3e 83 1e c3 be
       -0.51730657 -0.3940605 0.37307525 -0.38109216
0000d0 ba b2 03 3f 29 fd c4 be 85 43 8f bc c4 cf 05 3f
       0.5144459 -0.38474396 -0.01748825 0.5227015
0000e0 b3 a1 e9 3e 2c 0f 6e bd 35 e0 bd 3e 58 1b bf 3e
       0.4563118 -0.058119938 0.3708512 0.3732555
0000f0 91 5b 9c 3d a4 3e fb 3d 2a ac d6 3e a0 8c 63 be
       0.076346524 0.12267807 0.41928226 -0.22221613
000100 01 01 05 3f 71 48 c7 be 18 60 ec 3e 32 8d d3 3e
       0.51954657 -0.38922456 0.46167064 0.4131866
000110 6e c2 c6 be 3f c0 14 3f e1 2b c7 be a0 42 c5 be
       -0.38820213 0.58105844 -0.38900664 -0.38527393
000120 71 b5 6f be 9b 30 9e 3e 34 22 82 3e 71 f7 90 3e
       -0.23409058 0.30896458 0.2541672 0.28313783
000130 02 27 93 3e 6a 0a bb bd 81 24 fb 3d 21 41 97 be
       0.28740698 -0.09132846 0.12262822 -0.29541877
000140 67 27 82 bf f3 d0 d3 be 27 a5 c8 3e 84 56 25 3d
       -1.0168275 -0.41370353 0.391885 0.04036571
000150 b8 5b 67 3e ae 0f 95 3e 44 17 b0 be fb 91 24 3f
       0.22593582 0.29113525 -0.3439275 0.6428525
000160 b4 03 bf 3e 1c ae a2 be ab 19 bf be ff 71 8f 3e
       0.37307513 -0.3177346 -0.3732427 0.2801666
000170 7a 60 13 3e 3a 04 bf 3e 35 f4 50 bc 14 5c a1 bc
       0.14392272 0.37307912 -0.012753536 -0.019697227
000180 18 b3 73 bf bd c6 78 bf a7 20 fb bd f0 c0 cf 3e
       -0.9519515 -0.9717825 -0.12262087 0.40576887
000190 03 fd d0 3d 8d ab 55 be 16 81 c7 be fd e1 13 3f
       0.10204508 -0.20866223 -0.38965672 0.57766706
0001a0 2d 7f 97 3d bc f5 bd be b5 0b 5f be 51 09 fb bd
       0.07397304 -0.37101543 -0.2178181 -0.12257636
0001b0 1b 1d cb 3d d0 3d fa 3d 10 dd 00 3e 43 02 b2 be
       0.09917661 0.12218821 0.12584329 -0.3476735
0001c0 8d 4f be 3e d4 f8 ec 3e 57 f8 c6 be 61 fb bc be
       0.37170067 0.4628359 -0.38861343 -0.36910537
0001d0 73 34 d8 3e c1 eb b5 be 3a a6 42 3f 6d 85 b0 be
       0.42227516 -0.35531428 0.7603489 -0.34476796
0001e0 11 7b c6 3c 79 ec c0 3d b9 07 fb bd 1f 01 ac bd
       0.024228605 0.094201036 -0.12257332 -0.08398651
0001f0 db 83 8a 3d 8d 4f e5 bc 6b 57 84 3e c1 2a fb bd
       0.06763431 -0.027992034 0.25847945 -0.12264014
000200 d9 6e d8 3e 3e 05 b2 3e c2 a9 c2 3e d6 ec e9 be
       0.4227207 0.34769624 0.3802014 -0.45688504
000210 1c 1a fb 3d 9b 70 c1 3e 44 ad 18 be fd 22 fb bd
       0.12260839 0.37781224 -0.14909846 -0.12262533
000220 96 e1 40 be ae 1e bf be e2 7c a4 be 2e 20 bf be
       -0.18836054 -0.37328094 -0.32126528 -0.3732924
000230 1b 13 bf 3e a8 a7 be be 94 9e fc bc 68 18 bf be
       0.37319264 -0.37237287 -0.030837335 -0.37323308
000240 ee 04 bf 3e ff 6f 51 3f 77 21 fb bd f8 21 fb bd
       0.3730845 0.8181152 -0.12262242 -0.122623384
000250 0a ab 84 be 88 04 bf 3e 53 e4 c7 3e f0 17 ce be
       -0.25911742 0.37308145 0.39041385 -0.40252638
000260 cd da 7a be 3f 04 98 3e 36 c0 5b be 70 d6 f6 3e
       -0.24497528 0.2969074 -0.21460041 0.48210478
000270 67 1e 72 be 10 50 c7 be ca 25 bf 3e 4a 16 88 3e
       -0.2364441 -0.3892827 0.37333518 0.26579505
000280 00 a9 32 bf 1c e1 16 bf 9c 6f c1 be 30 ed f8 3e
       -0.69789124 -0.5893724 -0.37780464 0.4861846
000290 4b 9a 46 3d 26 21 fb bd df 22 fb bd b0 12 c2 3e
       0.04848699 -0.12262182 -0.122625105 0.37904882
0002a0 a8 e1 be 3e bc 19 80 bd 6a 45 09 3e 70 7e 1f be
       0.37281537 -0.062549084 0.13405386 -0.15575576
0002b0 da 4d d7 3d 73 08 bf 3e 23 69 07 be 00 00 bf 3e
       0.10512896 0.37311134 -0.132237 0.37304688
0002c0 cd fb be 3e bc e9 be 3e 02 20 2c bf 68 2d 36 3f
       0.37301484 0.372877 -0.6723634 0.71163034
0002d0 2a ad 9a be ce f6 bd 3e c0 f6 be 3e 09 4b c5 be
       -0.3021024 0.3710236 0.3729763 -0.3853381
0002e0 70 fd b1 bd 2a 0e bf 3e a5 9f 2a 3e d1 fb e7 bd
       -0.086909175 0.37315494 0.16662462 -0.11327327
0002f0 2d f5 57 be 9d c4 c1 3e 30 80 11 be e8 72 5b be
       -0.21089621 0.37845317 -0.14209056 -0.21430552
000300 68 05 36 3d ff 4e f8 3e 22 1e fb 3d 42 24 00 bf
       0.04443875 0.4849777 0.12261607 -0.50055325
000310 29 b1 69 be 59 b3 92 3e 76 bd e7 3e ed 22 fb bd
       -0.22821487 0.28652456 0.45261735 -0.12262521
000320 37 f8 e4 be 11 74 c6 3e a8 f6 be be 9e bf 8e 3e
       -0.44720623 0.38760427 -0.3729756 0.27880567
000330 d2 fa a5 be 59 7c f5 be 06 15 98 bd 0b c0 bd 3e
       -0.32417923 -0.47946432 -0.07425885 0.3706058
000340 6d 1d 8a 3b 76 ae c6 be da fb be 3e b8 62 92 bf
       0.0042149336 -0.38804978 0.37301522 -1.1436377
000350 ed fe 68 bd 0b ca a3 be 24 46 02 be e7 1f fb bd
       -0.05688374 -0.31990084 -0.12722069 -0.12261944
000360 dd ea 94 3e 93 d7 a3 be 68 be e1 be 20 4b 8a 3e
       0.29085436 -0.32000408 -0.4409058 0.2701044
000370 74 b7 a6 bb 82 cd 94 3e 82 09 bf be 4c c4 1d be
       -0.0050877873 0.2906304 -0.3731194 -0.15406913
000380 8d 1a bf 3e b9 88 b8 3e 79 c8 d1 3e 38 bf 19 bf
       0.37324944 0.3604181 0.4097326 -0.600574
000390 3d af 00 3f a8 cf c6 3e 36 fa 2f be 65 61 d9 be
       0.5026739 0.38830304 -0.17185292 -0.4245712
0003a0 d5 8c 52 3e 05 ee 75 3e 66 1d 8d bc 28 7a d2 3e
       0.20561536 0.24016578 -0.017225932 0.41108823
0003b0 5b 63 14 bd 24 21 6b be 06 58 9e 3e 6a ad ed bd
       -0.036227565 -0.22961861 0.30926532 -0.11605342
0003c0 c5 23 fb bd 7a ee be be 2e 41 34 3f 3d 5b 9e be
       -0.12262682 -0.37291318 0.70411956 -0.30928984
0003d0 05 67 f9 3d 92 f6 be be b3 f9 be be 8a 15 00 3f
       0.121778525 -0.37297493 -0.3729988 0.50032866
0003e0 25 39 a9 3e 17 c5 bd be 7d a9 74 bc 2e 5b 3e bd
       0.3305141 -0.3706443 -0.014932987 -0.046473674
0003f0 d7 a7 be be 59 b8 c2 3e a5 22 fb bd 4b 14 2e be
       -0.37237427 0.3803127 -0.12262467 -0.16999929

decoder.layers.0.self_attn.linears.2.bias f4 [16]
000000 a6 c8 65 3e 47 7e 39 3c 54 ad 2b bd f4 71 ff 3d
       0.22439823 0.011321611 -0.041913345 0.12472907
000010 94 49 87 3d 08 da 6e bd 1a 70 1a 3e 3d f5 96 be
       0.06605831 -0.0583134 0.15081826 -0.29483977
000020 88 c5 5b bd 75 76 0c be 95 bd 33 3d 2b e8 76 bd
       -0.053655177 -0.13717063 0.04388197 -0.060280006
000030 87 5a 81 be 0c 83 29 3d 3c c7 1b be 19 76 26 bb
       -0.2526438 0.04138474 -0.1521272 -0.0025399982

decoder.layers.0.self_attn.linears.3.weight f4 [16, 16]
000000 c4 9b 4c be 6b ee aa 3e 58 4a 6a 3d 61 66 00 3f
       -0.19981295 0.33385023 0.057199806 0.5015622
000010 0f 76 c1 be c5 8a 8e 3e 5c d9 3f 3e c4 76 0e 3f
       -0.37785384 0.27840248 0.1873526 0.5564997
000020 89 4a 6a 3d 90 4d 47 be a2 6c 8f 3e ad 30 6d be
       0.05719999 -0.19463181 0.28012568 -0.231631
000030 bf c6 96 bd 08 de 46 3e c0 db 2b bd 52 09 82 3e
       -0.073621266 0.19420636 -0.041957617 0.25397736
000040 3d c5 93 be bc ef 40 be 40 97 24 3f 67 98 47 be
       -0.28861418 -0.18841451 0.6429329 -0.1949173
000050 0d d6 a2 be bd e2 f5 be cd 18 c4 be 43 a5 7e 3e
       -0.31803933 -0.4802455 -0.38300171 0.2486773
000060 8a fc 38 be bf 58 46 be e9 f2 54 3e 40 f5 8f be
       -0.18065086 -0.19369791 0.20795788 -0.28116798
000070 e1 23 55 be c9 8d 97 3e e2 d0 55 be 9d 34 81 3e
       -0.20814468 0.2960036 -0.20880464 0.25235453
000080 20 d6 6e 3e 92 36 56 3e 71 7c 8f 3e 4d d1 55 3e
       0.2332387 0.20919254 0.2802463 0.20880623
000090 62 de 55 be c7 89 0b 3d a3 0f 56 3e f3 1a a9 3d
       -0.20885614 0.03406694 0.20904402 0.08257093
0000a0 4c 2d 80 be 26 53 ab 3d c7 e4 81 3e a5 6b 90 3e
       -0.2503456 0.08365469 0.25369856 0.28207126
0000b0 7c 72 8b 3d c2 39 40 be 33 65 8f be fe b0 9d be
       0.068089455 -0.18772033 -0.28006896 -0.30799097
0000c0 4b 12 8f be 2a a3 90 be 7b 6c be 3e f0 49 90 be
       -0.27943644 -0.28249484 0.3719214 -0.2818141
0000d0 a9 57 55 3e ee 49 6a bd ee 6e 61 3d fa 52 6a 3d
       0.20834221 -0.05719941 0.05503743 0.05720804
0000e0 a1 b3 67 bd bd 0c a2 be 81 c7 ac 3e 51 8c 6f be
       -0.05656779 -0.31650344 0.3374596 -0.2339337
0000f0 9f a6 95 bd 2d 9c 6a 3d e4 74 49 be 01 35 7f 3e
       -0.07307171 0.057277847 -0.19673496 0.24922563
000100 41 61 b2 3e b4 7e 4a 3e 19 fc 86 be 56 18 4a 3e
       0.34839824 0.19774896 -0.2636421 0.19735846
000110 3c 6c 8f be d0 51 6d 3e 7d ec 85 3e 11 7b 6b be
       -0.28012264 0.2317574 0.2615699 -0.22996165
000120 03 81 6a 3d a6 33 7e 3e 2c c5 54 be bd 66 8f 3e
       0.05725194 0.2482439 -0.2077834 0.2800807
000130 e1 4b 6a 3d ac 64 04 3d 20 14 80 3e 56 79 83 be
       0.05720127 0.03232257 0.25015354 -0.2567851
000140 7c 61 db 3e 45 14 56 3e bf a1 4b be b1 a1 a6 3e
       0.42847812 0.2090617 -0.1988592 0.32545236
000150 d6 ae 90 be ac b2 8e 3e 01 d4 48 3e 92 97 80 be
       -0.2825839 0.2787069 0.19612123 -0.2511564
000160 55 7a 8f be 43 1a 46 be 78 be 8f 3e 76 f6 79 be
       -0.2802302 -0.19345956 0.28075004 -0.24410424
000170 61 4d 6a bd 7c 60 6a 3d 3f 67 8f be e0 4c 6a 3d
       -0.0572027 0.05722092 -0.28008458 0.05720222
000180 a9 3b 55 be cc 34 cf be a4 7f 4f 3e cc c0 ad be
       -0.2082354 -0.40469968 0.20263535 -0.33936155
000190 0e 37 dc 3e 2b 7c 80 be 7a 86 0d 3e 8a 9c 55 3e
       0.43010753 -0.25094733 0.1382083 0.20860496
0001a0 19 7e a9 3e f6 89 af 3e fe d2 6a 3d 51 73 09 3d
       0.33104017 0.34284943 0.057330124 0.03355724
0001b0 4a e5 05 3f 2b 01 46 3e df 62 7e 3e bc 91 a9 be
       0.5230299 0.19336383 0.24842404 -0.33119
0001c0 fa 47 6a bd 53 3f 51 be 09 70 95 3e 8f 26 59 be
       -0.05719755 -0.20434313 0.2918704 -0.21206115
0001d0 c6 50 9e 3e 37 3e 8f be e4 03 4b be 36 66 d8 3d
       0.30921 -0.27977154 -0.19825703 0.1056637
0001e0 72 88 3e 3e a7 91 84 3e d8 b5 6c be 7c 31 7a 3e
       0.18606737 0.25892374 -0.23116243 0.2443294
0001f0 ed e1 99 3e 26 b6 46 be b3 3e 83 3e 0d 68 8f be
       0.3005518 -0.19405422 0.25633773 -0.28009072
000200 c6 0b 7e be 45 2c 84 3e 0c 1c d1 3e af 4c 8d 3e
       -0.24809179 0.25815025 0.4084171 0.27597567
000210 64 f3 37 bf c8 d5 4b 3e 4f 20 31 3e d2 2a 89 3e
       -0.7185576 0.1990577 0.17297481 0.26790482
000220 fd 5e 6a 3d 19 43 6a 3d 2b 4c 6a bd 8f 76 8f be
       0.057219494 0.057192896 -0.057201546 -0.2802014
000230 a2 f2 d2 3e 0e 4c 6a bd 7a 97 5d 3d 49 4a fc bc
       0.4120074 -0.057201438 0.054099537 -0.03079714
000240 4d 60 01 3f 35 2f 6a bd 48 bc 90 be 58 4d 6a bd
       0.5053757 -0.057173926 -0.28268647 -0.057202667
000250 ab b5 55 3e 9d e0 8f 3e cb ee 8c 3e 95 36 b4 be
       0.20870082 0.28101054 0.27525935 -0.35197893
000260 79 5b 69 3e e4 71 ce 3e 47 73 85 be d3 35 0a bd
       0.227888 0.40321267 -0.26064512 -0.033742737
000270 95 49 6a 3d 1a c2 e4 3e c6 61 7b 3e f0 10 a4 3c
       0.05719908 0.44679338 0.24549016 0.020027608
000280 ac a0 6c be 0c 40 a3 3e da 1c 9d 3e 3e 59 72 3e
       -0.23108166 0.318848 0.30686074 0.23666856
000290 0f 03 a4 be 41 28 75 be d7 52 30 3e dc 75 f6 3e
       -0.32033584 -0.23941137 0.17219101 0.48136795
0002a0 12 b4 59 be 3f a1 58 3d a9 54 6a bd 04 40 8e 3e
       -0.21260098 0.05288815 -0.057209644 0.27783215
0002b0 9b 38 ba be 03 45 6a 3d 08 f7 7f be de 4e 6a bd
       -0.36371312 0.05719472 -0.24996579 -0.05720412
0002c0 46 a5 03 3f 5e 27 91 be 98 9b 83 be 43 f5 49 be
       0.5142406 -0.28350347 -0.25704646 -0.19722466
0002d0 7c f6 47 3e 90 68 90 3e 7a 1c 13 3f 06 a3 84 be
       0.1952762 0.28204775 0.57465327 -0.25905627
0002e0 cb ed 69 be 7e 7e 82 be ee 0a 03 3f f1 aa 80 be
       -0.22844617 -0.2548713 0.5118855 -0.25130418
0002f0 f5 4b 8c be e6 45 6a bd c7 86 8f be f6 3e 82 3e
       -0.274017 -0.057195567 -0.28032514 0.2543866
000300 8d e5 87 be 86 a0 90 be b3 ad bf 3e 8a 4b 42 be
       -0.2654232 -0.2824747 0.3743721 -0.18974128
000310 13 84 af be cd bc 87 3e 84 55 ae be 57 d4 4d 3c
       -0.34280452 0.2651123 -0.34049618 0.012562833
000320 11 ea cc be eb a7 7b 3e d7 eb 54 be fc ad 83 3e
       -0.40022328 0.24575774 -0.20793091 0.25718677
000330 e6 f3 65 3d f8 58 49 be 75 61 7e bd 9f 05 53 be
       0.056140803 -0.19662845 -0.06210466 -0.20607613
000340 12 92 da 3d f8 bb e3 be 83 60 4f be 20 19 a9 be
       0.10672392 -0.44479346 -0.2025166 -0.3302698
000350 49 9b 8f 3e 36 6f cd be 70 1d 41 be 17 5b 6a bd
       0.2804816 -0.4012391 -0.18858886 -0.057215776
000360 b3 c6 9d 3d 0b 4e 6a bd 3f 38 56 3e d9 9a 90 be
       0.077039145 -0.057203334 0.20919894 -0.2824314
000370 cd 3d 31 3f 9a cc a5 3e b5 7f 55 be 38 11 34 be
       0.69234926 0.3238266 -0.20849498 -0.17584693
000380 95 aa 08 bf 82 b7 8c be b0 60 09 3f ba d3 d9 be
       -0.5338529 -0.27483755 0.5366316 -0.42544347
000390 d9 c4 40 be 7b 91 b5 be 8b e2 d1 be 40 24 9c 3e
       -0.18825091 -0.35462555 -0.4099315 0.30496407
0003a0 95 19 41 3e 84 ef 38 bd bc 6e 30 bd fe 73 48 be
       0.18857415 -0.045150295 -0.043074355 -0.19575498
0003b0 98 46 6a bd ab da 7f 3e 5a 55 6a bd 3b 5c de bc
       -0.05719623 0.24985759 -0.057210304 -0.027143588
0003c0 80 23 85 3e f5 3a 55 be 49 78 a7 be 26 58 f9 be
       0.26003647 -0.20823272 -0.32708958 -0.48700064
0003d0 9a a7 e2 3e ee a9 23 bf c8 8f 89 bb ad 41 56 be
       0.44268495 -0.6393117 -0.0041980483 -0.20923491
0003e0 e3 d8 5a bd 21 ac 46 3e c2 3b 46 be f2 f4 45 3e
       -0.053429496 0.194016 -0.19358733 0.1933172
0003f0 a9 52 6a bd 2a e0 70 bc 0b d6 c9 be 6a 49 6a bd
       -0.057207737 -0.014701882 -0.39421114 -0.05719892

decoder.layers.0.self_attn.linears.3.bias f4 [16]
000000 19 da 6f 3d cc 10 09 be 34 b7 4c 3e 27 98 b8 3d
       0.058557604 -0.13385314 0.19991761 0.09013396
000010 73 62 0c be 3e f9 88 bd 14 d8 ac bd 90 14 14 3b
       -0.1370943 -0.06688164 -0.08439651 0.0022595264
000020 b2 b6 1d 3e 70 35 3e 3d ce fc 8e bd 79 ea 96 3e
       0.15401724 0.04643768 -0.069818124 0.29475763
000030 39 83 3a be ba a0 2f 3e c7 ec 45 bd 4f 70 5c be
       -0.1821412 0.17151156 -0.04832151 -0.21527217

decoder.layers.0.feed_forward.w_1.weight f4 [64, 16]
000000 b3 b0 93 be 75 35 d1 bd 54 c5 34 3f b0 22 bd bc
       -0.28845748 -0.10215274 0.706136 -0.02308783
000010 99 56 06 bf d2 f1 99 be 2b 74 ad bd 04 6d 2f 3d
       -0.5247589 -0.30067307 -0.08469423 0.042828575
000020 a8 c3 9c be ff 1b 89 be fd f7 9c 3e 4a fa 9c be
       -0.30618024 -0.26779172 0.3065795 -0.30659705
000030 20 f8 9c 3e d1 48 98 be 5b f8 9c 3e 3b c7 89 be
       0.30658054 -0.29743055 0.3065823 -0.26909813
000040 24 72 88 3e 19 d9 89 3e 3f 06 c3 3d 0b fd 51 ba
       0.26649582 0.26923445 0.09522676 -0.00080104236
000050 76 75 9a be c5 8b 37 be 37 35 d1 3d d5 c7 cf 3d
       -0.3016774 -0.17924412 0.10215228 0.10145537
000060 78 b0 96 3e eb d6 01 be 90 f7 9c 3e 88 5e 00 bf
       0.2943151 -0.12679641 0.30657625 -0.50144243
000070 16 f1 9c be ab 7f 0b 3e 9f f7 9c 3e a4 fb 9d be
       -0.30652684 0.1362292 0.3065767 -0.3085605
000080 1d f8 9c be c2 38 a3 3e 35 72 6c be ab da b3 3e
       -0.30658045 0.3187924 -0.23090442 0.35127768
000090 0f 96 b1 be 4a f5 9c be 7b 59 d9 3e 23 39 d1 3d
       -0.34684798 -0.3065589 0.4245108 0.10215976
0000a0 5b f7 85 3d 23 fb 60 be 14 a1 3e 3e 19 48 8d be
       0.0654132 -0.21970801 0.18616134 -0.2759407
0000b0 d5 b0 9c be ce b0 67 bd 01 d1 c2 3e 7f 27 5e be
       -0.30603662 -0.0565651 0.38050082 -0.21694754
0000c0 dc a0 82 3e c6 35 39 be c1 69 9c be ff 0d b6 bd
       0.2551335 -0.18086919 -0.30549434 -0.08889388
0000d0 26 f5 9c be 4d 34 d1 3d 23 aa 9b 3e 9c f2 9c 3e
       -0.30655783 0.10215054 0.30403242 0.30653846
0000e0 87 f8 9c 3e fe fa 9c be be f2 9c 3e 7a a0 9a be
       0.3065836 -0.30660242 0.30653948 -0.3020056
0000f0 90 d9 d1 3d 56 f8 9c be 49 fa 9c 3e fa 48 b1 bd
       0.10246575 -0.30658215 0.30659702 -0.08656497
000100 60 f8 9c 3e f2 f7 9c 3e 7a 37 12 3e 9b 58 d2 bd
       0.30658245 0.30657917 0.14278975 -0.102708064
000110 22 88 8a be 0e fb 9c 3e f4 51 d1 3d c2 f9 9c be
       -0.27056986 0.3066029 0.102207094 -0.306593
000120 27 0e 49 3e 96 f7 9c be 53 f9 9c 3e 88 34 d1 3d
       0.19634305 -0.30657643 0.3065897 0.10215098
000130 4e 7f 9b be a3 f9 9c be 34 30 d1 3d 21 f8 9c be
       -0.30370563 -0.30659208 0.10214272 -0.30658057
000140 da 77 43 be d7 f9 9c 3e 26 1b e3 3e f7 f2 9c 3e
       -0.19088688 0.30659363 0.4435665 0.30654117
000150 54 3f a5 3e 4c 36 24 bf 1f ec 1e bf 01 ed 9c be
       0.32274878 -0.6414535 -0.6207904 -0.3064957
000160 8e fa 9c be ab f9 9c be d1 dd 68 3e 01 1a c4 3e
       -0.30659908 -0.30659232 0.22740866 0.3830109
000170 14 8a 8c be 22 37 d1 bd a0 f8 9c 3e 63 c9 24 be
       -0.27449095 -0.10215594 0.30658436 -0.16092448
000180 ae f8 9c be 8a 59 b1 3e 1e a0 14 3f 19 78 8a be
       -0.30658478 0.34638625 0.5805682 -0.27044752
000190 35 37 d1 bd a6 e9 5f be e8 f8 9c 3e 1a 5c c2 be
       -0.10215608 -0.21866474 0.3065865 -0.37960893
0001a0 2f e7 79 3e ed be 49 3e db ec 9c be 83 fb 9c 3e
       0.24404596 0.19701739 -0.30649456 0.30660638
0001b0 85 fb 9c 3e 71 fc 89 3e ba fa 9c be 72 a4 b1 3d
       0.30660644 0.2695041 -0.3066004 0.086739436
0001c0 e6 34 d1 bd 47 fa 9c 3e 7a 37 ad bd a4 37 d1 3d
       -0.10215168 0.30659696 -0.08457847 0.10215691
0001d0 b0 49 94 be 6a f8 9c be 6f 29 d1 3d 02 47 ba 3e
       -0.2896247 -0.30658275 0.10212981 0.363823
0001e0 33 b8 59 be ca f7 9c be e2 f9 9c 3e 07 36 6f 3e
       -0.21261673 -0.30657798 0.30659395 0.23360454
0001f0 6e ff eb 3e 59 4e f5 bd b4 fa 9c 3e 61 f8 9c be
       0.46093315 -0.11977834 0.3066002 -0.30658248
000200 a7 8f 24 bf 10 3c d1 bd c2 ed 13 3f 01 f6 9c 3e
       -0.64281696 -0.10216534 0.57784665 0.30656436
000210 14 39 0f bf c3 41 d1 bd 7f e0 9c be 2a 94 96 be
       -0.5594647 -0.10217621 -0.30640027 -0.29409915
000220 d4 4c b2 be 03 e7 a1 be 6a 2d d1 bd b2 43 05 3e
       -0.3482424 -0.3162156 -0.1021374 0.13014105
000230 81 46 98 3e 57 2a c8 3d 8f f7 9c 3e 5b 97 78 3d
       0.2974129 0.09773701 0.30657622 0.06069122
000240 dc 9a 92 3e 7e a2 7b be 3e fa 9c 3e fe ad 96 be
       0.28633773 -0.24573705 0.3065967 -0.2942962
000250 52 36 d1 bd 2e 70 41 be 40 8e 8a be 01 f6 9c be
       -0.10215439 -0.1889045 -0.27061653 -0.30656436
000260 9b f8 9c be 65 5c 95 be b7 f8 9c 3e ff e9 9c 3e
       -0.3065842 -0.29172054 0.30658504 0.30647275
000270 5c b9 5b be 27 f5 9c be 37 ee 9c 3e 06 d7 dc 3e
       -0.21457428 -0.30655786 0.30650494 0.431328
000280 6e f4 9c be 6e 34 d1 bd a3 f1 f0 3e da ec 86 be
       -0.30655235 -0.10215078 0.47059354 -0.26352578
000290 99 3d 94 be 78 3b d1 3d c9 af bf 3d 33 f5 9c 3e
       -0.28953245 0.10216421 0.093597 0.30655822
0002a0 e6 1f 89 3e b3 e0 be be 65 40 d1 3d e6 f3 9c 3e
       0.2678215 -0.37280807 0.102173604 0.3065483
0002b0 10 18 9b 3e 5e 15 af 3e e3 b1 96 be 0a 06 a3 be
       0.30291796 0.3419599 -0.29432592 -0.31840545
0002c0 28 8a 97 be 22 96 97 3e ec ff 92 be 8c 80 9a be
       -0.29597592 0.2960673 -0.28710878 -0.30176198
0002d0 f3 0f c9 be 07 bf c9 3e 05 03 9b 3e b5 99 98 be
       -0.3926998 0.39403555 0.3027574 -0.2980477
0002e0 dc 3c d1 bd 80 07 8b be 37 f2 9c be 52 6e 0d 3d
       -0.10216686 -0.2715416 -0.30653545 0.034529038
0002f0 a3 f1 9c be fd 90 66 3e 4d f3 9c be 2e 43 d1 bd
       -0.30653104 0.22516246 -0.30654374 -0.10217892
000300 04 83 86 be 0b f2 9c 3e 53 f9 9c be d0 cc 67 3e
       -0.26271832 0.30653414 -0.3065897 0.22636724
000310 aa cd 0f bf e2 f7 9c be 6e f7 9c 3e d9 23 a1 3e
       -0.56173193 -0.3065787 0.30657524 0.31472662
000320 d5 e9 cd be 06 f5 9c be 30 bd 20 3d 1c 2a 60 3e
       -0.40217462 -0.30655688 0.039242923 0.21891063
000330 5e f8 9c 3e 0c 37 d1 3d 27 fa 9c 3e 3f 00 8c 3e
       0.3065824 0.102155775 0.306596 0.27343938
000340 88 f2 9c be 61 f4 9d be 98 8f a4 be 59 92 06 3f
       -0.30653787 -0.3085051 -0.32140803 0.5256706
000350 32 f8 9c 3e e5 f8 9c 3e d6 fa 9c be d6 53 1b 3f
       0.30658108 0.3065864 -0.30660123 0.606748
000360 3d 36 d1 3d fe dc 92 3e e7 25 eb bd e7 38 d1 bd
       0.10215423 0.2868423 -0.11481839 -0.102159314
000370 e9 27 58 be 0c f8 92 be b4 a9 9c 3e b4 f3 9c 3e
       -0.21108975 -0.2870487 0.30598223 0.3065468
000380 7f ed 9c 3e 83 28 d0 3c b0 f8 8e be a9 6e 63 be
       0.30649945 0.025409942 -0.27924109 -0.22210182
000390 af 75 aa 3e 61 75 5c be 7a a3 97 3e 5f 04 a0 be
       0.3329291 -0.21529151 0.2961691 -0.31253335
0003a0 59 9d a9 3a e0 29 b9 be 80 a8 b4 bd 8b e7 a6 3e
       0.001294057 -0.3616476 -0.08821201 0.32598528
0003b0 83 37 d1 bd 40 78 81 be 8e f7 9c be c3 c1 ca bd
       -0.10215666 -0.25287056 -0.3065762 -0.09900238
0003c0 1f 1b 9a be 4c d3 41 be 6a da 9c 3e 84 f4 9c 3e
       -0.30098817 -0.1892826 0.30635387 0.306553
0003d0 60 45 d1 3d 3a 21 9f 3e 1e af 9c be 3d 11 95 3e
       0.1021831 0.31080037 -0.30602354 0.29114714
0003e0 cb 67 9b 3e 3f bd c3 bd a2 f9 9c 3e 82 74 90 3e
       0.30352625 -0.0955758 0.30659205 0.28213888
0003f0 a2 d4 9c be 68 3c c0 3d 16 36 d1 bd ec 39 d1 bd
       -0.30630976 0.093865216 -0.10215394 -0.10216126

decoder.layers.0.feed_forward.w_1.bias f4 [64]
000000 4a 43 e2 be 12 09 26 be 78 71 fb bd a7 cd 03 be
       -0.44191962 -0.16214398 -0.12277502 -0.12871419
000010 00 33 ca be 1b 90 01 3d a9 cf ca be 3b 16 c2 be
       -0.39492035 0.03163157 -0.39611557 -0.37907586
000020 21 3c 3a bf 99 9a e3 3c a9 02 8f be d5 0d 31 be
       -0.72748 0.027783679 -0.27931717 -0.17290433
000030 6a fc d5 be 57 ec a9 be 7a f9 c4 bd 35 0d b0 be
       -0.4179414 -0.33188125 -0.096178964 -0.34385076
000040 11 34 bd bd 68 da db bd 48 6e c1 bd ec b7 b9 3c
       -0.092384465 -0.10735017 -0.094448626 0.022670709
000050 71 84 48 bf 12 50 ed bd 11 1b 13 bf 33 31 a0 bd
       -0.7832709 -0.11587538 -0.57463175 -0.07821884
000060 cb cc da be 17 6d 69 be c0 e4 31 bd e4 4c 1c bf
       -0.4273437 -0.2279552 -0.043431044 -0.61054826
000070 8e 06 90 be 67 2f f9 be d8 c9 d7 be 13 7f fd be
       -0.2813 -0.48668978 -0.42146182 -0.49511012
000080 88 f8 ac be 06 b8 c6 3d 19 08 66 be d5 4c c1 be
       -0.33783364 0.097030684 -0.22464027 -0.3775393
000090 cd 4c 7a be 98 a7 fe be 3d 2f 0a bf 84 b3 1a be
       -0.2444336 -0.4973724 -0.5397833 -0.15107542
0000a0 a5 a2 ac be e4 4f 99 be a8 fa 98 3d 86 49 95 be
       -0.33717838 -0.29943764 0.07469684 -0.29157656
0000b0 d8 35 07 be 5f da 9b be c0 c0 15 be d5 2c 02 bf
       -0.13204134 -0.3044004 -0.1462431 -0.5084966
0000c0 7f e5 19 be 2f 6d 8f be 3d f0 9a be 4c 1a 32 bc
       -0.15028952 -0.28012988 -0.30261412 -0.0108705275
0000d0 95 18 06 bf 16 b5 11 be db 65 81 be a6 c6 16 be
       -0.5238126 -0.14229235 -0.25273022 -0.14724216
0000e0 b2 61 41 bd f7 ff d1 bd 1c 09 de be ad f7 0a be
       -0.04721231 -0.102538995 -0.43366325 -0.13571043
0000f0 ca 69 39 be 07 fd b8 be 6f 54 28 bd db 33 cc bc
       -0.18106762 -0.36130545 -0.041096147 -0.02492707
