saved_models/BCH_n31_k16__Ndec2_d32_h8/stage1_fp32__BCH_n31_k16__Ndec2_d32_h8__e2000_loss0.023183.pth (torch, 151941 bytes, 42 tensors)

src_embed f4 [46, 24]
-0.11817368 -0.12707037 0.12131263 0.0906633 0.42967156 0.11079087 -0.009162505 -0.39026278
0.060800675 0.18338759 -1.0986094 -0.06784777 -0.3374799 -0.2922383 0.5885434 -0.24059977
-0.11939502 0.5813694 -0.37061957 0.6102889 -0.05695064 -0.5871828 0.32406092 0.30785525
0.3792265 -0.18762113 0.06884722 -0.27326852 0.6515338 0.10553325 -0.2625756 -0.5692899
0.21205963 0.30950293 -1.055372 -0.08175105 -0.51301694 -0.3573581 0.5228524 0.023028508
0.20496108 0.4192409 -0.5019976 0.7563995 -0.099274576 -0.21218725 0.21427645 0.34465134
0.43682042 -0.13763748 0.14957482 -0.35778052 0.7585039 0.15054372 -0.66551805 -0.50934553
0.20232831 0.04383801 -0.9542952 -0.23912716 -0.4785723 -0.57044405 0.5286513 0.094819255
0.25114956 0.34578994 -0.5836329 0.6377286 -0.087739356 -0.16137885 0.27739975 0.5275625
0.4031097 -0.4761085 -0.069207475 -0.07888665 0.5275608 -0.051966634 0.63978595 -0.23634534
-0.34099203 0.70173717 0.72270143 0.03238674 0.61353904 -0.052278407 0.23694368 0.7339388
-0.0661841 0.5822605 -1.1505802 0.18078758 0.2897819 0.097431384 -0.17047969 5.8295518e-05
0.09735409 -0.1434349 -0.41439205 -0.12727948 0.31981903 -0.100420095 0.07560551 -0.32796994
-0.29887933 0.15533212 -0.24190919 -0.76913464 0.17258407 -0.566486 0.42472488 0.046526052
-0.27952915 -0.13632286 -0.45154968 0.45570323 0.23310976 -0.53666675 0.10910245 0.44274324
0.4583962 -0.090604834 0.4494583 -0.09533807 -0.045266144 -0.19901167 -0.3087872 -0.15411176
-0.116496116 -0.00583786 -0.22511292 0.46323946 0.53924876 -0.27211446 0.055686794 0.5525694
0.09233847 0.4395225 -0.10283476 0.67522097 0.2160118 -0.3147547 -0.50675225 0.40300736
-0.03950781 -0.19801039 0.37918562 -0.12431195 0.23161212 -0.117425844 0.04820586 -0.07235782
-0.23653488 -0.18424685 -0.3095476 0.098710075 0.3387002 -0.09428012 0.16651355 0.19302683
-0.10958384 -0.0824257 -0.25114322 -0.06194341 0.46865043 -0.38108706 -0.22257116 -0.16521607
-0.01793788 -0.17169638 0.29042518 -0.094548084 0.18241972 -0.17707424 0.21242015 -0.012664951
-0.22900407 -0.110619955 -0.3542022 0.073391534 0.14932127 0.17198539 0.02808953 0.17924653
-0.1762167 -0.045772545 -0.14228868 -0.060385913 0.46000224 -0.40917695 -0.22912653 -0.123044014
0.012713344 -0.244184 0.2723498 -0.14859854 0.20658104 -0.24780934 0.16759372 -0.024644848
-0.26119077 -0.14930001 -0.2864865 0.025034864 0.054981682 0.07829204 -5.130002e-05 0.19923656
-0.15691593 -0.05324891 -0.06473267 -0.042850368 0.46833923 -0.40841848 -0.24635017 -0.14869796
-0.008336757 -0.21786056 0.2799549 -0.16073543 0.14346598 -0.31226963 0.19572046 -0.036853116
-0.25293338 -0.14107044 -0.26022792 0.039313883 0.029589593 0.08150425 0.014953956 0.20802149
-0.11819483 -0.04660319 -0.003963426 0.006655211 0.42695123 -0.4188455 -0.2316231 -0.12555867
-0.022093447 -0.23510543 0.2697587 -0.21709822 0.05273516 -0.38918063 0.25093696 -0.10977337
-0.25907245 -0.12885457 -0.27566394 0.09186797 0.014378851 0.043181393 0.04657626 0.21820973
00000000: 0b05 f2bd bc1e 02be c272 f83d aead b93d
00000010: e9fd db3e 53e6 e23d 551e 16bc 86d0 c7be
00000020: 210a 793d f5c9 3b3e 3c9f 8cbf c6f3 8abd
00000030: 2aca acbe 42a0 95be c8aa 163f c95f 76be
00000040: 6085 f4bd a0d4 143f d9c1 bdbe e53b 1c3f
00000050: 1345 69bd 9d51 16bf 50eb a53e 349f 9d3e
00000060: fa29 c23e c11f 40be c5ff 8c3d dae9 8bbe
00000070: ebca 263f d121 d83d 4f70 86be fcbc 11bf
00000080: 2926 593e 2b77 9e3e 6e16 87bf 186d a7bd
00000090: 1455 03bf a4f7 b6be a8d9 053f 48a6 bc3c
000000a0: 51e1 513e bea6 d63e ea82 00bf 66a3 413f
000000b0: 7850 cbbd 9d47 59be 496b 5b3e 2476 b03e
000000c0: eda6 df3e d7f0 0cbe 242a 193e 022f b7be
000000d0: 502d 423f 2228 1a3e 645f 2abf 7864 02bf
000000e0: 272f 4f3e 7c8f 333d b14c 74bf c0dd 74be
000000f0: 6e07 f5be 9f08 12bf b155 073f 9930 c23d
00000100: ad96 803e 610b b13e f768 15bf 2e42 233f
00000110: b1b0 b3bd 7f40 25be 5707 8e3e 560e 073f
00000120: 6564 ce3e 7ec4 f3be a6bc 8dbd 538f a1bd
00000130: 390e 073f f7da 54bd 03c9 233f 8304 72be
00000140: 8296 aebe 0ca5 333f f602 393f f5a7 043d
00000150: e510 1d3f e221 56bd 5da1 723e 6ae3 3b3f
00000160: 888b 87bd 060f 153f 3646 93bf 6120 393e
00000170: 4b5e 943e 1b8a c73d 3a92 2ebe 5682 7438
00000180: 9561 c73d 99e0 12be 322b d4be 8d55 02be
00000190: 52bf a33e 0da9 cdbd 10d7 9a3d adeb a7be
000001a0: b606 99be 620f 1f3e 0bb7 77be 02e6 44bf
000001b0: e1b9 303e 3a05 11bf 8a75 d93e 1a92 3e3d
000001c0: 721e 8fbe 3898 0bbe 8531 e7be ef51 e93e
000001d0: 53b4 6e3e fe62 09bf 1b71 df3d 3eaf e23e
000001e0: e8b2 ea3e 078f b9bd 661f e63e 9b40 c3bd
000001f0: fe68 39bd b7c9 4bbe 5b19 9ebe 79cf 1dbe
00000200: 8495 eebd 854b bfbb 0084 66be b92d ed3e
00000210: 350c 0a3f 9652 8bbe d617 643d 3075 0d3f
00000220: f41b bd3d 1809 e13e 089b d2bd 48db 2c3f
00000230: 3332 5d3e 8727 a1be 84ba 01bf fb56 ce3e
00000240: f1d2 21bd 3cc3 4abe 9e24 c23e 4397 febd
00000250: ba2b 6d3e f67c f0bd 8273 453d 5630 94bd
00000260: 3336 72be 35ab 3cbe 067d 9ebe 8228 ca3d
00000270: 1d6a ad3e f015 c1bd 8782 2a3e d3a8 453e
00000280: 7e6d e0bd cece a8bd d895 80be 60b8 7dbd
00000290: f3f2 ef3e d81d c3be b2e9 63be 672e 29be
000002a0: 76f2 92bc 2dd1 2fbe 9cb2 943e 6da2 c1bd
000002b0: 3ccc 3a3e f352 35be ab84 593e a880 4fbc
000002c0: 0b80 6abe b78c e2bd fe59 b5be 4d4e 963d
000002d0: ade7 183e f01c 303e 041c e63c 678c 373e
000002e0: 2772 34be fe7b 3bbd 20b4 11be 3857 77bd
000002f0: 6a85 eb3e a47f d1be 25a0 6abe 80fe fbbd
00000300: a14b 503c 5f0b 7abe 6f71 8b3e 372a 18be
00000310: fb89 533e bbc1 7dbe b09d 2b3e fee3 c9bc
00000320: ccba 85be 1ae2 18be 5cae 92be ea15 cd3c
00000330: 7934 613d 9457 a03d fa2a 57b8 ab04 4c3e
00000340: 92ae 20be 871b 5abd 9092 84bd de83 2fbd
00000350: 29ca ef3e 3a1c d1be 3843 7cbe 4744 18be
00000360: e596 08bc d716 5fbe 4056 8f3e d497 24be
00000370: bfe8 123e cee1 9fbe f26a 483e 4bf3 16bd
00000380: 7c80 81be c574 10be 983c 85be 9807 213d
00000390: e065 f23c b3eb a63d 7001 753c 9603 553e
000003a0: 2210 f2bd fde2 3ebd a1df 81bb f513 da3b
000003b0: 5a99 da3e eb72 d6be 9b2e 6dbe 7492 00be
000003c0: 51fd b4bc 7abf 70be d01d 8a3e ff4e 5ebe
000003d0: d300 583d af42 c7be cf7a 803e dcd0 e0bd
000003e0: 25a5 84be 74f2 03be d323 8dbe 4625 bc3d
000003f0: 4695 6b3c f9de 303d c0c6 3e3d 5f72 5f3e

decoder.layers.0.self_attn.linears.0.weight f4 [32, 32]
-0.13775298 0.011629087 0.04225618 -0.10338781 -0.19746584 0.19517745 0.34193462 0.04076364
-0.59876984 -0.56635684 -0.019964738 0.3620606 -0.04544672 0.52751523 -0.49320087 -0.36907202
0.5889395 -0.11337363 -0.027363727 -0.1697628 0.14304797 -0.0066495766 -0.15222524 0.27191252
-0.023165405 -0.09180667 0.34329268 -0.021830438 0.2180422 -0.2761629 -0.17164172 -0.31023875
0.1767368 -0.07790217 0.29410768 0.3383093 -0.048841916 -0.5633922 0.037676353 -0.31107402
0.12597398 -0.023780124 -0.20351472 -0.106502175 0.017974988 0.20120293 0.20582567 0.19070125
0.42327595 -0.016670365 -0.45650196 -0.23247889 0.3760416 0.12465954 -0.10794285 -0.18355393
0.2400527 -0.097247094 0.1717647 0.08713298 -0.40592408 0.054667104 -0.3381747 -0.49101672
-0.011914114 0.08207183 -0.27251282 0.2889984 0.42988706 -0.23250628 -0.0021171034 -0.2526325
0.07335333 0.09100158 0.23946002 0.11193843 0.08666428 0.40351868 -0.14431426 -0.28074002
0.18501168 0.41968617 -0.24745546 -0.0048320442 -0.35865524 0.22744973 0.38422906 -0.550176
-0.1649765 -0.050214984 -0.0023080567 -0.17346287 0.4824705 0.37270287 0.05005131 0.16600856
-0.13854133 -0.43105286 0.28911972 0.09720131 0.115304776 0.25423682 -0.40411285 -0.13468093
-0.39289016 -0.05288501 0.020746885 -0.15452604 -0.24852212 0.16164303 -0.02171292 0.07868751
-0.29761326 0.16832195 -0.5728716 -0.0451896 -0.2230127 -0.21516328 -0.16349874 -0.20887123
0.4227836 0.09103016 0.15136692 0.12221843 -0.39759094 -0.01879055 0.060900506 -0.012664632
-0.19953196 0.034249667 -0.24840689 0.4755327 -0.9727882 -0.025890818 -0.100403726 -0.033369906
-0.47216597 -0.3889354 -0.09405342 0.47429112 0.061823618 -0.28736478 -0.6217152 0.0682099
-0.2353768 0.009348221 0.35295567 -0.040534105 0.238138 -0.62604034 -0.28852 0.83289284
0.0064919563 0.31642586 -0.032836642 0.075942524 -0.028253837 -0.27701932 0.0225182 -0.4015491
-0.436025 0.029815411 -0.07483428 -0.12234828 0.0237222 -0.31490913 -0.27749574 -0.08404257
-0.3416038 -0.36821488 -0.19540854 0.42481232 0.2718951 0.3420917 0.34701535 -0.04467776
-0.43798417 0.32972682 0.16128327 -0.3493509 0.30104697 -0.08049142 -0.16458848 -0.061512727
0.23742794 0.3527331 -0.08163802 0.5007178 0.2275075 0.04197313 -0.27659312 0.023045627
0.2362903 0.39705417 0.09783612 -0.061121374 -0.21724834 0.1665648 -0.13040882 0.3553634
0.41209432 -0.040776726 0.055025626 -0.24052773 -0.06435707 -0.051531292 -0.21727532 -0.41842487
0.025462639 0.32423708 0.42234978 0.17703746 -0.42519927 -0.107405886 -0.17650717 0.06738471
-0.47046596 -0.483606 -0.5939738 -0.4964448 0.50614613 0.15979946 0.21712212 0.30213794
-0.17126471 -0.3361019 0.23967232 -0.121021524 0.18127213 -0.2378898 -0.19378349 0.06159184
0.19063658 0.13769309 -0.35232463 0.064555764 -0.0055452227 -0.4005531 0.3073913 0.5241685
0.038422287 -0.37343794 -0.4988897 0.41780365 -0.21094097 -0.034592282 -0.27600408 -0.13025038
0.43235672 0.33507663 0.041661013 0.07455582 -0.3963829 -0.28364334 -0.30919355 -0.14314647
00000000: 1e0f 0dbe ed87 3e3c d114 2d3d fdbc d3bd
00000010: 7c34 4abe 99dc 473e 0e12 af3e c6f7 263d
00000020: fb48 19bf c3fc 10bf 178d a3bc 0260 b93e
00000030: 5726 3abd 3d0b 073f d384 fcbe 02f7 bcbe
00000040: bdc4 163f 6f30 e8bd e529 e0bc 4dd6 2dbe
00000050: 2b7b 123e b1e4 d9bb efe0 1bbe 1e38 8b3e
00000060: 60c5 bdbc 2305 bcbd 0fc4 af3e bfd5 b2bc
00000070: 7446 5f3e 3965 8dbe d9c2 2fbe 9dd7 9ebe
00000080: 7efa 343e 2c8b 9fbd 4895 963e e036 ad3e
00000090: 760e 48bd 793a 10bf 8552 1a3d 1845 9fbe
000000a0: 53ff 003e 89ce c2bc 2a66 50be d01d dabd
000000b0: 4840 933c 2408 4e3e f7c3 523e 3047 433e
000000c0: a0b7 d83e 4a90 88bc a0ba e9be f20e 6ebe
000000d0: 8688 c03e 804d ff3d 2411 ddbd 90f5 3bbe
000000e0: 60d0 753e 7c29 c7bd 16e3 2f3e c772 b23d
000000f0: 48d5 cfbe 9dea 5f3d 3c25 adbe 8b66 fbbe
00000100: 6a33 43bc 4715 a83d cd86 8bbe 99f7 933e
00000110: 281a dc3e 2016 6ebe 1abf 0abb 0c59 81be
00000120: 453a 963d 095f ba3d 0235 753e fa3f e53d
00000130: 0b7d b13d 009a ce3e 1ec7 13be 28bd 8fbe
00000140: b473 3d3e 1be1 d63e f764 7dbe 2056 9ebb
00000150: a9a1 b7be 95e8 683e acb9 c43e 56d8 0cbf
00000160: 9aef 28be 3aae 4dbd c442 17bb 40a0 31be
00000170: 6006 f73e e9d2 be3e 9a02 4d3d 26fe 293e
00000180: c7dd 0dbe f6b2 dcbe 8007 943e 7b11 c73d
00000190: e924 ec3d 542b 823e e1e7 cebe cce9 09be
000001a0: e628 c9be f49d 58bd 5ff5 a93c 133c 1ebe
000001b0: 957c 7ebe c085 253e 4bdf b1bc eb26 a13d
000001c0: c460 98be 975c 2c3e b7a7 12bf bb18 39bd
000001d0: 715d 64be c353 5cbe 376c 27be 57e2 55be
000001e0: 1877 d83e 056e ba3d eeff 1a3e a84d fa3d
000001f0: 0a91 cbbe a4ee 99bc cf72 793d 517f 4fbc
00000200: 1b52 4cbe 6149 0c3d 605e 7ebe 0679 f33e
00000210: a608 79bf fb18 d4bc 78a0 cdbd e2ae 08bd
00000220: bdbf f1be 8a22 c7be 149f c0bd 49d6 f23e
00000230: c33a 7d3d 7a21 93be ba28 1fbf a2b1 8b3d
00000240: 9e06 71be 4829 193c 9bb6 b43e 1707 26bd
00000250: 73da 733e 2e44 20bf e5b8 93be 7738 553f
00000260: 7aba d43b 9202 a23e b77f 06bd c187 9b3d
00000270: 9774 e7bc 7ad5 8dbe 1778 b83c d897 cdbe
00000280: ab3e dfbe 733f f43c b742 99bd bc91 fabd
00000290: 0f55 c23c c53b a1be ec13 8ebe 831e acbd
000002a0: b1e6 aebe a986 bcbe 2d19 48be 0081 d93e
000002b0: d635 8b3e a526 af3e ffab b13e 0700 37bd
000002c0: 763f e0be f4d1 a83e 7127 253e 1fde b2be
000002d0: d422 9a3e b0d8 a4bd e289 28be c5f4 7bbd
000002e0: 4f20 733e 6f99 b43e d631 a7bd 0b2f 003f
000002f0: baf7 683e 04ec 2b3d 9d9d 8dbe 2fca bc3c
00000300: 16f6 713e af4a cb3e 4e5e c83d 685a 7abd
00000310: 5976 5ebe f78f 2a3e e489 05be 31f2 b53e
00000320: 07fe d23e 7f05 27bd 8d62 613d e74c 76be
00000330: a4cd 83bd 7a12 53bd 6c7d 5ebe c93b d6be
00000340: 0697 d03c 6702 a63e 3b3e d83e 4f49 353e
00000350: b8b3 d9be 9ef7 dbbd 4cbe 34be ff00 8a3d
00000360: eae0 f0be 359b f7be ab0e 18bf 032e febe
00000370: cb92 013f 78a2 233e 4355 5e3e d3b1 9a3e
00000380: 0460 2fbe 8c15 acbe a96c 753e 22da f7bd
00000390: 679f 393e 6299 73be 2e6f 46be ba47 7c3d
000003a0: 3c36 433e 6bff 0c3e e563 b4be d035 843d
000003b0: b3b4 b5bb 4c15 cdbe 6462 9d3e e82f 063f
000003c0: b060 1d3d 4233 bfbe 796e ffbe 5cea d53e
000003d0: e900 58be a3b0 0dbd 6850 8dbe 5b60 05be
000003e0: dc5d dd3e 2a8f ab3e bda4 2a3d b9b0 983d
000003f0: b3f2 cabe b339 91be 9e4e 9ebe fd94 12be

decoder.layers.0.self_attn.linears.0.bias f4 [32]
0.01986769 -0.22890429 0.24245526 -0.19089499 -0.08810899 -0.20963089 0.3779891 -0.31188157
0.24585949 -0.28674996 0.11413619 0.06755554 -0.16630779 0.12314807 -0.27326196 -0.0029583813
-0.18015517 0.018585462 0.026097625 0.040373866 0.14756064 -0.0540696 -0.0769741 0.00022454796
-0.0941814 -0.30610874 0.47104868 0.2369678 0.15193434 -0.16441281 -0.13255428 -0.08989364
00000000: 91c1 a23c e365 6abe 3146 783e fa79 43be
00000010: 7c72 b4bd 7ba9 56be ca87 c13e f1ae 9fbe
00000020: 97c2 7b3e e4d0 92be 3cc0 e93d 8f5a 8a3d
00000030: 974c 2abe 0e35 fc3d fee8 8bbe 67e1 41bb
00000040: 997a 38be 8a40 983c b0ca d53c 115f 253d
00000050: 231a 173e 1678 5dbd 99a4 9dbd a274 6b39
00000060: 2ee2 c0bd 49ba 9cbe 4b2d f13e b0a7 723e
00000070: ad94 1b3e d55b 28be 4fbc 07be 281a b8bd

decoder.layers.0.self_attn.linears.1.weight f4 [32, 32]
0.062198434 0.16223718 0.013074388 -0.25880525 0.021640426 -0.14805241 0.14087528 -0.06272236
0.041802574 0.39048627 0.072122306 -0.003936484 0.109174386 -0.0454256 -0.115572736 0.21145973
-0.09058348 0.08867583 -0.24991928 0.3042301 0.15157394 -0.3126884 -0.10699639 0.42640412
-0.50923127 0.9698316 1.0101085 0.82278585 0.27821818 -0.71008426 -0.29992935 -0.20642829
-0.2531976 -0.3250546 0.24787861 -0.34509495 -0.035275225 0.07421647 0.16983368 0.31237298
-0.179465 0.06668173 -0.5169991 -0.27554983 -0.014411331 -0.0657052 0.41999856 0.21109527
-0.24783994 -0.26252022 -0.17545667 0.006903361 0.43838224 -0.034648046 0.16691874 0.2622293
-0.006525183 0.26860586 0.57268244 0.06674301 0.10749045 -0.49163684 -0.1021647 0.021007294
0.042175937 -0.010307681 -0.25606543 0.009712926 0.17807621 0.123943806 0.02319198 0.087786734
0.089567296 -0.18150657 0.019351693 -0.21595088 0.3634995 -0.10767644 -0.023153594 -0.1164958
-0.18170361 0.23201366 0.121729106 0.059426215 -0.31004068 0.5752312 0.32994524 -0.47981092
-0.14899778 -0.68061566 -0.06026652 0.026779147 -0.39328086 0.34640735 -0.17139262 0.007640599
0.023787223 -0.29634523 0.42893684 -0.08859492 0.019988144 -0.16045772 -0.009900538 0.18419245
0.052164484 0.1318468 -0.1270683 0.34666976 -0.14123902 0.069509484 0.19418217 0.3574833
-0.37099168 0.06677572 -0.33162704 0.36039153 0.19358127 -0.1682502 -0.18630618 0.06485352
0.03103759 0.42377034 0.25254256 -0.28614134 0.156254 0.10373368 0.5112798 0.66147935
-0.057258494 -0.18230629 -0.28163067 -0.05073671 -0.15871868 0.44725025 -0.23348509 0.12360629
0.037389778 0.30285817 -0.049040165 0.23112532 0.057929847 0.25541902 -0.16987655 -0.0017017704
-0.28487477 0.06276427 -0.10867184 0.22323053 0.22018155 -0.47077262 -0.36051944 0.41918543
-0.33028442 1.3653475 0.8941771 0.37352788 0.4188281 -0.8539371 -0.03762366 -0.216493
0.19551955 -0.19251633 -0.24317248 -0.23065858 -0.023822896 -0.3043675 0.06708209 -0.21372294
0.21348108 -0.15412752 -0.17201823 -0.31039888 -0.0049139108 0.45744777 0.074099444 0.14554457
-0.23973887 -0.23902746 -0.508851 0.11217372 0.18819317 -0.25181866 -0.41650796 -0.150986
-0.14790466 0.05564213 0.43927702 -0.23862866 -0.02108826 -0.35193473 -0.013454385 -0.12759927
-0.14171399 0.34852594 -0.33069313 0.12826456 -0.068989314 0.05970203 -0.029818611 -0.24863943
0.30248433 -0.34810254 0.29338956 -0.077563606 0.05830731 -0.091237076 -0.29722413 -0.22889002
-0.06687343 -0.13214067 0.167341 -0.011501545 -0.15023865 0.51169777 0.2630089 -0.347169
-0.08187876 -0.29313 -0.57569814 0.22032875 0.20233183 0.56500816 0.1766993 -0.21568878
-0.2037021 -0.11731414 0.33497348 -0.21468525 -0.17271937 -0.095073596 0.028889533 -0.31155676
-0.14744556 -0.08556489 0.0018711131 -0.036668047 -0.4452145 -0.10044006 0.1684524 0.010304431
-0.39797527 -0.20933314 -0.5361211 -0.065295525 -0.018422356 -0.3861284 -0.25318155 0.054874457
0.3802165 0.29936337 0.83669555 -0.06380333 -0.21150881 -0.48671228 -0.55877006 0.1437102
00000000: c9c3 7e3d 8121 263e f535 563c 1f82 84be
00000010: 4347 b13c 0d9b 17be 9c41 103e 9574 80bd
00000020: 2d39 2b3d d1ed c73e dcb4 933d 9ffd 80bb
00000030: d296 df3d 3210 3abd 66b1 ecbd e688 583e
00000040: d583 b9bd ac9b b53d d7ea 7fbe 0cc4 9b3e
00000050: 3336 1b3e b218 a0be ec20 dbbd a451 da3e
00000060: fb5c 02bf e246 783f 3c4b 813f 18a2 523f
00000070: 9d72 8e3e 15c8 35bf 5790 99be f061 53be
00000080: 1ea3 81be 8e6d a6be e4d3 7d3e 49b0 b0be
00000090: c17c 10bd cefe 973d e1e8 2d3e 5aef 9f3e
000000a0: acc5 37be 6e90 883d 0e5a 04bf de14 8dbe
000000b0: 811d 6cbc 7390 86bd 0d0a d73e 5c29 583e
000000c0: c1c9 7dbe 0d69 86be eaaa 33be 9735 e23b
000000d0: a373 e03e 1ceb 0dbd bfec 2a3e eb42 863e
000000e0: 34d1 d5bb b586 893e 519b 123f 8fb0 883d
000000f0: f423 dc3d d3b7 fbbe ba3b d1bd 7d17 ac3c
00000100: adc0 2c3d 8ce1 28bc 021b 83be f722 1f3c
00000110: 9c59 363e 40d6 fd3d 1bfd bd3c 88c9 b33d
00000120: 0f6f b73d dcdc 39be 7187 9e3c 3a22 5dbe
00000130: 9b1c ba3e 7785 dcbd 9bac bdbc 5a95 eebd
00000140: 8310 3abe fd94 6d3e 1c4d f93d e768 733d
00000150: a7bd 9ebe 5a42 133f 95ee a83e c7a9 f5be
00000160: e092 18be d43c 2ebf 07da 76bd f15f db3c
00000170: 1c5c c9be 4e5c b13e 8c81 2fbe fd5d fa3b
00000180: 6cdd c23c 90ba 97be 9c9d db3e 4171 b5bd
00000190: 2dbe a33c 074f 24be de35 22bc f29c 3c3e
000001a0: 6daa 553d d902 073e 311e 02be b37e b13e
000001b0: f6a0 10be fd5a 8e3d b1d7 463e 0d08 b73e
000001c0: 9ff2 bdbe b5c1 883d 05cb a9be 3d85 b83e
000001d0: 2b3a 463e c849 2cbe 0cc7 3ebe ecd1 843d
000001e0: 8b42 fe3c 6df8 d83e 424d 813e 1e81 92be
000001f0: 0c01 203e 5372 d43d 3ce3 023f b656 293f
00000200: e287 6abd 80ae 3abe e531 90be 4cd1 4fbd
00000210: 2687 22be fcfd e43e b716 6fbe 4b25 fd3d
00000220: 0626 193d 3a10 9b3e 57de 48bd 1eac 6c3e
00000230: d947 6d3d 48c6 823e 1ef4 2dbe f00d dfba
00000240: 1bdb 91be 8e8a 803d 578f debd 8b96 643e
00000250: 4677 613e 1c09 f1be 0196 b8be 799f d63e
00000260: 0a1b a9be b5c3 ae3f cae8 643f 0c3f bf3e
00000270: a370 d63e 9f9b 5abf 441b 1abd 57b0 5dbe
00000280: 4736 483e 0023 45be 3502 79be c331 6cbe
00000290: 3c28 c3bc 0fd6 9bbe 5662 893d 30da 5abe
000002a0: c99a 5a3e 9bd3 1dbe 8c25 30be 9aec 9ebe
000002b0: df04 a1bb 9836 ea3e 73c1 973d a309 153e
000002c0: 1b7e 75be 9dc3 74be 0f44 02bf 56bb e53d
000002d0: b6b5 403e 60ee 80be 8840 d5be 139c 1abe
000002e0: 5274 17be 01e9 633d ebe8 e03e 125b 74be
000002f0: 49c1 acbc ca30 b4be c86f 5cbc 62a9 02be
00000300: 791d 11be fe71 b23e 9c50 a9be c957 033e
00000310: 454a 8dbd 1e8a 743d 2946 f4bc 569b 7ebe
00000320: 3adf 9a3e 7f3a b2be 2837 963e abd9 9ebd
00000330: a5d3 6e3d 81da babd c32d 98be 2562 6abe
00000340: f0f4 88bd e24f 07be 705b 2b3e fa70 3cbc
00000350: 29d8 19be a0fe 023f 1aa9 863e 23c0 b1be
00000360: 0db0 a7bd 2315 96be f460 13bf dc9d 613e
00000370: 1330 4f3e 60a4 103f a9f0 343e 85dd 5cbe
00000380: 4997 50be 6542 f0bd a581 ab3e 73d6 5bbe
00000390: 59dd 30be f2b5 c2bd bea9 ec3c 5e84 9fbe
000003a0: f8fb 16be a53c afbd 2340 f53a 3c31 16bd
000003b0: 28f3 e3be 85b3 cdbd c97e 2c3e ebd3 283c
000003c0: 6ac3 cbbe 6d5b 56be 3b3f 09bf a9b9 85bd
000003d0: 7bea 96bc 9fb2 c5be 03a1 81be 0ac4 603d
000003e0: bdab c23e 2846 993e ae31 563f 52ab 82bd
000003f0: c495 58be 5a32 f9be 8e0b 0fbf c428 133e

decoder.layers.0.self_attn.linears.1.bias f4 [32]
0.09913453 -0.023816455 0.073529154 -0.102574416 0.03292546 -0.10379752 0.08217556 -0.075588614
-0.01906249 -0.16271104 0.009767867 0.15798841 0.09284247 -0.10157924 0.011468485 -0.023378659
-0.142238 0.13854174 0.0025071127 0.036764674 -0.072219566 -0.08215626 0.029443078 0.064925484
0.04608595 -0.09279097 0.1795479 -0.019525418 -0.1054126 -0.081279375 0.17129344 -0.0028047224
00000000: 0b07 cb3d ba1a c3bc 7496 963d 8912 d2bd
00000010: d9dc 063d cb93 d4bd a94b a83d 34ce 9abd
00000020: f028 9cbc b99d 26be 6709 203c b7c7 213e
00000030: 3124 be3d c708 d0bd 50e6 3b3c 9a84 bfbc
00000040: d7a6 11be e3dd 0d3e 5f4e 243b 8e96 163d
00000050: dae7 93bd 8b41 a8bd 9c32 f13c a7f7 843d
00000060: 9fc4 3c3d 3109 bebd 68db 373e c5f3 9fbc
00000070: 90e2 d7bd cd75 a6bd 8c67 2f3e 6fcf 37bb

decoder.layers.0.self_attn.linears.2.weight f4 [32, 32]
-0.035505973 -0.29612452 0.18000753 -0.13735385 0.2268331 -0.40502223 0.2817971 -0.43324488
-0.3128939 -0.16843593 -0.20403844 0.24092773 -0.0036538285 0.13172397 0.34314862 0.039639093
-0.14371446 -0.15923801 -0.00025291552 0.4351609 0.14479421 -0.22073793 -0.178688 0.069986306
0.11266766 0.08932232 0.24501248 -0.084929325 0.2482518 -0.028120244 -0.31936252 0.105596505
0.10110588 0.28410074 0.15258837 -0.28064427 0.2167942 -0.31288427 -0.19121377 -0.13274044
-0.17024274 -0.2889333 -0.20576319 -0.24188699 -0.29758924 0.22336556 -0.18184532 0.34734783
-0.47618765 -0.013332056 -0.39602676 0.12199885 0.031179227 -0.672652 0.14591368 -0.15818456
0.11035156 -0.03194766 0.15188369 -0.0903308 -0.05002245 -0.24845207 0.10808073 0.121233314
0.28287116 0.016916228 -0.03037784 -0.061830018 0.11165573 0.1012068 -0.046057068 -0.3692845
-0.38072598 -0.19957845 0.36163342 0.02127724 0.046371147 0.24399608 0.4460406 0.310015
-0.2647593 0.28088185 -0.34838453 -0.09778785 -0.20660882 -0.39482313 0.2499972 0.29920688
0.25079638 -0.13855867 0.25286305 0.24155237 0.20241855 -0.23822176 0.17627218 -0.12171056
0.28136453 -0.009166971 -0.02850725 -0.3392862 0.11227883 -0.27534866 0.078186 0.14150256
0.28323168 -0.3477462 0.10296925 -0.22608706 0.023019334 -0.15940754 -0.10743674 0.115279086
0.3139548 -0.15709718 0.18408737 0.31108359 0.22550763 0.34136102 0.35503882 -0.030147709
-0.19803293 -0.0054721944 0.05918658 0.02045381 0.14822832 0.14122918 -0.10128642 -0.114987135
0.14700566 0.5325636 0.0034547446 -0.39666587 -0.26270196 0.10202222 0.09358435 0.17330319
-0.3722356 -0.08295476 -0.06386273 -0.42893118 0.56977683 0.03675678 -0.11272606 -0.6839551
0.021085104 -0.050176725 0.3565143 0.14491804 -0.24623515 0.50229216 0.080656074 -0.06899857
0.18090858 0.06443883 -0.049571328 0.2665811 -0.040943652 0.010523695 0.22527827 0.07416846
-0.025823556 0.4769207 -0.08295439 0.4581299 -0.51458764 0.45100528 -0.39850143 0.40269396
0.029059287 0.28929925 0.16356449 0.07527819 -0.042731926 0.044082366 -0.07978994 -0.56105965
-0.22943105 -0.20514801 0.41464534 -0.20617574 -0.51593876 0.3529467 -0.3253109 -0.29664826
0.28894943 0.10034532 -0.048105434 0.07208206 0.2671165 0.14599456 0.17473431 0.22844987
-0.3562286 0.0558999 0.13213928 -0.11420093 -0.14214851 0.36253694 0.18492351 0.24323638
0.29492557 0.27333042 -0.058959547 -0.26866785 0.048543736 -0.18513471 -0.1994557 0.018870404
0.3785175 0.13211519 0.12718813 -0.22796394 0.067522764 0.38046622 0.25666687 -0.21913072
-0.12688562 -0.17700197 0.24715915 -0.23530641 -0.21499649 -0.016836371 -0.010052194 0.19462791
-0.17205708 0.07156857 -0.21184304 0.19690101 -0.1988715 -0.26306346 -0.19467378 0.35800317
0.26139095 -0.042403623 -0.36345327 -0.0074655125 0.36619824 -0.010769249 0.09651821 -0.07018565
-0.018556857 -0.26582688 -0.04199238 -0.13880104 0.25993422 0.13026153 0.1039694 0.30871004
-0.20175253 -0.16764893 -0.31832105 0.17284743 -0.22149466 -0.07643895 -0.2127444 0.015256278
00000000: b66e 11bd a29d 97be e553 383e 7da6 0cbe
00000010: f046 683e 135f cfbe b647 903e 46d2 ddbe
00000020: a133 a0be 787a 2cbe 74ef 50be c2b5 763e
00000030: 1275 6fbb a6e2 063e 2db1 af3e 9a5c 223d
00000040: e229 13be 4a0f 23be bf99 84b9 69cd de3e
00000050: ef44 143e 2009 62be fdf9 36be fb54 8f3d
00000060: 4dbe e63d 9fee b63d 8de4 7a3e 6def adbd
00000070: b835 7e3e 6d5c e6bc 7c83 a3be fb42 d83d
00000080: 9a10 cf3d a775 913e 2040 1c3e 9bb0 8fbe
00000090: 4cff 5d3e 5e32 a0be 8bcd 43be 1ced 07be
000000a0: 1d54 2ebe 11ef 93be 96b3 52be 39b1 77be
000000b0: 9e5d 98be f1b9 643e a935 3abe 93d7 b13e
000000c0: dece f3be b26e 5abc 05c4 cabe 88da f93d
000000d0: 946b ff3c ec32 2cbf 656a 153e 22fb 21be
000000e0: 0000 e23d 8ddb 02bd 6687 1b3e 5bff b8bd
000000f0: 57e4 4cbd 386a 7ebe 6e59 dd3d 2c49 f83d
00000100: 7dd4 903e e793 8a3c f3da f8bc 7941 7dbd
00000110: c2ab e43d 8345 cf3d 56a6 3cbd dc12 bdbe
00000120: 84ee c2be 4b5e 4cbe 0428 b93e 9b4d ae3c
00000130: acef 3d3d 1cda 793e 6f5f e43e 49ba 9e3e
00000140: 888e 87be bfcf 8f3e 755f b2be ff44 c8bd
00000150: 4391 53be 4226 cabe 44ff 7f3e a531 993e
00000160: 6268 803e 53e2 0dbe 4477 813e 8159 773e
00000170: cf46 4f3e 68f0 73be b280 343e 6343 f9bd
00000180: 030f 903e 1031 16bc 0988 e9bc ecb6 adbe
00000190: 71f2 e53d 80fa 8cbe fb1f a03d 0ce6 103e
000001a0: be03 913e ca0b b2be 8be1 d23d 5e83 67be
000001b0: 0b93 bc3c bb3b 23be cb07 dcbd 7117 ec3d
000001c0: afbe a03e 15de 20be 6681 3c3e 5946 9f3e
000001d0: 79eb 663e dfc6 ae3e a6c7 b53e 54f8 f6bc
000001e0: 25c9 4abe 1850 b3bb a16d 723d c08e a73c
000001f0: 2ac9 173e 629e 103e 416f cfbd 607e ebbd
00000200: a788 163e 1756 083f ff68 623b ca17 cbbe
00000210: df80 86be 07f1 d03d 27a9 bf3d 6476 313e
00000220: aa95 bebe 2fe4 a9bd 77ca 82bd de9c dbbe
00000230: e5dc 113f 478e 163d ecdc e6bd ae17 2fbf
00000240: abba ac3c 1c86 4dbd 0b89 b63e 6565 143e
00000250: 1125 7cbe 3896 003f 032f a53d 1f4f 8dbd
00000260: 1940 393e 81f8 833d 4e0b 4bbd 517d 883e
00000270: 88b4 27bd 936b 2c3c 59af 663e a2e5 973d
00000280: ec8b d3bc f32e f43e fee3 a9bd 0190 ea3e
00000290: 04bc 03bf 2aea e63e 6108 ccbe e72d ce3e
000002a0: be0d ee3c 081f 943e 737d 273e 742b 9a3d
000002b0: ac07 2fbd b68f 343d e868 a3bd 9ba1 0fbf
000002c0: f9ef 6abe 5212 52be 654c d43e bc1f 53be
000002d0: 9014 04bf 6eb5 b43e 268f a6be 48e2 97be
000002e0: 2ef1 933e d981 cd3d 340a 45bd c29f 933d
000002f0: 7ec3 883e 997f 153e 8ded 323e c3ee 693e
00000300: 9863 b6be 4bf7 643d 854f 073e 2de2 e9bd
00000310: 618f 11be 719e b93e 975c 3d3e f512 793e
00000320: 7c00 973e f7f1 8b3e 917f 71bd d58e 89be
00000330: ccd5 463d f493 3dbe 1d3e 4cbe 1b96 9a3c
00000340: 0ccd c13e 3449 073e 9b3d 023e 616f 69be
00000350: 6049 8a3d 78cc c23e d769 833e ce63 60be
00000360: 4eee 01be 0140 35be 4a17 7d3e 2af4 70be
00000370: 0a28 5cbe 6eec 89bc f5b1 24bc 8a4c 473e
00000380: bb2f 30be 8b92 923d 62ed 58be 6ba0 493e
00000390: f8a4 4bbe 41b0 86be 9058 47be 314c b73e
000003a0: 09d5 853e 6caf 2dbd 8c16 babe 42a1 f4bb
000003b0: 567e bb3e 8171 30bc 57ab c53d 7ebd 8fbd
000003c0: 8d04 98bc 761a 88be 3400 2cbd dc21 0ebe
000003d0: 1916 853e 4763 053e e9ed d43d 3e0f 9e3e
000003e0: 3798 4ebe 29ac 2bbe fafa a2be ebfe 303e
000003f0: 7fcf 62be 068c 9cbd abd9 59be 78f5 793c

decoder.layers.0.self_attn.linears.2.bias f4 [32]
0.050575264 -0.006450027 -0.0058826436 -0.11201059 -0.001999342 -0.1415467 0.13753891 -0.01792661
0.02253653 -0.118061505 0.08921939 0.2660548 0.09064135 -0.084983096 0.012812405 -0.052231543
-0.0019131891 0.080325976 0.048865035 0.01672457 0.028544437 -0.09235746 0.027331257 0.05379209
0.05585694 -0.08500449 0.086254865 0.018851224 -0.04070006 -0.08199632 0.21019033 0.03730782
00000000: 0228 4f3d c05a d3bb 31c3 c0bb cf65 e5bd
00000010: 6507 03bb 9ef1 10be 00d7 0c3e d3da 92bc
00000020: 879e b83c 3bca f1bd a8b8 b63d 5638 883e
00000030: 2ca2 b93d 9e0b aebd 1feb 513c bef0 55bd
00000040: f9c3 faba f281 a43d b426 483d f701 893c
00000050: 06d6 e93c e825 bdbd cde5 df3c 1855 5c3d
00000060: 3fca 643d d616 aebd 64a6 b03d e26d 9a3c
00000070: 1bb5 26bd b0ed a7bd 223c 573e 16d0 183d

decoder.layers.0.self_attn.linears.3.weight f4 [32, 32]
-0.15807907 0.20648435 -0.033920772 0.13994755 -0.058159128 0.0026228814 0.25004557 -0.38418028
0.06419019 0.17132324 -0.1329977 0.07272244 -0.40110365 0.16666561 -0.1230226 0.08777468
-0.21951638 0.010810018 -0.39895645 -0.1563728 0.44822925 0.27669716 -0.10093576 -0.099765904
0.08274289 0.056253925 -0.19165035 -0.109106384 0.25614485 0.3341218 -0.044716585 -0.027774334
0.36212346 -0.03834991 -0.2568283 -0.19834714 -0.07252414 -0.0013948916 -0.14027183 0.025901487
0.27018815 -0.1728104 0.24127531 0.07521102 0.44412628 -0.047225382 0.36928934 0.24028404
-0.17610593 -0.19840181 -0.14891122 -0.0143250115 -0.060236145 0.06302553 -0.069428414 -0.009382878
0.10631402 -0.024453372 -0.086419426 -0.08149167 -0.035028033 0.29910097 0.27716938 -0.14505097
0.08048956 -0.093262225 -0.195861 -0.16771837 0.21606992 0.08254219 0.10061562 -0.02795304
0.12235529 -0.1440335 0.32714865 0.11919577 -0.18107371 -0.27805305 0.026124135 0.20239635
0.12589124 0.061825898 -0.06537449 0.048160303 -0.1212956 -0.09639862 0.08065234 0.110219955
-0.18148328 0.048938952 -0.029327113 -0.311257 -0.04994223 -0.16812648 0.12485529 0.07435273
-0.24678175 0.09706645 0.18516949 -0.24255338 0.4957915 0.3773555 -0.26924014 0.20114408
-0.45718107 -0.0320733 -0.06572617 -0.10435478 -0.16034679 -0.28940186 0.07918992 -0.053469643
0.021182805 0.15429741 -0.21647957 -0.002918693 0.19418171 0.16990241 -0.18240188 -0.052406885
-0.1498456 -0.17859444 -0.08903904 0.055993035 0.20696184 -0.041694492 0.18792418 -0.056508023
0.4516627 -0.13932014 0.12000921 -0.2850606 -0.1063483 -0.15498349 -0.31261283 0.03936321
0.012475465 -0.3463578 -0.033579826 -0.2651982 0.009562683 0.06256461 -0.05725651 -0.25996658
0.07356287 -0.03927319 -0.23322949 0.183928 0.09563417 0.16488662 -0.23325314 -0.009765597
-0.14738615 -0.015712367 -0.05153381 -0.17438017 0.10871386 -0.13413616 0.014279004 0.096595526
-0.28958064 0.06560766 -0.30876043 -0.065351345 0.074868314 0.23236193 0.1497593 0.21316713
0.021471875 0.26556054 0.27641922 0.34708878 -0.038492054 -0.1623698 -0.04001581 0.2772599
0.16722818 0.19405778 -0.043006923 0.08334182 0.007494136 0.07914342 0.07545448 0.04726187
-0.048811752 0.16037518 -0.14140128 0.009211786 -0.024491843 -0.0792902 -0.11978884 -0.07298164
0.16690035 0.15203023 -0.079981774 -0.025983268 -0.34769422 0.0060893153 -0.0872567 -0.11244975
0.17368583 -0.0681994 0.09558705 -0.2173067 0.074684955 0.38800073 0.21997622 0.022774745
0.19157767 0.16365965 -0.20399262 0.07335195 0.07531377 -0.11814116 0.08474079 -0.22367717
-0.22701047 -0.04401636 -0.10654599 -0.07907904 0.10241751 -0.15475619 0.12677886 0.10573579
-0.057757366 0.05141691 -0.17750943 0.23974603 -0.23656859 -0.2297716 0.2714772 0.17649674
-0.28730938 -0.20107491 0.12738582 0.19350857 -0.06807727 0.28748313 0.6258236 -0.01162172
-0.030948326 0.064568214 -0.11452864 0.078593686 0.23731202 -0.0024018923 -0.18920764 -0.115500644
-0.16767183 -0.08305771 -0.06983927 -0.18350713 0.22142263 -0.03905475 0.075509086 0.15033166
00000000: 7bdf 21be a270 533e 82f0 0abd 694e 0f3e
00000010: 4438 6ebd a6e4 2b3b f905 803e 47b3 c4be
00000020: 2576 833d 5c6f 2f3e 8d30 08be 81ef 943d
00000030: 755d cdbe 64aa 2a3e 46f3 fbbd 36c3 b33d
00000040: e7c8 60be 801c 313c 0544 ccbe 3120 20be
00000050: 4e7e e53e 40ab 8d3e 68b7 cebd 1152 ccbd
00000060: 1b75 a93d 846a 663d fd3f 44be 2b73 dfbd
00000070: 6b25 833e 0312 ab3e bd28 37bd 0087 e3bc
00000080: 3f68 b93e cc14 1dbd 007f 83be 831b 4bbe
00000090: 8987 94bd ccd4 b6ba 6ba3 0fbe 5b2f d43c
000000a0: 1a56 8a3e 36f5 30be e010 773e 3c08 9a3d
000000b0: 8564 e33e 676f 41bd 7e13 bd3e 050d 763e
000000c0: 1d55 34be d829 4bbe 2f7c 18be 74b3 6abc
000000d0: 2dba 76bd 8713 813d 7c30 8ebd a5ba 19bc
000000e0: 2abb d93d 7052 c8bc abfc b0bd 1be5 a6bd
000000f0: 8e79 0fbd c323 993e 25e9 8d3e 3e88 14be
00000100: b6d7 a43d 4400 bfbd c98f 48be 5dbe 2bbe
00000110: 6f41 5d3e e10b a93d 900f ce3d c6fd e4bc
00000120: 6995 fa3d 857d 13be 0780 a73e e91c f43d
00000130: 636b 39be f85c 8ebe 4802 d63c fd40 4f3e
00000140: a2e9 003e 273d 7d3d 10e3 85bd bd43 453d
00000150: d469 f8bd a46c c5bd 0e2d a53d 00bb e13d
00000160: c1d6 39be 3674 483d 6a3f f0bc 145d 9fbe
00000170: 3990 4cbd 5929 2cbe 21b4 ff3d 3e46 983d
00000180: 5bb4 7cbe c6ca c63d 129d 3d3e ea5f 78be
00000190: 62d8 fd3e bd34 c13e d8d9 89be b7f8 4d3e
000001a0: a313 eabe 4b5f 03bd 719b 86bd f5b7 d5bd
000001b0: f331 24be 7b2c 94be 532e a23d fc02 5bbd
000001c0: 9087 ad3c 2400 1e3e d2ac 5dbe 8b47 3fbb
000001d0: 92d7 463e e6fa 2d3e 8fc7 3abe 9aa8 56bd
000001e0: 2071 19be 76e1 36be 1a5a b6bd f458 653d
000001f0: ceed 533e d8c7 2abd 326f 403e f574 67bd
00000200: 5540 e73e f0a9 0ebe 64c7 f53d 77f3 91be
00000210: 23cd d9bd feb3 1ebe ca0e a0be 513b 213d
00000220: e565 4c3c cf55 b1be 008b 09bd 0fc8 87be
00000230: cdac 1c3c e021 803d cd85 6abd 571a 85be
00000240: 21a8 963d eddc 20bd b6d3 6ebe 9f57 3c3e
00000250: d9db c33d 0ad8 283e e9d9 6ebe e2ff 1fbc
00000260: 65ec 16be 39b7 80bc 1e15 53bd b790 32be
00000270: 5fa5 de3d fd5a 09be 7cf2 693c e0d3 c53d
00000280: ea43 94be 4f5d 863d d915 9ebe edd6 85bd
00000290: 8f54 993d 49f0 6d3e 805a 193e 7c48 5a3e
000002a0: c9e5 af3c 8df7 873e d286 8d3e 9fb5 b13e
000002b0: d8a9 1dbd 4544 26be 9ee7 23bd 02f5 8d3e
000002c0: dd3d 2b3e 15b7 463e 0728 30bd 1eaf aa3d
000002d0: 5f91 f53b f215 a23d e187 9a3d aa95 413d
000002e0: d5ee 47bd 6439 243e 7fcb 10be 08ed 163c
000002f0: 1ea3 c8bc e662 a2bd da53 f5bd 6677 95bd
00000300: ede7 2a3e d0ad 1b3e 7ccd a3bd ddda d4bc
00000310: fa04 b2be e188 c73b a4b3 b2bd 0e4c e6bd
00000320: b3da 313e 21ac 8bbd 25c3 c33d a685 5ebe
00000330: 6df4 983d 08a8 c63e 7241 613e 1a92 ba3c
00000340: f02c 443e 6596 273e 71e3 50be 8c39 963d
00000350: 1b3e 9a3d fef3 f1bd 948c ad3d a10b 65be
00000360: 6f75 68be 804a 34bd c934 dabd 31f4 a1bd
00000370: 45c0 d13d 6878 1ebe 51d2 013e 028c d83d
00000380: fd92 6cbd 8a9a 523d 08c5 35be fc7f 753e
00000390: 093f 72be 3f49 6bbe 0fff 8a3e 90bb 343e
000003a0: 371a 93be 95e6 4dbe 6e71 023e 1c27 463e
000003b0: 196c 8bbd fd30 933e fa35 203f 0769 3ebc
000003c0: 5887 fdbc 573c 843d fe8d eabd baf5 a03d
000003d0: ec01 733e 1169 1dbb a6bf 41be 9a8b ecbd
000003e0: 2ab2 2bbe 291a aabd e407 8fbd 4be9 3bbe
000003f0: 9dbc 623e e0f7 1fbd 82a4 9a3d 8bf0 193e

decoder.layers.0.self_attn.linears.3.bias f4 [32]
-0.036664043 -0.005057589 0.035718866 -0.06975028 -0.011699153 -0.10281928 0.028798606 -0.018279241
-0.002458297 -0.09325862 -0.011236323 0.1497127 -0.001009255 -0.101171225 -0.048938405 -0.049994256
-0.0640988 0.042220935 -0.0012010603 0.010867724 -0.024341578 0.009122513 0.09712197 0.04889565
0.1389067 0.06729837 0.3778248 0.15822797 -0.2778362 -0.21216427 -0.03185016 -0.28664473
00000000: 092d 16bd 22ba a5bb f24d 123d 3cd9 8ebd
00000010: cead 3fbc ea92 d2bd 0eeb eb3c 59be 95bc
00000020: 611b 21bb 60fe bebd 8e18 38bc 494e 193e
00000030: fa48 84ba dc32 cfbd a373 48bd c7c6 4cbd
00000040: 3b46 83bd dcef 2c3d e56c 9dba 8a0e 323c
00000050: fd67 c7bc 9876 153c e2e7 c63d ce46 483d
00000060: 8f3d 0e3e bad3 893d 4172 c13e 8306 223e
00000070: 8c40 8ebe 9741 59be 5075 02bd 19c3 92be

decoder.layers.0.feed_forward.w_1.weight f4 [128, 32]
-0.034429297 0.064471886 0.2317962 -0.20937501 -0.09746805 -0.13701317 -0.00268482 -0.22450717
0.356058 -0.120805204 -0.13219403 0.30159962 -0.21571906 0.5642646 0.07953818 0.093248196
0.033316717 0.030946141 -0.017076245 -0.45407516 0.07551962 0.043201197 -0.42896244 -0.057507437
0.05464532 0.020185776 -0.008968315 -0.06897765 0.08920473 -0.061584577 -0.026310934 0.26588538
0.33899516 -0.015551202 0.19731954 0.18482722 -0.009223569 -0.011317432 -0.14239821 0.013334476
0.040494025 0.0003024237 -0.033610977 -0.15945224 0.012459172 -0.049718488 0.24493194 0.02832321
-0.26450077 0.003154808 0.028396279 0.033360276 0.045307793 -0.044517457 0.0658446 -0.07692108
-0.08969753 -0.018382775 0.23377843 -0.07116906 -0.024119796 0.030144846 0.1494061 0.028147776
-0.03722085 0.00125587 -0.083349206 0.005335686 0.14000061 0.021307372 -0.008730412 0.06745237
0.10844135 -0.0026458243 0.14771001 -0.25773457 0.13704045 -0.11545527 0.26627576 0.108362526
0.3086366 -0.17542063 -0.22304092 0.4694346 0.0062287254 -0.20074655 0.11590332 0.16245908
0.19966324 -0.07771292 0.068374544 -0.120275676 0.007812173 -0.007664979 -0.16992642 0.009346274
0.088228315 -0.119599864 0.022085344 -0.32484648 -0.27185953 -0.09646596 -0.108724065 0.13488802
0.14184335 -0.047498398 -0.0065199165 0.2053709 0.10746421 0.18713334 -0.08914591 -0.07579754
0.19106202 0.22978467 0.12903927 -0.3327569 0.23356627 0.03399076 -0.21868303 -0.1240522
0.25618604 0.11751514 -0.22403008 -0.12071979 0.12527896 -0.026460057 0.030172085 0.006756796
-0.10091482 0.16492671 0.029835146 -0.017648363 -0.28203937 0.04512584 -0.29415575 -0.20586666
0.04134453 -0.10671443 -0.021338861 0.06955094 0.09229381 0.02937034 0.07221545 0.052086886
0.14107616 -0.19949798 0.034518566 -0.057614297 -0.20075944 -0.0680012 -0.016219623 -0.0025126047
0.47704566 0.04765713 0.033056986 0.15114515 0.010472238 -0.13502951 0.11027135 0.010152503
-0.38462096 -0.10024907 -0.1958633 -0.20131923 0.084226884 -0.2505518 0.09623913 -0.18249698
0.14275678 -0.20029022 0.2757589 -0.12162412 0.012136045 -0.108818896 -0.17430367 0.09794395
0.08586638 0.21798155 0.10702925 -0.13041234 0.19246604 -0.0972714 -0.19126445 0.03086421
-0.10502982 -0.16932009 -0.088461325 0.2861334 -0.09974318 0.22194342 -0.06466861 0.0771781
-0.12215987 -0.006765844 0.2442454 0.17101066 -0.007445053 -0.027121736 0.005309845 0.37531015
0.0054737492 0.023233606 0.15891805 0.4213537 0.2321079 -0.09165415 -0.22801799 -0.23283403
0.1436687 0.11484346 0.20871589 -0.32089218 0.019738419 0.46347588 0.14897801 -0.22668137
0.075493686 -0.00066775706 0.13755359 -0.010827525 -0.07233807 0.13142423 0.012829775 -0.026647916
0.0394224 0.10219099 0.09806531 -0.15651922 0.07087738 0.02489769 0.12516558 0.009427344
-0.16774617 -0.15183456 0.06763753 -0.15935932 -0.07308073 -0.09239257 0.2431734 -0.07587617
-0.121412836 0.019636951 0.21738492 -0.21904138 0.31634554 -0.047163434 0.02195579 0.14340067
-0.1138783 -0.17978881 -0.0005588058 -0.034067865 0.084655985 0.1541086 -0.09875882 -0.019299187
00000000: bc05 0dbd d609 843d fc5b 6d3e 6766 56be
00000010: 549d c7bd 2e4d 0cbe cef3 2fbb 35e5 65be
00000020: 3c4d b63e b868 f7bd df5d 07be 446b 9a3e
00000030: 75e5 5cbe a573 103f eae4 a23d e9f8 be3d
00000040: 1c77 083d c382 fd3c 7be3 8bbc 8a7c e8be
00000050: 08aa 9a3d bdf3 303d f7a0 dbbe eb8c 6bbd
00000060: c5d3 5f3d a45c a53c d7ef 12bc 2744 8dbd
00000070: f8b0 b63d 1c40 7cbd 078a d7bc 2122 883e
00000080: c690 ad3e 78ca 7ebc 220e 4a3e 5943 3d3e
00000090: 741e 17bc c06c 39bc d6d0 11be d978 5a3c
000000a0: 10dd 253d 9f8e 9e39 aaab 09bd 7347 23be
000000b0: 8e21 4c3c 9da5 4bbd 70cf 7a3e 1406 e83c
000000c0: a56c 87be e5c0 4e3b 509f e83c c9a4 083d
000000d0: aa94 393d f057 36bd 89d9 863d cd88 9dbd
000000e0: 57b3 b7bd 7997 96bc 9d63 6f3e 16c1 91bd
000000f0: e196 c5bc 53f2 f63c eafd 183e 2a96 e63c
00000100: e474 18bd 019c a43a fdb2 aabd fad6 ae3b
00000110: 525c 0f3e cc8c ae3c 010a 0fbc 7824 8a3d
00000120: 8016 de3d 9165 2dbb 4b41 173e c9f5 83be
00000130: 5554 0c3e d073 ecbd 4c55 883e 2ced dd3d
00000140: 9e05 9e3e 77a1 33be d764 64be bb59 f03e
00000150: 561a cc3b 8190 4dbe b85e ed3d ac5b 263e
00000160: 8574 4c3e f427 9fbd f407 8c3d 1853 f6bd
00000170: 42fd ff3b 812a fbbb 3101 2ebe 1d21 193c
00000180: 0cb1 b43d c6f0 f4bd 53ec b43c 4752 a6be
00000190: 2c31 8bbe f28f c5bd b9aa debd 1620 0a3e
000001a0: 623f 113e ae8d 42bd 06a5 d5bb c04c 523e
000001b0: 3216 dc3d e29f 3f3e 2292 b6bd be3b 9bbd
000001c0: c3a5 433e ac4c 6b3e df22 043e 1d5f aabe
000001d0: ff2b 6f3e e539 0b3d 72ee 5fbe 140f febd
000001e0: d12a 833e c7ab f03d 2468 65be f03b f7bd
000001f0: 2149 003e c3c2 d8bc 732b f73c 1d68 dd3b
00000200: 6eac cebd 8ce2 283e d668 f43c 4d93 90bc
00000210: 7767 90be dfd5 383d 959b 96be b6ce 52be
00000220: e258 293d 188d dabd d6ce aebc b970 8e3d
00000230: 8904 bd3d 119a f03c b2e5 933d 0f59 553d
00000240: 4576 103e 3349 4cbe 5763 0d3d f8fc 6bbd
00000250: e293 4dbe 3744 8bbd 04df 84bc 83aa 24bb
00000260: 543f f43e 1f34 433d c366 073d cbc5 1a3e
00000270: c093 2b3c 2d45 0abe f2d5 e13d af56 263c
00000280: 0aed c4be 624f cdbd 6490 48be a126 4ebe
00000290: 257f ac3d 5348 80be 0519 c53d 7de0 3abe
000002a0: d52e 123e e118 4dbe 4530 8d3e 1116 f9bd
000002b0: 43d6 463c 71dc debd a97c 32be d696 c83d
000002c0: b6da af3d 8e36 5f3e 2732 db3d d08a 05be
000002d0: d115 453e 3a36 c7bd d4da 43be f1d6 fc3c
000002e0: e019 d7bd 3f62 2dbe 362b b5bd 1480 923e
000002f0: 2746 ccbd 2345 633e fa70 84bd 8d0f 9e3d
00000300: f42e fabd 03b4 ddbb 771b 7a3e 6b1d 2f3e
00000310: a2f5 f3bb 672e debc 35fe ad3b a728 c03e
00000320: 235d b33b 6754 be3c 6abb 223e acbb d73e
00000330: b1ad 6d3e 2cb5 bbbd 8c7d 69be 0b6c 6ebe
00000340: e31d 133e 0c33 eb3d 9eb9 553e fb4b a4be
00000350: 77b2 a13c b64c ed3e b18d 183e 291f 68be
00000360: 6f9c 9a3d 6b0c 2fba d9da 0c3e ee65 31bc
00000370: fb25 94bd 1394 063e fa33 523c bb4c dabc
00000380: 6279 213d 8249 d13d 77d6 c83d 9346 20be
00000390: 2928 913d 3ef6 cb3c 682b 003e 2675 1a3c
000003a0: a7c5 2bbe 857a 1bbe 8c85 8a3d 172f 23be
000003b0: 5aab 95bd 5138 bdbd 7302 793e f764 9bbd
000003c0: 4ba7 f8bd acdd a03c 279a 5e3e 624c 60be
000003d0: 0bf8 a13e 722e 41bd a1dc b33c a0d7 123e
000003e0: 0739 e9bd 8f1a 38be d37c 12ba bf8a 0bbd
000003f0: 1e60 ad3d a5ce 1d3e 1042 cabd 5419 9ebc

decoder.layers.0.feed_forward.w_1.bias f4 [128]
-0.022720298 -0.065653086 -0.008017924 0.10519166 -0.0018194295 -0.04877356 0.09185354 -0.022261618
-0.021131486 -0.122144826 0.0445805 -0.0066077053 0.04996031 0.14935721 -0.29173115 -0.082853466
0.079409756 -0.0040636165 0.1467062 0.17802124 -0.08557356 -0.120900616 0.06528338 0.1173748
0.10350963 0.055924956 0.058596093 -0.10948024 0.027252158 0.026150506 -0.061325137 -0.041407935
-0.0373733 -0.09059369 -0.17261101 0.036291458 0.0800427 0.09738353 -0.036234036 -0.12614727
-0.21937639 0.15132463 -0.059499796 -0.15413359 0.065122396 0.2332149 -0.046546664 0.22337429
-0.07268827 0.05320561 0.09248429 0.049574897 0.057231367 -0.24887003 -0.021768346 0.021572132
-0.079690084 -0.049849454 0.16565105 -0.10213779 0.24293695 -0.15926541 -0.008506096 0.11858112
0.12618619 -0.15068488 -0.18393733 -0.032915648 -0.0006334129 0.0182115 0.2693847 -0.120566405
-0.16385096 0.113318 0.0854297 -0.17618442 0.087009735 -0.10398577 -0.14054167 0.09095412
-0.092931114 -0.06786628 -0.03748927 0.10791115 0.12687485 0.18220335 -0.34169352 -0.13853924
0.20625359 -0.13895889 -0.05043707 0.018250933 -0.40355262 -0.16980293 0.1600332 0.055996496
-0.045999132 0.037234508 0.039534334 0.051779438 0.05404412 0.078802206 0.16026755 0.13613
-0.03147918 0.0898543 -0.07856451 -0.23419106 0.2734288 -0.11887405 -0.19293302 -0.2888028
-0.20664875 0.022975419 0.004945549 -0.14718607 0.04496111 -0.15171237 0.05576705 0.1356502
-0.25576904 -0.17381628 0.050628487 -0.21287514 -0.012113744 -0.1514412 0.08829363 0.023919307
00000000: eb1f babc 2075 86bd 9c5d 03bc ba6e d73d
00000010: ec79 eeba c9c6 47bd b51d bc3d ff5d b6bc
00000020: f01b adbc 1127 fabd 0b9a 363d 7385 d8bb
00000030: 2fa3 4c3d 19f1 183e c95d 95be 14af a9bd
00000040: 95a1 a23d 1628 85bb 263a 163e 334b 363e
00000050: 3141 afbd be9a f7bd 4bb3 853d 3362 f03d
00000060: dbfc d33d 9111 653d 7502 703d 2d37 e0bd
00000070: eb3f df3c 9639 d63c 1130 7bbd 5e9b 29bd
00000080: bf14 19bd 2f89 b9bd f1c0 30be 5aa6 143d
00000090: 6ded a33d 0471 c73d 246a 14bd c02c 01be
000000a0: 34a4 60be d8f4 1a3e 0fb6 73bd 32d5 1dbe
000000b0: e45e 853d e3cf 6e3e b7a7 3ebd 3bbc 643e
000000c0: 96dd 94bd 20ee 593d 6768 bd3d 0c0f 4b3d
000000d0: 706b 6a3d c9d7 7ebe 8853 b2bc 0ab8 b03c
000000e0: 8e34 a3bd f12e 4cbd 6ea0 293e 9e2d d1bd
000000f0: 77c4 783e 7916 23be 275d 0bbc a9da f23d
00000100: f436 013e 234d 1abe 115a 3cbe 8fd2 06bd
00000110: 9f0b 26ba 4930 953c cbec 893e 85eb f6bd
00000120: 8cc8 27be 4513 e83d c4f5 ae3d b069 34be
00000130: 2932 b23d 7ef6 d4bd 28ea 0fbe 2746 ba3d
00000140: ab52 bebd 7afd 8abd 598e 19bd 8500 dd3d
00000150: 7beb 013e 8493 3a3e 74f2 aebe 3bdd 0dbe
00000160: 2434 533e 3d4b 0ebe 1a97 4ebd fb82 953c
00000170: 739e cebe d2e0 2dbe bedf 233e 955c 653d
00000180: 9669 3cbd 3683 183d c1ee 213d ad16 543d
00000190: 5e5d 5d3d 0d63 a13d 2d1d 243e aa65 0b3e
000001a0: 50f0 00bd 8805 b83d 6ee6 a0bd c8cf 6fbe
000001b0: dcfe 8b3e 3d74 f3bd 3c90 45be f6dd 93be
000001c0: bb9b 53be f236 bc3c 460e a23b f2b7 16be
000001d0: 2429 383d 7d5a 1bbe fd6b 643d e3e7 0a3e
000001e0: 29f4 82be e5fc 31be d15f 4f3d f1fb 59be
000001f0: ba78 46bc 6713 1bbe 4ad3 b43d 6cf2 c33c

decoder.layers.0.feed_forward.w_2.weight f4 [32, 128]
0.33887738 -0.07119973 -0.1504711 -0.2604228 -0.25932568 0.17475854 -0.12374249 -0.20719545
-0.025709288 -0.36642754 -0.15220943 -0.066334784 0.049149346 -0.028396977 -0.08109859 -0.13666506
0.21703535 -0.13513555 -0.043687396 -0.073684946 0.08691503 0.1879227 -0.14822556 0.031640973
0.36128035 0.10446802 -0.21470904 -0.07870342 0.24244593 0.20909965 0.33467844 -0.12242408
-0.14558282 -0.08133323 -0.082633026 -0.16507299 0.13814595 0.22223932 0.39331728 -0.28692928
0.3291559 0.0015243381 -0.17007671 -0.261533 -0.13416138 -0.11886992 0.033739105 -0.002731853
0.2821093 0.16121581 0.47214592 -0.024115058 -0.015756723 -0.046629872 -0.09321881 0.1335758
-0.08209637 -0.043950167 -0.21112864 0.026168091 0.14875023 0.13653557 -0.15313525 0.053231
-0.18501832 0.16745165 0.100372896 -0.1359086 0.042767577 0.10521339 0.37704962 -0.124647275
0.16775617 0.25220016 0.031989045 -0.18710409 0.11896026 0.12882012 -0.034883454 -0.14123127
-0.30901447 0.14967054 -0.10005822 -0.1181711 -0.09100552 -0.20694524 0.29201776 0.18995741
-0.0788951 -0.107631266 0.042178262 0.11091155 0.057675436 0.31613943 0.11524786 -0.12649725
0.39508605 -0.19830431 0.44871822 0.18598428 -0.2960586 -0.053917907 -0.049895644 -0.015365267
0.22029595 0.0807674 -0.07118677 -0.51987904 0.40189123 0.03590075 -0.21267602 0.0946533
-0.05168164 0.010082944 -0.17176436 0.11928034 0.12208783 -0.34887978 -0.05075919 0.040828742
-0.56640583 0.018349797 0.06366008 0.016808469 0.36073405 -0.08560116 0.11049231 0.17772624
-0.1030418 0.0755177 -0.054095555 0.0070865178 -0.24148192 0.075537845 -0.058345433 0.082606845
-0.0048614503 -0.42370507 -0.086853825 0.012903848 0.0617324 -0.059432503 0.19413288 -0.12116523
-0.51783645 -0.08022092 0.005483871 -0.17575845 -0.16321442 0.10799767 0.011890179 -0.07429474
-0.3372292 0.18987185 -0.05860495 0.17413783 0.12459094 0.011942585 -0.13006994 -0.12826918
0.49469408 0.061251637 -0.14384945 0.043205645 -0.23969112 -0.07196292 0.2922905 0.12549403
-0.06981806 0.10374512 -0.18795198 0.23304136 0.01314731 -0.05074229 -0.0968359 -0.075711176
-0.25762707 0.18927978 -0.1504711 0.025349658 0.124398455 0.17800488 0.12423569 -0.13453119
-0.17278728 -0.4557229 -0.07345644 -0.12853883 -0.20558293 -0.12537597 0.13526784 -0.22576259
0.107453644 0.010705268 0.21403296 -0.13121544 -0.007257515 0.055651482 0.019225057 -0.06328466
-0.19743994 0.0016093313 0.27647206 0.29845545 0.09955585 -0.055064194 0.020914368 -0.01086647
-0.13349849 0.04462999 -0.027249949 0.20988977 0.0908132 -0.10811823 -0.04055848 0.25835922
-0.018525666 0.19537841 0.10084465 0.043498203 0.19028142 0.027338054 0.04551174 -0.043252826
-0.25731632 -0.2751577 -0.46300313 0.21188726 -0.15109742 -0.16357589 0.07861626 0.024934277
0.1139306 -0.22060096 0.08195938 -0.32805938 0.023817526 0.029710103 0.16117625 0.16019869
-0.16215326 -0.06392053 -0.08607677 0.4771359 -0.010424624 0.0016671523 -0.039471485 0.12987673
0.009019065 -0.04356207 0.5155734 0.1490744 -0.2776471 -0.03245983 0.27002475 0.37183008
00000000: 5681 ad3e 2ad1 91bd 1915 1abe 2356 85be
00000010: 56c6 84be e7f3 323e b46c fdbd 0b2b 54be
00000020: 499c d2bc 649c bbbe cadc 1bbe 88da 87bd
00000030: d350 493d c7a0 e8bc 0417 a6bd edf1 0bbe
00000040: 843e 5e3e f960 0abe 8ef1 32bd 22e8 96bd
00000050: 8200 b23d cf6e 403e 71c8 17be f799 013d
00000060: bdf9 b83e 54f3 d53d b0dc 5bbe 422f a1bd
00000070: bf43 783e 381e 563e f95a ab3e 7ab9 fabd
00000080: aa13 15be 0992 a6bd 813b a9bd e508 29be
00000090: 2276 0d3e b492 633e e260 c93e 65e8 92be
000000a0: 1f87 a83e 4dcc c73a 9728 2ebe a7e7 85be
000000b0: 9a61 09be 1372 f3bd 0432 0a3d e308 33bb
000000c0: a170 903e c215 253e 1cbd f13e f18c c5bc
000000d0: 3e14 81bc f7fe 3ebd 81e9 bebd 18c8 083e
000000e0: 2422 a8bd 1705 34bd 1b32 58be 775e d63c
000000f0: fb51 183e fbcf 0b3e 7dcf 1cbe c008 5a3d
00000100: 7175 3dbe 7278 2b3e 4e90 cd3d a02b 0bbe
00000110: 0e2d 2f3d 1e7a d73d a60c c13e 1247 ffbd
00000120: 46c8 2b3e 6120 813e f206 033d 3798 3fbe
00000130: 70a1 f33d 6ce9 033e f4e1 0ebd ee9e 10be
00000140: 2537 9ebe 3c43 193e 53eb ccbd b103 f2bd
00000150: 1a61 babd 74e9 53be 5a83 953e 3284 423e
00000160: c193 a1bd c86d dcbd 1dc3 2c3d 9825 e33d
00000170: 143d 6c3d 07dd a13e 1207 ec3d 7f88 01be
00000180: b848 ca3e 4910 4bbe 65be e53e aa72 3e3e
00000190: fe94 97be 06d9 5cbd 605f 4cbd 9abe 7bbc
000001a0: 4395 613e 6169 a53d 5fca 91bd cb16 05bf
000001b0: b0c4 cd3e aa0c 133d bec7 59be 97d9 c13d
000001c0: 21b0 53bd ef32 253c ffe2 2fbe 4049 f43d
000001d0: 2f09 fa3d 5fa0 b2be dee8 4fbd 0a3c 273d
000001e0: f9ff 10bf 5052 963c 3760 823d eab1 893c
000001f0: 22b2 b83e a94f afbd cb49 e23d defd 353e
00000200: 9407 d3bd 06a9 9a3d 4d93 5dbd 0536 e83b
00000210: 0947 77be 96b3 9a3d 9ffb 6ebd c72d a93d
00000220: cd4c 9fbb dfef d8be 6be0 b1bd a96a 533c
00000230: 1ddb 7c3d 7f6f 73bd c5ca 463e 7a25 f8bd
00000240: ee90 04bf de4a a4bd 0bb2 b33b 06fa 33be
00000250: ae21 27be e22d dd3d 06cf 423c d727 98bd
00000260: 4ea9 acbe c46d 423e be0b 70bd 3051 323e
00000270: 8929 ff3d d5aa 433c 0e31 05be ff58 03be
00000280: 8b48 fd3e ffe2 7a3d 454d 13be 67f8 303d
00000290: 9771 75be 4c61 93bd 1aa7 953e 8281 003e
000002a0: c5fc 8ebd 5278 d43d 7c76 40be 65a2 6e3e
000002b0: d167 573c 26d7 4fbd e651 c6bd 760e 9bbd
000002c0: b2e7 83be 8fd2 413e 1915 1abe 16aa cf3c
000002d0: 9ec4 fe3d e946 363e 486f fe3d 8bc2 09be
000002e0: 26ef 30be 8354 e9be 5470 96bd af9f 03be
000002f0: 5584 52be 8f62 00be a783 0a3e 4f2e 67be
00000300: a810 dc3d 2665 2f3c 752b 5b3e 575d 06be
00000310: 73d0 edbb cff2 633d de7d 9d3c 639b 81bd
00000320: b22d 4abe 33f0 d23a bf8d 8d3e 27cf 983e
00000330: f0e3 cb3d fe8a 61bd 9c54 ab3c 4709 32bc
00000340: d4b3 08be f0cd 363d 493b dfbc 58ed 563e
00000350: 45fc b93d 176d ddbd a620 26bd a947 843e
00000360: 23c3 97bc 4711 483e a487 ce3d 2c2b 323d
00000370: 22d9 423e 0ef4 df3c 856a 3a3d e029 31bd
00000380: f7be 83be 78e1 8cbe bf0e edbe f9f8 583e
00000390: 48b9 1abe 7080 27be 9001 a13d f842 cc3c
000003a0: 7254 e93d 38e5 61be 52da a73d 66f7 a7be
000003b0: f91c c33c 9a62 f33c 630b 253e 200b 243e
000003c0: 810b 26be c4e8 82bd 0549 b0bd 284b f43e
000003d0: 0bcc 2abc 5984 da3a daac 21bd 68fe 043e
000003e0: b3c4 133c 246e 32bd 9efc 033f f6a6 183e
000003f0: c327 8ebe 99f4 04bd af40 8a3e 8360 be3e
