saved_models/BCH_n31_k16__Ndec2_d32_h8/stage2_qat__BCH_n31_k16__Ndec2_d32_h8__e2000_loss0.027864.pth (torch, 156358 bytes, 42 tensors)

src_embed f4 [46, 24]
-0.24823965 -0.3707195 0.2424162 0.24811071 0.9436368 0.5358817 -0.3657845 -0.56199324
0.15203999 0.3719945 -0.94362885 -0.2944648 -0.61953294 -0.61246157 0.92599994 0.0574929
-0.0013460168 0.18266308 -0.27872324 0.64828455 -0.24061538 -0.94357437 0.22250694 0.6319002
0.12294623 0.0114213135 -0.0031846291 -0.106572434 0.9334578 -0.12671034 -0.60446525 -0.93351406
0.4643581 0.6511708 -0.6573964 -0.6973598 -0.9334947 -0.65293735 0.7943108 0.36746496
-0.13692893 0.06350427 -0.7612807 0.80929214 -0.34757793 -0.5159988 0.15890752 0.8820392
0.18186253 -0.08591347 -0.018160587 -0.05698814 0.91233957 -0.2573228 -0.75935066 -0.89922357
0.3535293 0.6372222 -0.84780234 -0.67285633 -0.9122278 -0.91232395 0.83924854 0.43053627
-0.115952194 0.18067181 -0.7854494 0.75379634 -0.39952546 -0.49350947 0.17070393 0.76980394
0.40125996 -0.8992962 -0.3716572 -0.07099967 0.8972639 -0.30554765 0.4228968 -0.7922192
-0.4757401 0.9538902 0.28634945 0.13534722 0.8233444 -0.95319116 0.9538777 0.9538433
-0.5568464 0.29241014 -0.7544796 -0.46213922 0.039063208 0.22706226 -0.9497656 -0.066225946
0.65572 -0.65375197 -0.0027508063 -0.01662262 0.46953917 0.010660547 0.67708313 -0.06630956
0.15082833 0.061819118 -0.56288064 -0.043763276 0.04238421 -0.5037666 0.8026841 0.11206538
-0.29913536 0.09925755 -0.4562956 0.4878089 0.19829604 -0.81868243 0.30674154 0.4143585
0.17180021 -0.3684883 0.49613506 0.03823714 0.6331819 -0.16811453 -0.04041715 0.13509986
-0.19338894 -0.049262647 -0.21605994 0.38725358 0.39416948 -0.070105225 0.37489972 0.5818339
-0.23684725 0.1461153 -0.010800515 0.29808986 0.28024372 -0.6273503 -0.42474502 0.021066992
0.026204376 -0.43207523 0.3675193 -0.018361272 0.36757493 -0.22677945 0.12483104 -0.0046043564
-0.34843934 -0.23778312 -0.39099082 0.5349392 0.35447285 -0.12068216 0.18425219 0.3958736
-0.26797426 -0.0038784335 -0.15262966 0.08881117 0.23631836 -0.6276142 -0.5113418 -0.141806
-0.10524785 -0.41649926 0.39315784 -0.0568329 0.15376492 -0.25062624 0.17687666 -0.096916065
-0.42501295 -0.24147658 -0.4009862 0.36916262 0.21211903 -0.018526476 0.10968556 0.380161
-0.1660707 -0.08713161 -0.1483955 0.008553803 0.3025551 -0.6332669 -0.46126592 -0.16979772
-0.082316875 -0.40689406 0.4263022 -0.068867356 0.12325951 -0.33266565 0.217761 -0.14082305
-0.3585785 -0.21839024 -0.3321791 0.27838397 0.20857675 0.009387553 0.18196976 0.29480264
-0.12064361 -0.0012316693 -0.1552794 -0.0031234445 0.44768292 -0.58878285 -0.432649 -0.1003725
-0.09277007 -0.38012466 0.4112691 -0.10688111 0.09915622 -0.47489417 0.25342602 -0.20128484
-0.3226479 -0.1837607 -0.21677408 0.20960386 0.22571155 0.07874631 0.23011719 0.3132056
-0.13464537 -0.082591176 -0.06310206 0.035041895 0.5025879 -0.64344597 -0.48623234 -0.13559851
-0.08853107 -0.39505383 0.4292665 -0.12193736 0.09079701 -0.5502064 0.30043247 -0.20814422
-0.32874513 -0.1885603 -0.1567224 0.23956679 0.18232778 0.13768363 0.25175235 0.34382772
00000000: 8932 7ebe f2ce bdbe f43b 783e bc10 7e3e
00000010: 2e92 713f 8b2f 093f 1b48 bbbe cade 0fbf
00000020: 5fb0 1b3e 1076 be3e a991 71bf 17c4 96be
00000030: b699 1ebf 48ca 1cbf 550e 6d3f ad7d 6b3d
00000040: d46c b0ba 080c 3b3e d0b4 8ebe faf5 253f
00000050: e163 76be 178e 71bf dcd8 633e 36c4 213f
00000060: 3ccb fb3d 7620 3b3c 36b5 50bb a642 dabd
00000070: 17f7 6e3f 5bc0 01be 3cbe 1abf c7fa 6ebf
00000080: 58c0 ed3e 21b3 263f 214b 28bf 2c86 32bf
00000090: 82f9 6ebf e726 27bf f457 4b3f 5e24 bc3e
000000a0: 1937 0cbe 870e 823d 4be3 42bf c52d 4f3f
000000b0: bcf5 b1be 7f18 04bf a7b8 223e 52cd 613f
000000c0: 2c3a 3a3e 67f3 afbd 83c5 94bc 656c 69bd
000000d0: 168f 693f d0bf 83be ce64 42bf 8433 66bf
000000e0: cb01 b53e fe20 233f 9309 59bf 5040 2cbf
000000f0: c387 69bf 108e 69bf fed8 563f 406f dc3e
00000100: 5878 edbd 0802 393e 3613 49bf ccf8 403f
00000110: 9a8e ccbe 46ad fcbe 03cd 2e3e df11 453f
00000120: f271 cd3e 4738 66bf da49 bebe 4668 91bd
00000130: 16b3 653f be70 9cbe ee85 d83e e1ce 4abf
00000140: 3594 f3be 2632 743f 659c 923e 7698 0a3e
00000150: b3c6 523f 5604 74bf 5431 743f 132f 743f
00000160: 7c8d 0ebf c8b6 953e 9325 41bf 839d ecbe
00000170: be00 203d 0283 683e d723 73bf 78a1 87bd
00000180: 44dd 273f 4a5c 27bf df46 34bb 292c 88bc
00000190: 7067 f03e 93a9 2e3c 5255 2d3f 4ecd 87bd
000001a0: be72 1a3e 0b36 7d3d f218 10bf 1f41 33bd
000001b0: 119b 2d3d d9f6 00bf b57c 4d3f 8982 e53d
000001c0: 4528 99be 8b47 cb3d 949f e9be 17c2 f93e
000001d0: 1e0e 4b3e 2c95 51bf 3a0d 9d3e cc26 d43e
000001e0: 65ec 2f3e 80aa bcbe 6a05 fe3e 8c9e 1c3d
000001f0: 3618 223f 3726 2cbe 748c 25bd 9e57 0a3e
00000200: c007 46be a1c7 49bd d13e 5dbe 1a46 c63e
00000210: 95d0 c93e 5493 8fbd dbf2 bf3e 11f3 143f
00000220: 1688 72be 409f 153e a5f4 30bc 3c9f 983e
00000230: 1b7c 8f3e 079a 20bf 2e78 d9be af94 ac3c
00000240: 8faa d63c f738 ddbe 7d2b bc3e 616a 96bc
00000250: c832 bc3e df38 68be 6ba7 ff3d 24e0 96bb
00000260: a466 b2be 6b7d 73be f32f c8be c7f1 083f
00000270: 777d b53e 3528 f7bd 9bac 3c3e f2af ca3e
00000280: ec33 89be 512d 7ebb f34a 1cbe a1e2 b53d
00000290: 71fd 713e 53ab 20bf 4ce7 02bf 9835 11be
000002a0: 2f8c d7bd 643f d5be fc4b c93e 9dc9 68bd
000002b0: 8d74 1d3e 1552 80be 281f 353e ee7b c6bd
000002c0: 4c9b d9be a345 77be 104e cdbe e202 bd3e
000002d0: bb35 593e d6c4 97bc d3a2 e03d 76a4 c23e
000002e0: 700e 2abe 0f72 b2bd fdf4 17be 4025 0c3c
000002f0: 81e8 9a3e c81d 22bf 0c2b ecbe 74df 2dbe
00000300: c095 a8bd 6b54 d0be 4844 da3e 540a 8dbd
00000310: 7b6f fc3d 2753 aabe bdfc 5e3e eb33 10be
00000320: 9a97 b7be b1a1 5fbe 6113 aabe 5888 8e3e
00000330: 2595 553e 40ce 193c 4856 3a3e 5ff0 963e
00000340: ff13 f7bd f76f a1ba 9001 1fbe b4b2 4cbb
00000350: b236 e53e 79ba 16bf 2b84 ddbe 1990 cdbd
00000360: 3cfe bdbd b39f c2be dd91 d23e 7ce4 dabd
00000370: 6b12 cb3d 5425 f3be 0ec1 813e 9d1d 4ebe
00000380: 1b32 a5be c42b 3cbe 06fa 5dbe 65a2 563e
00000390: ee20 673e bf45 a13d d7a3 6b3e 7c5c a03e
000003a0: 7ae0 09be 9025 a9bd a73b 81bd 1788 0f3d
000003b0: 9aa9 003f e0b8 24bf 72f3 f8be 56da 0abe
000003c0: c74f b5bd 7f44 cabe d2c8 db3e 4bba f9bd
000003d0: c8f3 b93d 54da 0cbf 49d2 993e c223 55be
000003e0: 4851 a8be f415 41be d67b 20be ff50 753e
000003f0: 22b4 3a3e f0fc 0c3e afe5 803e 300a b03e

decoder.layers.0.self_attn.linears.0.weight f4 [32, 32]
-0.46734044 0.2950976 0.22967753 -0.246934 -0.5314505 0.24863642 0.34502202 -0.14347218
-0.59876984 -0.56635684 -0.18155387 0.13880992 -0.124106914 0.53062487 -0.5314516 -0.12990613
0.5889395 -0.42883164 0.19846146 0.4285721 0.38279852 -0.1387163 -0.0201286 0.5293616
0.08348425 0.14469856 0.44206548 -0.281036 0.062468987 -0.44783458 -0.23930892 -0.23026162
0.1256392 0.047352668 0.21673177 0.25747722 -0.13882908 -0.5633922 0.10336852 -0.33111167
0.22744745 0.052528113 -0.13869122 -0.010617104 0.017988877 0.2271192 0.19269377 0.20635499
0.49180686 0.012421612 -0.53257275 -0.25799873 0.26766708 0.13865803 0.029347189 -0.12932655
0.056419875 0.18078119 0.4170184 0.092817426 -0.4995252 -0.20725173 -0.48564792 -0.5270824
-0.14678839 -0.4283787 -0.2509125 0.45477062 0.53225076 -0.38683927 -0.13866349 -0.14781816
0.0216891 0.03673967 0.12624842 -0.121555604 0.059656706 0.4176847 0.13588382 -0.31119424
0.11490437 0.279686 -0.4102447 -0.16139787 -0.4578389 0.31811547 0.4802022 -0.550176
-0.122803666 -0.37764814 -0.2924272 0.1058534 0.51450175 0.446921 0.21188018 0.2671024
-0.13868919 -0.19994663 0.16510303 0.025666308 -0.12982146 0.43354988 -0.36789963 -0.20513992
-0.25898412 -0.04886781 0.1294025 -0.13630325 -0.22217134 0.13872239 -0.1386449 0.087182716
-0.21238717 0.21386607 -0.5728716 0.17744492 -0.31067514 -0.112412244 0.023579355 -0.27622238
0.43578202 0.43339902 0.44176346 0.18720722 -0.5274997 -0.38654977 -0.24590714 -0.294447
-0.03125529 0.27126026 -0.149516 0.512747 -0.9727882 0.27152917 0.002016236 -0.13836975
-0.1803222 -0.26019502 -0.103747375 0.5303548 0.0194947 -0.43314588 -0.6217152 0.2324441
-0.22886652 -0.21019186 0.50507176 0.13391896 -0.017527297 -0.62604034 -0.13915482 0.83289284
0.12839845 0.512197 0.40606934 -0.06660748 -0.42245036 -0.51637983 -0.31394905 -0.50726074
-0.44835165 -0.09921155 -0.13460633 -0.081300125 0.035690192 0.009903834 -0.29557672 -0.054738436
-0.1387511 -0.41421416 0.0069453316 0.40609577 0.24223731 0.12645462 0.28023198 -0.13882037
-0.53048056 0.41156292 0.072268 -0.3567884 0.050127923 0.09004856 0.35337326 -0.13818863
0.47487336 0.47789043 0.33918574 0.53189224 -0.070194684 -0.35581914 -0.46753493 -0.2425164
-0.012928134 0.49125448 0.017968522 0.043037083 -0.16121133 0.17224239 -0.29354575 0.4585123
0.18900378 0.029933684 0.14046931 -0.41190645 -0.14112842 -0.13859852 -0.29953146 -0.52951264
0.20913896 0.17599031 0.51422906 -0.3039145 -0.20601688 -0.10572723 -0.3474313 0.008299805
-0.13396202 -0.39328152 -0.5939738 -0.5307949 0.3126949 0.21459055 0.13637862 0.18707408
0.14566396 -0.00577227 0.28012988 -0.43215573 -0.11148305 -0.11158981 0.29908174 -0.1203145
0.31089953 -0.0022164243 -0.5129881 0.0056668874 -0.1409537 -0.4250037 0.20541625 0.53198725
-0.04529042 -0.26717743 -0.527317 0.5314865 -0.13851345 -0.20891252 -0.22524819 -0.053276688
0.34374067 0.47695073 0.43354028 -0.17267312 -0.4677906 -0.4651128 -0.47505328 -0.43109602
00000000: 3f47 efbe 0817 973e 9630 6b3e 44dc 7cbe
00000010: 240d 08bf 8c9a 7e3e baa6 b03e 5fea 12be
00000020: fb48 19bf c3fc 10bf 42e9 39be 3024 0e3e
00000030: c42b febd 08d7 073f 360d 08bf 1d06 05be
00000040: bdc4 163f d28f dbbe 7b39 4b3e cd6d db3e
00000050: 2bfe c33e a50b 0ebe bce4 a4bc 3e84 073f
00000060: caf9 aa3d dc2b 143e 6856 e23e f3e3 8fbe
00000070: 7bdf 7f3d 934a e5be 660d 75be b4c9 6bbe
00000080: 90a7 003e dff4 413d efee 5d3e 0ed4 833e
00000090: 3629 0ebe 793a 10bf e0b2 d33d 7887 a9be
000000a0: fce7 683e b827 573d 1205 0ebe 5df3 2dbc
000000b0: 695d 933c f091 683e 8451 453e b94e 533e
000000c0: 1cce fb3e 0484 4b3c b056 08bf 6918 84be
000000d0: a90b 893e 5ffc 0d3e 8469 f03c 2e6e 04be
000000e0: 8718 673d b41e 393e 7083 d53e 1017 be3d
000000f0: c4c1 ffbe cc39 54be d8a6 f8be dfee 06bf
00000100: b24f 16be 7454 dbbe 9a77 80be b2d7 e83e
00000110: 9641 083f cc0f c6be cdfd 0dbe a55d 17be
00000120: 57ad b13c 567c 163d 4447 013e 25f2 f8bd
00000130: 975a 743d c5da d53e 2125 0b3e da54 9fbe
00000140: fb52 eb3d 0133 8f3e 980b d2be 7c45 25be
00000150: dc69 eabe 08e0 a23e 10dd f53e 56d8 0cbf
00000160: 7d80 fbbd 195b c1be 05b9 95be abc9 d83d
00000170: 63b6 033f d4d2 e43e 1ef7 583e a5c1 883e
00000180: 8a04 0ebe cfbe 4cbe c510 293e 2642 d23c
00000190: ebef 04be 40fa dd3e 575d bcbe 3310 52be
000001a0: 9199 84be 9d29 48bd 1782 043e 1493 0bbe
000001b0: e280 63be 3e0d 0e3e eef8 0dbe da8c b23d
000001c0: 067c 59be b5ff 5a3e b7a7 12bf 1fb4 353e
000001d0: d010 9fbe 6438 e6bd 7e29 c13c 056d 8dbe
000001e0: d21e df3e 7ae6 dd3e d22e e23e 40b3 3f3e
000001f0: 380a 07bf dae9 c5be 15cf 7bbe c2c1 96be
00000200: 8c05 00bd a0e2 8a3e b91a 19be 6343 033f
00000210: a608 79bf df05 8b3e d422 043b cdb0 0dbe
00000220: 62a6 38be 4838 85be 8179 d4bd 55c5 073f
00000230: 59b3 9f3c 4cc5 ddbe ba28 1fbf d305 6e3e
00000240: fc5b 6abe 893c 57be 624c 013f 0d22 093e
00000250: 6895 8fbc 2e44 20bf 9a7e 0ebe 7738 553f
00000260: e27a 033e 581f 033f 52e8 cf3e 8169 88bd
00000270: 6a4b d8be 7831 04bf eebd a0be d7db 01bf
00000280: 598e e5be 6d2f cbbd 3ed6 09be ae80 a6bd
00000290: e12f 123d b143 223c d555 97be 6935 60bd
000002a0: c514 0ebe e113 d4be aa95 e33b c9eb cf3e
000002b0: 0f0d 783e 527d 013e 917a 8f3e ed26 0ebe
000002c0: 93cd 07bf 60b8 d23e 3f01 943d f8ac b6be
000002d0: f052 4d3d 616b b83d 57ed b43e 5281 0dbe
000002e0: 9a22 f33e 0eae f43e c1a9 ad3e 172a 083f
000002f0: 3bc2 8fbd ed2d b6be bd60 efbe 3856 78be
00000300: 86d0 53bc b585 fb3e b932 933c a747 303d
00000310: 9514 25be 4f60 303e a14b 96be 20c2 ea3e
00000320: 358a 413e 7c37 f53c 30d7 0f3e 67e5 d2be
00000330: f883 10be c5ec 0dbe 305c 99be 248e 07bf
00000340: 8628 563e ce36 343e 84a4 033f ae9a 9bbe
00000350: 17f6 52be 8587 d8bd 84e2 b1be e8fb 073c
00000360: 572d 09be 325c c9be ab0e 18bf 2de2 07bf
00000370: 8c19 a03e a0bd 5b3e d6a6 0b3e 5990 3f3e
00000380: ef28 153e 4f25 bdbb 2f6d 8f3e 8443 ddbe
00000390: 3a51 e4bd 3389 e4bd 3e21 993e 7367 f6bd
000003a0: 392e 9f3e 6e41 11bb 3053 03bf 4cb1 b93b
000003b0: 2b56 10be 169a d9be a358 523e 5130 083f
000003c0: 7382 39bd 7bcb 88be 3ffe 06bf 800f 083f
000003d0: 78d6 0dbe 2aed 55be 76a7 66be a838 5abd
000003e0: c7fe af3e e332 f43e fef8 dd3e 39d1 30be
000003f0: 4082 efbe 4423 eebe 2f3a f3be 9eb8 dcbe

decoder.layers.0.self_attn.linears.0.bias f4 [32]
-0.14744112 -0.35720587 0.3999982 -0.5039576 -0.3828552 -0.66179866 0.31635663 -0.64265096
0.72313094 -0.4039138 0.5593913 -0.39210513 -0.44581994 0.36450803 -0.5653229 0.27023688
-0.22873296 -0.16788772 0.3035537 -0.22132325 0.3506967 0.10557926 -0.5235982 -0.23066857
-0.47995758 -0.71614033 1.0337942 0.8172458 0.7507317 -0.6245619 -1.0635742 -0.6017544
00000000: cefa 16be b0e3 b6be 90cc cc3e 5e03 01bf
00000010: 9905 c4be a36b 29bf 7ff9 a13e c684 24bf
00000020: 1c1f 393f cacd cebe 4534 0f3f 01c2 c8be
00000030: 8342 e4be cca0 ba3e 00b9 10bf 7d5c 8a3e
00000040: f938 6abe c2ea 2bbe 646b 9b3e 90a2 62be
00000050: 858e b33e f039 d83d 880a 06bf 6234 6cbe
00000060: 00bd f5be f954 37bf 5e53 843f 0537 513f
00000070: f42f 403f 4ae3 1fbf 3323 88bf 940c 1abf

decoder.layers.0.self_attn.linears.1.weight f4 [32, 32]
-0.035058703 0.15158683 0.0324394 0.024607219 0.2191909 -0.14986883 0.24907196 -0.1498845
0.23743522 0.41281572 0.04462652 0.08173559 0.07863871 -0.09676908 0.124751695 0.033566207
-0.4551353 -0.15005027 -0.44656685 0.15747052 -0.008818199 -0.44512662 -0.45393082 0.14709832
-0.50923127 0.9698316 1.0101085 0.82278585 0.37147242 -0.71008426 -0.37387845 -0.2820267
-0.16529548 -0.45605242 0.36490855 -0.0611515 0.148077 -0.0042282036 0.13933855 0.3192672
-0.17255102 0.14986679 -0.5169991 -0.14985195 0.026197579 -0.068328746 0.45587888 0.19538605
-0.45751694 -0.3497241 -0.45591125 -0.059568666 0.43235883 -0.40204576 -0.23637429 0.20847027
0.17048344 -0.036032867 0.57268244 0.2118755 -0.00050923915 -0.49163684 0.07711489 0.44517037
0.22454655 -0.15457298 -0.2709831 -0.22471356 0.20611581 0.07459052 -0.14986674 0.2053663
-0.041387916 -0.33138445 0.35830846 -0.25015706 0.38376468 -0.1724476 -0.15281497 -0.09353979
0.45600513 0.45730376 0.45614684 0.11308963 -0.1582491 0.5752312 0.45737082 -0.47981092
-0.45740753 -0.68061566 0.4575002 -0.3254021 -0.45821813 -0.14128222 -0.3841106 -0.192451
-0.17620943 -0.45588607 0.45748574 -0.062404204 0.017152835 -0.2326347 -0.10621976 0.27888963
0.1498549 0.23315695 -0.45584854 0.33742508 -0.18898295 0.05822312 0.45255828 0.39296687
-0.45740238 -0.1498321 -0.45836622 0.35616684 0.4224288 -0.38528875 -0.45486102 0.15479667
0.23671533 0.45615453 -0.17515516 -0.25800657 0.24161874 0.24846353 0.5112798 0.66147935
-0.3122688 -0.09774398 -0.1497915 -0.2565612 -0.21609598 0.45594224 -0.3625414 0.13844386
0.056175996 0.45722783 -0.45740807 0.24868369 -0.06369517 0.40846127 0.114652835 0.15391868
-0.45806488 -0.16560836 -0.45718625 0.24677661 0.36085978 -0.47077262 -0.45609242 0.4580404
-0.09267707 1.3653475 0.8941771 0.43412235 0.4574121 -0.8539371 -0.0045807413 -0.1912294
0.225958 -0.29184985 0.018605614 -0.40624738 -0.04133495 -0.353274 -0.15799592 -0.08246675
0.19283068 -0.08103534 -0.4576694 -0.36881527 -0.03674832 0.45744777 0.37528598 0.23578435
-0.35589567 -0.096042894 -0.508851 0.09995874 0.45042694 -0.4556843 -0.45595276 -0.45727375
-0.013082913 -0.15826584 0.45787793 -0.4212302 0.35660234 -0.19218445 -0.2542625 0.16195445
-0.07624694 0.4288809 -0.39625448 0.45774353 -0.1683161 0.048015054 -0.15468258 -0.14984868
0.36882386 -0.40926954 0.45766693 -0.14985244 0.14984314 -0.17688988 -0.45822653 -0.40427086
0.15401617 -0.14982763 0.45775488 -0.11901994 -0.4562008 0.51169777 0.15206811 -0.14985853
-0.29086047 0.1296298 -0.57569814 0.30076346 -0.0032333776 0.56500816 0.45611614 -0.14561291
-0.37823585 -0.11590491 0.37777707 -0.3721919 -0.13504744 0.031352807 0.1742046 -0.34961557
-0.2512571 0.13197452 -0.4558597 0.054222133 -0.45590612 0.01194981 0.43066397 0.1500509
-0.45738107 -0.4574389 -0.5361211 -0.10762658 0.29546928 -0.4547458 -0.40697494 0.14991619
0.3891306 -0.4558436 0.83669555 -0.14993654 -0.21583514 -0.48671228 -0.55877006 0.2896175
00000000: b799 0fbd 9439 1b3e 2ddf 043d 1495 c93c
00000010: 9473 603e 3777 19be b80c 7f3e 537b 19be
00000020: 3822 733e 955c d33e 4cca 363d fd64 a73d
00000030: 550d a13d de2e c6bd d17d ff3d b87c 093d
00000040: 7e07 e9be c7a6 19be 69a4 e4be f43f 213e
00000050: 357a 10bc a3e7 e3be 9f69 e8be f1a0 163e
00000060: fb5c 02bf e246 783f 3c4b 813f 18a2 523f
00000070: a231 be3e 15c8 35bf ff6c bfbe ce65 90be
00000080: 3843 29be b47f e9be 4bd5 ba3e ff79 7abd
00000090: 7fa1 173e be8c 8abb c4ae 0e3e fe76 a33e
000000a0: 37b1 30be ae76 193e 0e5a 04bf ca72 19be
000000b0: 4e9c d63c f1ef 8bbd f568 e93e 4813 483e
000000c0: a93f eabe 0a0f b3be 336d e9be 46fe 73bd
000000d0: 235e dd3e f1d8 cdbe 1a0c 72be 3b79 553e
000000e0: 3693 2e3e 3397 13bd 519b 123f e4f5 583e
000000f0: 767e 05ba d3b7 fbbe 69ee 9d3d 5fed e33e
00000100: 88ef 653e 6148 1ebe 4cbe 8abe 501b 66be
00000110: 0610 533e eac2 983d ab76 19be 8b4b 523e
00000120: 6086 29bd 39ab a9be 3574 b73e 9614 80be
00000130: ce7c c43e 1b96 30be 877b 1cbe ca91 bfbd
00000140: 8179 e93e b823 ea3e 148c e93e 899b e73d
00000150: 0d0c 22be 5a42 133f 822c ea3e c7a9 f5be
00000160: 5231 eabe d43c 2ebf 773d ea3e 1b9b a6be
00000170: 919b eabe 49ac 10be 25aa c4be e011 45be
00000180: 3f70 34be e669 e9be 923b ea3e 8d9b 7fbd
00000190: 1a84 8c3c ca37 6ebe bf89 d9bd 9fca 8e3e
000001a0: 9073 193e b2c0 6e3e fb64 e9be fbc2 ac3e
000001b0: bf84 41be 5e7b 6e3d b8b5 e73e f432 c93e
000001c0: a530 eabe 966d 19be faae eabe 805b b63e
000001d0: 9648 d83e 9144 c5be 8be3 e8be 0583 1e3e
000001e0: 8165 723e 168d e93e e05b 33be 7019 84be
000001f0: e76a 773e 396d 7e3e 3ce3 023f b656 293f
00000200: b2e1 9fbe ff2d c8bd f162 19be fd5b 83be
00000210: 4448 5dbe 4371 e93e 079f b9be 3ac4 0d3e
00000220: cd18 663d c419 ea3e 6431 eabe f0a6 7e3e
00000230: 9d72 82bd d621 d13e 1bcf ea3d dc9c 1d3e
00000240: 7b87 eabe 3d95 29be 5114 eabe 02b3 7c3e
00000250: 9dc2 b83e 1c09 f1be f284 e9be 4584 ea3e
00000260: 7acd bdbd b5c3 ae3f cae8 643f 4945 de3e
00000270: eb31 ea3e 9f9b 5abf 0b1a 96bb a4d1 43be
00000280: 8961 673e 586d 95be cd6a 983c a8ff cfbe
00000290: d64e 29bd 54e0 b4be afc9 21be 54e4 a8bd
000002a0: 6875 453e dbf5 a5bd a553 eabe 5bd5 bcbe
000002b0: 6885 16bd 9836 ea3e 7c25 c03e 7471 713e
000002c0: f537 b6be 23b2 c4bd 0f44 02bf 2bb7 cc3d
000002d0: 5c9e e63e 744f e9be a472 e9be c91f eabe
000002e0: b759 56bc 7110 22be fa6e ea3e 7cab d7be
000002f0: 9594 b63e 00cc 44be b22e 82be 63d7 253e
00000300: 5b27 9cbd 4796 db3e dee1 cabe 5c5d ea3e
00000310: 0e5b 2cbe 6fab 443d 1c65 1ebe ef71 19be
00000320: 7bd6 bc3e c78b d1be 5253 ea3e eb72 19be
00000330: 7b70 193e 9f22 35be ab9c eabe 97fc cebe
00000340: 6ab6 1d3e 6a6c 19be d95e ea3e bac0 f3bd
00000350: 2793 e9be a0fe 023f beb7 1b3e 8474 19be
00000360: aaeb 94be adbd 043e f460 13bf abfd 993e
00000370: 13e7 53bb 60a4 103f 0e88 e93e 8d1b 15be
00000380: 21a8 c1be 8e5f edbd ff6b c13e f08f bebe
00000390: e049 0abe cd6b 003d b162 323e d000 b3be
000003a0: c5a4 80be 5424 073e 7166 e9be 0718 5e3d
000003b0: 876c e9be 23c9 433c fd7f dc3e f1a6 193e
000003c0: da2d eabe 6e35 eabe 3b3f 09bf 536b dcbd
000003d0: c047 973e 71d4 e8be 055f d0be a183 193e
000003e0: 203c c73e 5564 e9be ae31 563f f788 19be
000003f0: e303 5dbe 5a32 f9be 8e0b 0fbf bf48 943e

decoder.layers.0.self_attn.linears.1.bias f4 [32]
0.099470355 -0.024092799 0.07226162 -0.10241035 0.03195777 -0.10319233 0.08226725 -0.074781656
-0.018652758 -0.16258252 0.011224653 0.157655 0.093958765 -0.10162376 0.01188496 -0.024258522
-0.14223817 0.13868879 0.0024442677 0.036810055 -0.072308384 -0.08177674 0.029895242 0.06482074
0.04606467 -0.09246857 0.17901684 -0.01889708 -0.10604712 -0.08134366 0.17204104 -0.0025541163
00000000: 1db7 cb3d 435e c5bc e6fd 933d 85bc d1bd
00000010: 27e6 023d 8056 d3bd bb7b a83d 2027 99bd
00000020: abcd 98bc 087c 26be 9be7 373c 5070 213e
00000030: 746d c03d 1e20 d0bd 23b9 423c cfb9 c6bc
00000040: e2a6 11be 6f04 0e3e 0230 203b 24c6 163d
00000050: 6b16 94bd 907a a7bd dee6 f43c bcc0 843d
00000060: 4fae 3c3d 2960 bdbd 3150 373e 0dce 9abc
00000070: 3c2f d9bd 8197 a6bd 872b 303e f662 27bb

decoder.layers.0.self_attn.linears.2.weight f4 [32, 32]
-0.2580209 -0.29612452 0.2569962 -0.25815007 0.25719082 -0.40502223 0.2817971 -0.43324488
-0.3128939 -0.2561229 -0.2562 0.25621405 0.2583044 0.07415023 0.34314862 0.25706977
0.2577415 -0.074153095 -0.23644146 0.4351609 0.2570315 -0.25635162 -0.24331637 0.07416842
0.24868454 0.07420402 0.25730845 0.1110245 0.19155525 -0.040443078 -0.31936252 0.042477094
0.2564564 0.28410074 0.25779676 -0.28064427 0.061506867 -0.31288427 -0.25598705 -0.21010005
0.07414175 -0.2889333 -0.25761947 -0.24844842 -0.29758924 0.20221929 0.07413993 0.34734783
-0.47618765 -0.22430182 -0.39602676 0.25701112 0.25806335 -0.672652 -0.07414462 0.25637406
0.25841114 -0.19088635 0.06551406 -0.2411993 -0.07413071 -0.25636607 0.14123411 0.14501773
0.28287116 0.040933322 -0.23429975 0.12045352 0.24534455 0.074146226 0.074145816 -0.3692845
-0.38072598 -0.24580842 0.36163342 0.23086636 0.23572145 0.2572138 0.4460406 0.310015
-0.2647593 0.28088185 -0.34838453 0.062027246 -0.22774138 -0.39482313 0.2575647 0.29920688
0.25798005 -0.10348169 0.2561315 0.24896273 0.07254403 -0.2580369 0.124893345 -0.14199923
0.28136453 -0.25654605 0.23802271 -0.3392862 -0.0742951 -0.27534866 0.25680658 -0.08622412
0.28323168 -0.3477462 0.25765628 -0.25725463 -0.2579431 -0.25840175 0.07416681 0.25615507
0.3139548 -0.074231155 -0.09578162 0.31108359 0.25669953 0.34136102 0.35503882 -0.18989706
-0.049945585 -0.08219678 0.01638072 0.074136525 0.19688548 0.2119301 -0.07416332 -0.07998197
0.2566191 0.5325636 -0.14900298 -0.39666587 -0.26270196 0.23434399 -0.247393 0.25720617
-0.3722356 0.074141525 0.24133377 -0.42893118 0.56977683 -0.0030209613 -0.2575443 -0.6839551
0.25825652 0.23698899 0.3565143 -0.25646314 -0.25800472 0.50229216 0.25721398 0.22277372
-0.25645554 0.2247377 0.013473818 0.2665811 0.053792953 -0.10889054 0.25782117 -0.05164165
0.25684687 0.4769207 -0.25606176 0.4581299 -0.51458764 0.45100528 -0.39850143 0.40269396
-0.074143745 0.28929925 0.25648624 0.25696003 -0.07414156 0.22477661 -0.23509999 -0.56105965
-0.25784445 -0.07447987 0.41464534 -0.2560874 -0.51593876 0.3529467 -0.3253109 -0.29664826
0.28894943 0.22459278 -0.006501858 -0.24835813 0.2671165 0.02093938 0.18414336 0.25603226
-0.3562286 0.07414362 0.2568066 -0.24629672 -0.2573347 0.36253694 0.2576391 0.25797397
0.29492557 0.27333042 -0.07414038 -0.26866785 -0.2566963 -0.2567694 -0.2468403 -0.07413306
0.3785175 -0.07350158 0.07421436 -0.24468414 -0.07414696 0.38046622 0.25666687 -0.25803658
-0.2562997 -0.06737807 0.25840065 -0.2586389 -0.14514552 -0.1001821 -0.065027036 0.10159027
-0.07414242 0.2345849 -0.2487758 0.25675362 -0.24506755 -0.26306346 -0.2576853 0.35800317
0.26139095 0.24496166 -0.36345327 -0.23186517 0.36619824 0.2567516 0.17584972 -0.2571624
0.07413788 -0.26582688 -0.2412707 -0.25744647 0.25993422 0.25701714 0.2580803 0.30871004
-0.25830418 -0.17623407 -0.31832105 0.2330873 -0.07704365 -0.04318531 -0.16882282 -0.025805354
00000000: 511b 84be a29d 97be 0295 833e 3f2c 84be
00000010: 84ae 833e 135f cfbe b647 903e 46d2 ddbe
00000020: a133 a0be 8a22 83be a52c 83be 7d2e 833e
00000030: 7940 843e 13dc 973d 2db1 af3e a69e 833e
00000040: b2f6 833e 94dd 97bd b61d 72be 69cd de3e
00000050: a299 833e 8540 83be ed27 79be 9de5 973d
00000060: 29a7 7e3e 47f8 973d efbd 833e d060 e33d
00000070: 0f27 443e a4a7 25bd 7c83 a3be 76fc 2d3d
00000080: 414e 833e a775 913e f0fd 833e 9bb0 8fbe
00000090: a0ee 7b3d 5e32 a0be bc10 83be 7824 57be
000000a0: a1d7 973d 11ef 93be b3e6 83be 4369 7ebe
000000b0: 9e5d 98be 9312 4f3e add6 973d 93d7 b13e
000000c0: dece f3be 60af 65be 05c4 cabe f696 833e
000000d0: e120 843e ec32 2cbf 22d9 97bd 7643 833e
000000e0: 774e 843e b677 43be 3c2c 863d f3fc 76be
000000f0: d7d1 97bd 6a42 83be ad9f 103e 877f 143e
00000100: 7dd4 903e b3a9 273d 46ec 6fbe 56b0 f63d
00000110: 9a3b 7b3e fad9 973d c3d9 973d dc12 bdbe
00000120: 84ee c2be 34b5 7bbe 0428 b93e 3b68 6c3e
00000130: f760 713e 87b1 833e 6f5f e43e 49ba 9e3e
00000140: 888e 87be bfcf 8f3e 755f b2be 4810 7e3d
00000150: 0935 69be 4226 cabe 85df 833e a531 993e
00000160: f615 843e 35ee d3bd ab23 833e 16f0 7e3e
00000170: f791 943d 6a1d 84be 15c8 ff3d 3f68 11be
00000180: 030f 903e 015a 83be 3abc 733e ecb6 adbe
00000190: 0828 98bd 80fa 8cbe 277c 833e 4596 b0bd
000001a0: be03 913e ca0b b2be 86eb 833e e1b6 83be
000001b0: 1e11 84be 3c4d 84be c5e4 973d c226 833e
000001c0: afbe a03e 8106 98bd 2729 c4bd 5946 9f3e
000001d0: 1f6e 833e dfc6 ae3e a6c7 b53e 6074 42be
000001e0: be93 4cbd c956 a8bd dc30 863c e4d4 973d
000001f0: 599c 493e 3404 593e f0e2 97bd 96cd a3bd
00000200: 9463 833e 1756 083f 3d94 18be ca17 cbbe
00000210: df80 86be dff7 6f3e 9754 7dbe 87b0 833e
00000220: aa95 bebe 83d7 973d 3320 773e de9c dbbe
00000230: e5dc 113f 52fb 45bb d9dc 83be ae17 2fbf
00000240: 333a 843e 3ead 723e 0b89 b63e 234f 83be
00000250: 3219 84be 3896 003f 8db1 833e cb1e 643e
00000260: 244e 83be a421 663e 4ac1 5c3c 517d 883e
00000270: 0056 5c3d 0102 dfbd 2301 843e 3286 53bd
00000280: 6f81 833e f32e f43e 871a 83be 0190 ea3e
00000290: 04bc 03bf 2aea e63e 6108 ccbe e72d ce3e
000002a0: add8 97bd 081f 943e 2a52 833e 4490 833e
000002b0: 88d7 97bd d72b 663e 0dbe 70be 9ba1 0fbf
000002c0: 3004 84be e788 98bd 654c d43e e31d 83be
000002d0: 9014 04bf 6eb5 b43e 268f a6be 48e2 97be
000002e0: 2ef1 933e a6fb 653e 8a0d d5bb 9851 7ebe
000002f0: 7ec3 883e 1089 ab3c 1490 3c3e a916 833e
00000300: 9863 b6be 9cd8 973d 287c 833e 3535 7cbe
00000310: 60c1 83be 719e b93e 46e9 833e 2a15 843e
00000320: 7c00 973e f7f1 8b3e e9d6 97bd d58e 89be
00000330: b36d 83be 4777 83be b4c3 7cbe 13d3 97bd
00000340: 0ccd c13e ff87 96bd b3fd 973d 7b8e 7abe
00000350: 5dda 97bd 78cc c23e d769 833e 5f1d 84be
00000360: b739 83be 83fd 89bd 174d 843e 516c 84be
00000370: 07a1 14be 462c cdbd e52c 85bd 8f0e d03d
00000380: fbd7 97bd 0637 703e 15bf 7ebe 3675 833e
00000390: fdf2 7abe 41b0 86be 54ef 83be 314c b73e
000003a0: 09d5 853e 3bd7 7a3e 8c16 babe 106e 6dbe
000003b0: 567e bb3e f274 833e f311 343e caaa 83be
000003c0: 9ad5 973d 761a 88be ab0f 77be 06d0 83be
000003d0: 1916 853e c097 833e 1a23 843e 3e0f 9e3e
000003e0: 7240 84be b476 34be fafa a2be 70ae 6e3e
000003f0: 10c9 9dbd 14e3 30bd e4df 2cbe c065 d3bc

decoder.layers.0.self_attn.linears.2.bias f4 [32]
-0.10547352 -0.06410954 -0.12753579 -0.13211717 0.15286596 0.033299338 0.18766804 0.077359915
0.13300109 0.11046745 0.16684955 0.2660186 -0.06385915 -0.02165786 -0.110331915 -0.18800652
0.038875956 -0.054082677 -0.12929335 0.21556945 -0.12606694 0.0029761204 -0.13296351 -0.08128101
-0.0190355 -0.20544672 0.14048494 -0.020840237 -0.14460948 0.057513632 0.21839333 0.116422035
00000000: 8002 d8bd dd4b 83bd be98 02be b949 07be
00000010: e588 1c3e e364 083d 0d2c 403e e06e 9e3d
00000020: 7031 083e c23c e23d 9cda 2a3e 9733 883e
00000030: 96c8 82bd d36b b1bc b3f5 e1bd c884 40be
00000040: 653c 1f3d cc85 5dbd 7a65 04be 3dbe 5c3e
00000050: b117 01be 040b 433b 9627 08be a876 a6bd
00000060: 56f0 9bbc a060 52be 49db 0f3e 25b9 aabc
00000070: 8214 14be 6a93 6b3d 80a2 5f3e ad6e ee3d

decoder.layers.0.self_attn.linears.3.weight f4 [32, 32]
-0.20348847 0.20648435 -0.18225011 -0.06737426 0.05570348 0.16727722 0.25004557 -0.38418028
0.18731943 0.19985552 -0.16596441 0.13035151 -0.40110365 0.1995668 -0.1897946 -0.16690151
-0.21951638 -0.18260148 -0.39895645 -0.18246485 0.44822925 0.27669716 -0.055721946 -0.19855648
0.16726555 0.05570237 -0.20318455 0.16697899 0.25614485 0.3341218 -0.1671884 -0.16726544
0.36212346 0.19311716 -0.2568283 -0.20152052 -0.05572117 -0.080068626 -0.19766241 0.16728084
0.27018815 -0.20058137 0.24127531 0.18506022 0.44412628 -0.055743117 0.36928934 0.24028404
-0.19964635 -0.20157407 -0.20382294 0.05571077 -0.16726592 0.19750501 -0.042821255 -0.16729183
0.16724996 -0.1824019 0.16727981 0.05569668 -0.16723181 0.29910097 0.27716938 0.055719648
0.057378165 -0.19759071 -0.20127667 -0.20381509 0.21606992 -0.053989172 0.055723853 0.18229519
0.056002613 0.13324498 0.32714865 0.18688042 -0.19717936 -0.27805305 -0.18810861 0.20239635
0.19527058 0.16275437 0.02465882 0.16728377 -0.16729389 -0.19848718 0.049105417 -0.05570082
-0.19785252 -0.05197906 0.055730406 -0.311257 -0.055634435 -0.20497 0.16729213 0.055719305
-0.24678175 0.19453476 0.20118663 -0.24255338 0.4957915 0.3773555 -0.26924014 0.20222192
-0.45718107 -0.10126653 0.05565002 -0.16718893 -0.20257181 -0.28940186 -0.19050865 -0.10525159
-0.16727006 0.19836427 -0.21647957 0.055717606 0.20305946 0.16662017 -0.19730265 -0.19635674
-0.16728716 -0.16728751 0.055764217 0.05574827 0.20696184 0.16726911 0.19560854 0.16728495
0.4516627 -0.10358989 0.19910562 -0.2850606 -0.1672914 -0.06172884 -0.31261283 0.13621649
-0.18555023 -0.3463578 0.05560586 -0.2651982 0.055704683 0.055705596 0.03361496 -0.25996658
0.08982748 -0.11548249 -0.23322949 0.2014304 -0.056201566 -0.16727263 -0.23325314 -0.18237299
-0.18842046 -0.1672494 0.01748352 -0.20234944 0.0006496022 0.08806095 0.16724943 0.06389621
-0.28958064 0.05272789 -0.30876043 -0.1947673 0.16727428 0.23236193 0.18940191 0.21316713
0.19016822 0.26556054 0.27641922 0.34708878 -0.1672928 -0.19377288 -0.18230507 0.2772599
-0.16724527 0.18624753 -0.19095717 -0.16727614 0.16727726 0.19808336 0.05570379 -0.041151978
0.16727103 0.16727139 -0.19271094 0.16727787 0.05570544 0.040532313 -0.18654212 -0.16727345
0.2014626 0.19004185 -0.191485 0.18253109 -0.34769422 -0.18578792 0.0463373 -0.19557665
0.16575667 -0.05571617 0.19286601 -0.2173067 0.19535367 0.38800073 0.21997622 0.055722818
-0.055719048 0.18264547 -0.20399262 0.16726804 0.055715594 -0.18566114 -0.0016543391 -0.22367717
-0.22701047 -0.055663418 0.05493501 0.046486236 -0.1672723 -0.02526555 0.18905807 0.19511993
0.18510899 0.055689085 -0.20377854 0.23974603 -0.23656859 -0.2297716 0.2714772 0.2014973
-0.28730938 -0.20424996 0.108056724 0.20194872 0.18236487 0.28748313 0.6258236 0.16158806
-0.16727561 -0.05577773 -0.05568687 0.055753767 0.23731202 -0.0417207 0.05572943 -0.030671062
-0.2036662 0.008815721 0.05604812 -0.20177267 0.22142263 0.10411951 -0.16609465 0.2014597
00000000: 485f 50be a270 533e c69f 3abe 84fb 89bd
00000010: 5529 643d b84a 2b3e f905 803e 47b3 c4be
00000020: aad0 3f3e eda6 4c3e 93f2 29be de7a 053e
00000030: 755d cdbe 3d5b 4c3e 8459 42be 3be8 2abe
00000040: e7c8 60be e2fb 3abe 0544 ccbe 11d8 3abe
00000050: 4e7e e53e 40ab 8d3e b23c 64bd 6452 4bbe
00000060: a947 2b3e 2b28 643d 9c0f 50be 8afc 2a3e
00000070: 6b25 833e 0312 ab3e 7033 2bbe a247 2bbe
00000080: 3f68 b93e 81c0 453e 007f 83be 655b 4ebe
00000090: e23b 64bd 05fb a3bd 0468 4abe ab4b 2b3e
000000a0: 1a56 8a3e 3465 4dbe e010 773e 6d80 3d3e
000000b0: 8564 e33e e552 64bd 7e13 bd3e 050d 763e
000000c0: 1870 4cbe 6f69 4ebe f6b6 50be fa30 643d
000000d0: c247 2bbe c13e 4a3e 5765 2fbd 8d4e 2bbe
000000e0: 9343 2b3e 90c7 3abe 664b 2b3e 3422 643d
000000f0: d13e 2bbe c323 993e 25e9 8d3e 493a 643d
00000100: 5e05 6b3d 3855 4abe 791b 4ebe e7b4 50be
00000110: 6f41 5d3e c023 5dbd b23e 643d 97ab 3a3e
00000120: ff62 653d 5f71 083e 0780 a73e 955d 3f3e
00000130: 63e9 49be f85c 8ebe 8b9f 40be fd40 4f3e
00000140: 03f5 473e 15a9 263e 4b01 ca3c 704c 2b3e
00000150: 174f 2bbe 3940 4bbe c322 493d 8b26 64bd
00000160: da99 4abe ffe7 54bd 9145 643d 145d 9fbe
00000170: efe0 63bd a8e3 51be a14e 2b3e ed39 643d
00000180: 5bb4 7cbe 1f34 473e de03 4e3e ea5f 78be
00000190: 62d8 fd3e bd34 c13e d8d9 89be 4313 4f3e
000001a0: a313 eabe d464 cfbd 46f1 633d 9333 2bbe
000001b0: fc6e 4fbe 7b2c 94be b314 43be 258e d7bd
000001c0: d848 2bbe 0120 4b3e d2ac 5dbe 2538 643d
000001d0: d2ee 4f3e 7a9e 2a3e b509 4abe be11 49be
000001e0: 534d 2bbe 6b4d 2bbe 0569 643d 4c58 643d
000001f0: ceed 533e 9848 2b3e 9b4d 483e bf4c 2b3e
00000200: 5540 e73e f026 d4bd 58e2 4b3e 77f3 91be
00000210: 704e 2bbe 61d7 7cbd ca0e a0be 567c 0b3e
00000220: e100 3ebe cf55 b1be f8c2 633d 0fc8 87be
00000230: 982a 643d 8d2b 643d d7af 093d 571a 85be
00000240: 78f7 b73d 1582 ecbd b6d3 6ebe c543 4e3e
00000250: 9d33 66bd 8449 2bbe e9d9 6ebe fcbf 3abe
00000260: 4bf1 40be 6d43 2bbe 9939 8f3c b134 4fbe
00000270: 114a 2a3a 4d59 b43d 6f43 2b3e 04dc 823d
00000280: ea43 94be 33f9 573d d915 9ebe 1471 47be
00000290: f349 2b3e 49f0 6d3e 93f2 413e 7c48 5a3e
000002a0: 75bb 423e 8df7 873e d286 8d3e 9fb5 b13e
000002b0: ce4e 2bbe 666c 46be 2eae 3abe 02f5 8d3e
000002c0: 5842 2bbe acb7 3e3e 478a 43be 704a 2bbe
000002d0: bb4a 2b3e 5dd6 4a3e a829 643d fa8e 28bd
000002e0: 1949 2b3e 3149 2b3e 0456 45be e44a 2b3e
000002f0: 632b 643d 3605 263d e604 3fbe bb49 2bbe
00000300: 364c 4e3e 559a 423e a514 44be 6ee9 3a3e
00000310: fa04 b2be 303f 3ebe 2ecc 3d3d 3f45 48be
00000320: 1ebc 293e a436 64bd ab7e 453e a685 5ebe
00000330: cb0a 483e 08a8 c63e 7241 613e 9c3d 643d
00000340: a839 64bd 6a07 3b3e 71e3 50be 5048 2b3e
00000350: 0936 643d f41d 3ebe 69d6 d8ba a10b 65be
00000360: 6f75 68be 53ff 63bd 8803 613d 5a68 3e3d
00000370: 6e49 2bbe b3f9 cebc 7098 413e 85cd 473e
00000380: 368d 3d3e 3d1a 643d 52ab 50be fc7f 753e
00000390: 093f 72be 3f49 6bbe 0fff 8a3e 4f55 4e3e
000003a0: 371a 93be e726 51be d84c dd3d a5cb 4e3e
000003b0: dbbd 3a3e fd30 933e fa35 203f 5777 253e
000003c0: 4c4a 2bbe 3077 64bd ea17 64bd 105e 643d
000003d0: ec01 733e 53e3 2abd 8b44 643d e141 fbbc
000003e0: df8d 50be d06f 103c b792 653d 7f9d 4ebe
000003f0: 9dbc 623e 9c3c d53d b714 2abe 744b 4e3e

decoder.layers.0.self_attn.linears.3.bias f4 [32]
-0.025799667 0.019018326 0.017301844 0.0037748485 -0.10512434 -0.060457744 -0.0487701 0.0005496389
0.06706144 -0.19660048 0.09209776 0.15533277 -0.038734857 -0.10066749 0.000956825 -0.10938286
-0.075773835 0.1133036 -0.012720967 -0.24403663 0.057240553 0.12442158 0.2527335 0.09956454
0.0220091 -0.057788223 0.07235198 -0.137599 -0.3228632 -0.1960831 0.28336003 0.03779371
00000000: d359 d3bc 52cc 9b3c 99bc 8d3c 7363 773b
00000010: 6e4b d7bd 8aa2 77bd 28c3 47bd a415 103a
00000020: 8257 893d a351 49be c09d bc3d 8e0f 1f3e
00000030: 71a8 1ebd c22a cebd 70d3 7a3a 1f04 e0bd
00000040: 502f 9bbd b80b e83d 9a6b 50bc bde4 79be
00000050: 1275 6a3d bed0 fe3d 4966 813e 7ee8 cb3d
00000060: 6e4c b43c 58b3 6cbd 462d 943d c1e6 0cbe
00000070: 534e a5be 02ca 48be 9114 913e 94cd 1a3d

decoder.layers.0.feed_forward.w_1.weight f4 [128, 32]
0.048043195 0.06105846 0.2317962 0.06317319 0.06309497 0.012194327 0.034628604 -0.22450717
0.356058 -0.21348149 -0.2021285 0.30159962 -0.21571906 0.5642646 0.21424218 0.1445239
-0.06306732 -0.18958868 -0.18965398 -0.45407516 0.189607 -0.024890335 -0.42896244 0.20141846
0.18955475 -0.04857919 -0.06307058 0.09485604 0.025727272 -0.2147562 -0.06308405 0.26588538
0.33899516 0.06308369 0.12656492 0.21640329 0.16664273 -0.19793874 -0.21803357 -0.1994042
0.21363224 -0.07573202 0.20050173 -0.21362434 0.06308623 0.21502188 0.24493194 0.025692388
-0.26450077 0.18959501 -0.19901639 0.19932306 -0.21401457 0.20079675 0.18959238 -0.12936962
-0.06307364 -0.1920825 0.23377843 -0.21469899 -0.06309644 -0.1918507 0.21411987 0.0519244
0.06308233 -0.21469349 -0.18958545 0.21410343 0.21710113 0.18958911 -0.2133099 -0.19566135
0.20182319 0.21698739 -0.07139794 -0.25773457 0.19438115 -0.21515457 0.26627576 0.21771185
0.3086366 0.063121215 -0.22304092 0.4694346 0.121178485 -0.21698256 -0.027729157 -0.21530645
0.21350801 0.19379994 0.21455267 -0.21494868 0.06321744 -0.21424782 -0.21537137 -0.06307826
0.0630483 -0.20288925 0.21373202 -0.32484648 -0.27185953 0.04219197 0.063301064 0.21575642
-0.17620051 0.10593769 0.06310374 0.21546504 -0.18960972 -0.1974402 -0.06336232 -0.19800025
0.21678402 0.22978467 0.21403825 -0.3327569 0.23356627 0.19979894 -0.21868303 -0.19199459
0.25618604 -0.0630594 -0.22403008 -0.089154854 0.19220327 -0.0628596 -0.061912112 -0.19288713
-0.21455179 0.21525402 0.049331836 -0.2169704 -0.28203937 0.011848811 -0.29415575 0.15034828
-0.06487036 -0.061734088 0.18972623 -0.21350381 0.21655113 0.21378034 -0.06306509 0.06306762
0.06307167 -0.21692352 0.21577707 0.2133684 -0.2186379 -0.20050108 -0.21608745 0.18960805
0.47704566 0.21450885 -0.20427068 0.21341315 0.06307539 0.1082879 -0.0386243 0.21237406
-0.38462096 0.19443849 -0.21527141 -0.21578401 0.16454612 -0.2505518 0.21344884 -0.18960612
0.21351525 -0.21678016 0.2757589 -0.06248431 -0.06306587 0.19964764 -0.2013014 0.19457059
0.18413416 0.21798155 0.21477792 -0.21629222 0.2174757 -0.2131706 -0.21641585 -0.063116774
-0.21384516 -0.20310858 0.0630642 0.2861334 -0.2145664 0.22194342 -0.21418644 0.0769209
-0.21406342 -0.21615878 0.2442454 0.21616016 0.03639003 0.06308208 -0.061446443 0.37531015
-0.19346893 0.18957525 0.20120037 0.4213537 0.2321079 -0.18958557 -0.22801799 -0.23283403
0.21232335 0.18903148 0.21539307 -0.32089218 0.18669514 0.46347588 0.18961349 -0.22668137
0.21422075 0.12893139 0.21462452 -0.016294787 -0.21579716 0.06120697 0.06307834 0.07459572
0.14155413 -0.0825267 0.21459255 -0.21573804 -0.10434523 -0.18960564 0.2161765 -0.06310433
-0.21413718 0.06470258 -0.19356634 -0.21281178 -0.21508068 -0.19280063 0.2431734 -0.18961452
-0.06310293 0.19396846 0.21738492 -0.21904138 0.31634554 -0.0739865 -0.19747494 0.2158029
0.21295908 -0.21412586 0.21231641 0.2143107 -0.21403594 0.21342227 0.06309433 -0.20041898
00000000: f1c8 443d 7018 7a3d fc5b 6d3e f260 813d
00000010: f037 813d b7ca 473c b9d6 0d3d 35e5 65be
00000020: 3c4d b63e e49a 5abe c6fa 4ebe 446b 9a3e
00000030: 75e5 5cbe a573 103f 4d62 5b3e 13fe 133e
00000040: 7029 81bd 8923 42be a734 42be 8a7c e8be
00000050: 5628 423e d1e6 cbbc f7a0 dbbe a440 4e3e
00000060: a41a 423e f9fa 46bd 262b 81bd e243 c23d
00000070: 00c2 d23c 0de9 5bbe 3632 81bd 2122 883e
00000080: c690 ad3e 0632 813d 3c9a 013e d398 5d3e
00000090: 64a4 2a3e 74b0 4abe 3144 5fbe 9d30 4cbe
000000a0: 69c2 5a3e 6419 9bbd 5350 4d3e 57c0 5abe
000000b0: 5a33 813d b22e 5c3e 70cf 7a3e d878 d23c
000000c0: a56c 87be 3225 423e f4ca 4bbe 581b 4c3e
000000d0: a326 5bbe aa9d 4d3e 8124 423e 7879 04be
000000e0: c12c 81bd 46b1 44be 9d63 6f3e 0dda 5bbe
000000f0: b538 81bd 8374 44be 3d42 5b3e aeae 543d
00000100: 4f31 813d 9cd8 5bbe b022 42be ee3d 5b3e
00000110: c24f 5e3e a623 423e e96d 5abe 735b 48be
00000120: bdaa 4e3e f131 5e3e 1539 92bd c9f5 83be
00000130: da0b 473e 7b51 5cbe 4c55 883e dbef 5e3e
00000140: 9e05 9e3e b245 813d d764 64be bb59 f03e
00000150: 6d2c f83d ad30 5ebe 4228 e3bc 4b79 5cbe
00000160: d8a1 5a3e 7e73 463e b2b3 5b3e 821b 5cbe
00000170: 2578 813d c863 5bbe 508a 5cbe 2d2f 81bd
00000180: 781f 813d 33c2 4fbe 91dc 5a3e 4752 a6be
00000190: 2c31 8bbe 7dd1 2c3d fda3 813d 40ef 5c3e
000001a0: e86d 34be dcf5 d83d 893c 813d dea2 5c3e
000001b0: 0d29 42be c42d 4abe 1bc4 81bd 94c0 4abe
000001c0: a1fc 5d3e ac4c 6b3e d82c 5b3e 1d5f aabe
000001d0: ff2b 6f3e 1898 4c3e 72ee 5fbe 3b9a 44be
000001e0: d12a 833e 4925 81bd 2468 65be d296 b6bd
000001f0: efd0 443e 89bc 80bd 8e97 7dbd 3484 45be
00000200: 77b3 5bbe 8d6b 5c3e 2e10 4a3d 7d2d 5ebe
00000210: 7767 90be 8421 423c 959b 96be e6f4 193e
00000220: c0da 84bd e2dc 7cbd 9847 423e bea0 5abe
00000230: 94bf 5d3e 3ce9 5a3e 4528 81bd 9929 813d
00000240: b82b 813d 3321 5ebe aaf4 5c3e 3f7d 5a3e
00000250: 9de2 5fbe 2850 4dbe 0746 5dbe 9d28 423e
00000260: 543f f43e 35a8 5b3e 552c 51be fa88 5a3e
00000270: ac2d 813d 0cc6 dd3d 8434 1ebd 9678 593e
00000280: 0aed c4be e21a 473e 1c70 5cbe 7cf6 5cbe
00000290: c77e 283e 5348 80be 5592 5a3e 1b28 42be
000002a0: bea3 5a3e 9efb 5dbe 4530 8d3e 8cef 7fbd
000002b0: ae28 81bd 6e70 4c3e f421 4ebe 833d 473e
000002c0: aa8d 3c3e 8e36 5f3e beee 5b3e b57b 5dbe
000002d0: f3b1 5e3e 6549 5abe 1e9c 5dbe 5e43 81bd
000002e0: 3afa 5abe b2fb 4fbe ce27 813d 1480 923e
000002f0: 4bb7 5bbe 2345 633e b153 5bbe b488 9d3d
00000300: 7133 5bbe ba58 5dbe 771b 7a3e 1759 5d3e
00000310: b60d 153d 2d31 813d 44af 7bbd a728 c03e
00000320: b81c 46be 0420 423e 7807 4e3e acbb d73e
00000330: b1ad 6d3e b822 42be 8c7d 69be 0b6c 6ebe
00000340: 4b6b 593e 7891 413e 0090 5c3e fb4b a4be
00000350: 032d 3f3e b64c ed3e 0a2a 423e 291f 68be
00000360: af5c 5b3e 9706 043e 88c6 5b3e a57c 85bc
00000370: eef9 5cbe 29b4 7a3d 372f 813d a4c5 983d
00000380: 91f3 103e c203 a9bd 26be 5b3e 6fea 5cbe
00000390: f4b2 d5bd fb27 42be 5f5d 5d3e d83c 81bd
000003a0: c746 5bbe c982 843d 4136 46be 55eb 59be
000003b0: 1c3e 5cbe 876d 45be 7302 793e 4f2a 42be
000003c0: 1c3c 81bd ab9f 463e 279a 5e3e 624c 60be
000003d0: 0bf8 a13e 3c86 97bd df36 4abe 6ffb 5c3e
000003e0: f211 5a3e cf43 5bbe 7969 593e 4474 5b3e
000003f0: 3d2c 5bbe 5e8b 5a3e 9a37 813d a23a 4dbe

decoder.layers.0.feed_forward.w_1.bias f4 [128]
-0.41161826 -0.33680397 -0.38699046 -0.333919 -0.481621 -0.40458846 -0.3157502 -0.47796932
-0.33095822 -0.36148658 -0.26511878 -0.19541955 -0.25350982 -0.16629845 -0.43688017 -0.29167777
-0.15549412 -0.39663467 -0.5416779 -0.18872763 -0.57908934 -0.41612583 -0.008984062 -0.24927843
-0.45736608 -0.3258164 -0.12757458 -0.46486342 -0.18666154 -0.057118293 -0.24106182 -0.36407977
-0.44789124 -0.5260958 -0.66734254 -0.349168 -0.09627785 -0.18548627 -0.5090917 -0.7453014
-0.30083007 -0.081425294 -0.34596983 -0.1648114 -0.3941098 0.08780281 -0.28316352 -0.23238803
-0.5037137 -0.3102806 -0.22217077 -0.52400064 -0.26118037 -0.4495659 -0.22884631 -0.13705994
-0.21080057 -0.19093904 -0.16237475 -0.4340034 -0.50552684 -0.43735266 -0.19009896 -0.2295865
-0.35994843 -0.39798522 -0.4416212 -0.041584093 -0.5373537 -0.31953716 -0.24114123 -0.35174978
-0.18551546 -0.16130596 -0.26362914 -0.3155033 -0.40854293 -0.34282804 -0.5159868 -0.36124223
-0.30360562 -0.19006516 -0.44955486 -0.19035974 -0.2579794 -0.13593936 -0.49475092 -0.43546778
-0.14123553 -0.33457717 -0.5373786 -0.11088807 -0.53766215 -0.6040195 -0.1367446 -0.27181327
-0.54151195 -0.0817809 -0.12951939 -0.34152713 -0.26268956 -0.4151623 -0.03252609 -0.45315275
-0.11893291 -0.23641047 -0.34991232 -0.51384366 -0.11476203 -0.15031344 -0.5885798 -0.34654063
-0.5355011 -0.5067926 -0.21825649 -0.10070322 -0.53486305 -0.5110121 0.018713297 -0.29374754
-0.65952176 -0.5475309 -0.44521195 -0.17207187 -0.10957347 -0.35369822 -0.23014651 -0.30905724
00000000: a1bf d2be 9271 acbe 9d23 c6be 6ef7 aabe
00000010: 0797 f6be 3826 cfbe 03aa a1be 65b8 f4be
00000020: 5b73 a9be c514 b9be a6bd 87be 101c 48be
00000030: 0acc 81be 244a 2abe c2ae dfbe ca56 95be
00000040: da39 1fbe b313 cbbe 67ab 0abf d141 41be
00000050: 333f 14bf 720e d5be e331 13bc d842 7fbe
00000060: e32b eabe 68d1 a6be e9a2 02be 9402 eebe
00000070: 3424 3fbe dff4 69bd e9d8 76be aa68 babe
00000080: 0052 e5be 37ae 06bf f6d6 2abf 26c6 b2be
00000090: 522d c5bd 1df0 3dbe d553 02bf 13cc 3ebf
000000a0: 6606 9abe 4ec2 a6bd f522 b1be 52c4 28be
000000b0: c2c8 c9be f6d1 b33d cffa 90be 21f7 6dbe
000000c0: 62f3 00bf 19dd 9ebe bc80 63be e824 06bf
000000d0: 6fb9 85be 802d e6be b056 6abe 7159 0cbe
000000e0: 1bdc 57be 8685 43be 9145 26be b235 debe
000000f0: 356a 01bf b0ec dfbe 4da9 42be b918 6bbe
00000100: 294b b8be b8c4 cbbe 2d1c e2be 1554 2abd
00000110: 0390 09bf 609a a3be baed 76be 8c18 b4be
00000120: c4f7 3dbe 642d 25be 66fa 86be a689 a1be
00000130: 8a2c d1be 2887 afbe b617 04bf bef4 b8be
00000140: 3272 9bbe 71a0 42be 0e2c e6be aaed 42be
00000150: e015 84be b033 0bbe fe4f fdbe a2f5 debe
00000160: 0ca0 10be b34d abbe a591 09bf 4919 e3bd
00000170: 3aa4 09bf 06a1 1abf c706 0cbe 1c2b 8bbe
00000180: 87a0 0abf bf7c a7bd bba0 04be a5dc aebe
00000190: 3f7f 86be 2790 d4be 143a 05bd a303 e8be
000001a0: 1993 f3bd 9615 72be b527 b3be 428b 03bf
000001b0: 5b08 ebbd c4eb 19be 2aad 16bf c66d b1be
000001c0: 9a16 09bf 29bd 01bf a17e 5fbe 7d3d cebd
000001d0: c9ec 08bf b0d1 02bf a14c 993c 1466 96be
000001e0: 6bd6 28bf fc2a 0cbf d2f2 e3be 9c33 30be
000001f0: 0e68 e0bd ef17 b5be 87ab 6bbe c03c 9ebe

decoder.layers.0.feed_forward.w_2.weight f4 [32, 128]
0.34497657 -0.34080952 -0.34498477 -0.114468426 -0.0821836 0.34491763 -0.15359437 -0.1471102
-0.34113675 -0.36642754 -0.34499612 0.3442156 -0.058804642 -0.17979763 -0.059310813 0.22768053
0.32941088 -0.3449964 -0.11497801 0.25317952 0.012467358 0.27610844 -0.300139 0.07687539
0.36128035 -0.34499225 -0.34373504 0.008808483 0.34328502 0.114612035 0.2711422 -0.34496024
-0.344939 -0.21127027 0.023133555 -0.31780156 0.17015073 0.34497142 0.39331728 -0.24001752
0.3449691 0.045908965 -0.33671647 -0.17711164 -0.32916275 -0.114145406 0.114965074 0.114868216
-0.14047189 0.3333095 0.47214592 -0.34497917 0.008697446 0.1607595 -0.038025305 -0.11418632
-0.25187522 -0.25299788 -0.344516 0.34484407 0.34497556 -0.30981097 -0.34189022 0.16436832
-0.29959363 0.11791781 0.31325167 -0.11438253 0.3167968 0.3449616 0.37704962 0.23267055
-0.04754696 0.16688831 -0.18642925 -0.2470366 0.114574775 -0.10024259 -0.24585027 -0.340055
-0.32242107 0.34460667 -0.33523467 -0.31747052 0.11470416 -0.34499115 0.32796335 0.2930117
-0.3375631 -0.3429209 0.34435755 -0.0042429697 -0.12197756 0.32584235 0.34497604 -0.03178633
0.39508605 -0.2388899 0.44871822 0.10374172 -0.31599304 0.34484848 -0.18640675 0.34480724
0.28849345 -0.31967032 -0.33141628 -0.51987904 0.40189123 -0.26893288 -0.21584538 -0.20979019
-0.11499127 0.32119477 0.11483941 0.17855136 0.3444844 -0.34887978 -0.34434092 0.11464835
-0.56640583 0.34497178 0.112748325 0.34497687 0.36073405 -0.10603257 0.34494427 0.096420445
-0.11467967 -0.15337774 0.34498432 -0.09642023 -0.30468413 0.23631172 -0.33860752 0.32872912
-0.34467334 -0.42370507 -0.11473015 0.34130725 0.32732722 -0.114317946 0.18006927 0.037303228
-0.51783645 0.09962809 0.34339496 -0.034434702 -0.03493514 0.34124506 0.11598834 -0.1479033
-0.3449788 -0.34493873 -0.1410141 0.34497076 -0.14340468 0.11505012 0.34497303 -0.3442752
0.49469408 0.11381425 -0.33626714 0.33255354 -0.34492815 -0.115916744 0.34457833 0.32727873
-0.34448475 0.11457678 -0.11495097 -0.105978265 -0.32087034 -0.11474408 -0.24233897 -0.3418865
-0.11459703 0.34495845 -0.11484488 0.11474928 0.31893313 0.012554525 0.34480107 0.09568769
-0.25661847 -0.4557229 -0.11480919 0.11461685 -0.3436097 -0.023436025 -0.08011033 -0.338653
0.20324478 -0.3441801 0.3449494 -0.114845835 -0.117412806 0.33442855 -0.30236134 -0.11476365
0.3449753 -0.114910886 0.15334387 0.2314853 0.21955977 -0.12363684 0.024830317 0.11475776
-0.26501596 0.043024927 -0.3166069 0.31869957 0.10234888 0.0516901 0.34476966 0.22163488
0.15919577 -0.33293983 0.2893399 -0.040604986 -0.038979657 -0.11473887 0.2682842 -0.34288788
-0.10193752 -0.34384435 -0.46300313 0.34367478 -0.34491134 -0.09714097 0.122015916 0.013359061
0.3338747 -0.17160903 0.12901247 -0.34491488 0.26970962 0.108869 0.33300978 0.3314108
-0.33591986 -0.34049687 -0.1290786 0.4771359 -0.34494582 -0.34413356 -0.114573434 -0.07715787
-0.2931663 0.042800166 0.5155734 0.2924544 -0.3393686 -0.34497562 0.30489865 0.37183008
00000000: c5a0 b03e 967e aebe d8a1 b0be 6c6e eabd
00000010: e04f a8bd 0b99 b03e d847 1dbe 0ea4 16be
00000020: 7aa9 aebe 649c bbbe 55a3 b0be 073d b03e
00000030: 23dd 70bd df1c 38be e5ef 72bd 1625 693e
00000040: 8ba8 a83e 5ea3 b0be 9779 ebbd bfa0 813e
00000050: e443 4c3c 165e 8d3e d2ab 99be d870 9d3d
00000060: bdf9 b83e d3a2 b0be 0afe afbe 7551 103c
00000070: 0ec3 af3e b7b9 ea3d 27d3 8a3e a19e b0be
00000080: d89b b0be 3c57 58be 9582 bd3c e3b6 a2be
00000090: fe3b 2e3e 18a0 b03e e260 c93e 27c7 75be
000000a0: ca9f b03e 0a0b 3c3d 1a66 acbe c15c 35be
000000b0: 0588 a8be 11c5 e9bd cf72 eb3d 0740 eb3d
000000c0: ddd7 0fbe 8ba7 aa3e 1cbd f13e 1ca1 b0be
000000d0: bc7f 0e3c 239e 243e 6cc0 1bbd 84da e9bd
000000e0: caf5 80be f088 81be 6764 b0be 678f b03e
000000f0: a3a0 b03e 8b9f 9ebe 3c0c afbe 2b50 283e
00000100: 5664 99be e57e f13d 8662 a03e 6341 eabd
00000110: 3133 a23e cf9e b03e a60c c13e 3041 6e3e
00000120: 9ac0 42bd c5e4 2a3e 4fe7 3ebe 2af7 7cbe
00000130: 2ea6 ea3d fd4b cdbd 2cc0 7bbe b01b aebe
00000140: 6014 a5be 4970 b03e e1a3 abbe 7f8b a2be
00000150: 04ea ea3d aea2 b0be d0ea a73e a105 963e
00000160: 12d5 acbe 5493 afbe a24f b03e 9c08 8bbb
00000170: 5fcf f9bd cfd4 a63e b3a0 b03e 6232 02bd
00000180: b848 ca3e 8e9f 74be 65be e53e 8a76 d43d
00000190: d7c9 a1be fb8f b03e 69e1 3ebe 938a b03e
000001a0: 6ab5 933e d4ab a3be 65af a9be cb16 05bf
000001b0: b0c4 cd3e 92b1 89be 9206 5dbe 3dd3 56be
000001c0: 8b80 ebbd a473 a43e ed30 eb3d 2bd6 363e
000001d0: 4260 b03e 5fa0 b2be 744d b0be c1cc ea3d
000001e0: f9ff 10bf 24a0 b03e 98e8 e63d cfa0 b03e
000001f0: 22b2 b83e 9b27 d9bd 899c b03e 1578 c53d
00000200: 2ddd eabd 0e0f 1dbe c9a1 b03e f877 c5bd
00000210: 8fff 9bbe b3fb 713e f75d adbe 2f4f a83e
00000220: 0679 b0be dfef d8be a4f7 eabd d3bf ae3e
00000230: 6f97 a73e 871f eabd 1464 383e 45cb 183d
00000240: ee90 04bf d009 cc3d 77d1 af3e 670b 0dbd
00000250: 2618 0fbd acb7 ae3e 4b8b ed3d f673 17be
00000260: 10a1 b0be cf9b b0be 0066 10be 02a0 b03e
00000270: add8 12be 669f eb3d 4ea0 b03e d744 b0be
00000280: 8b48 fd3e 7217 e93d 352b acbe 7544 aa3e
00000290: 6c9a b0be c265 edbd 926c b03e 1491 a73e
000002a0: 4e60 b0be 3ba7 ea3d 6a6b ebbd 220b d9bd
000002b0: 1e49 a4be f2fe eabd b527 78be bf0b afbe
000002c0: d9b1 eabd 659e b03e cb33 ebbd ac01 eb3d
000002d0: 344b a33e 7fb1 4d3c c489 b03e e8f7 c33d
000002e0: 7f63 83be 8354 e9be 1521 ebbd 3dbc ea3d
000002f0: 9ced afbe e8fc bfbc e210 a4bd ed63 adbe
00000300: 661f 503e 6038 b0be 359d b03e 4b34 ebbd
00000310: 2076 f0bd 383a ab3e 1bcf 9abe 3409 ebbd
00000320: 9aa0 b03e 6656 ebbd 2d06 1d3e 7c0a 6d3e
00000330: 47d4 603e 5035 fdbd f368 cb3c 1e06 eb3d
00000340: 2cb0 87be e83a 303d 4d1a a2be 972c a33e
00000350: 4a9c d13d 00b9 533d a685 b03e 41f4 623e
00000360: 3704 233e 1777 aabe 5c24 943e 6a51 26bd
00000370: 22a9 1fbd 36fc eabd 8c5c 893e 008f afbe
00000380: 9ec4 d0bd 5e0c b0be bf0e edbe 24f6 af3e
00000390: 3898 b0be d8f1 c6bd 7be3 f93d f7df 5a3c
000003a0: a0f1 aa3e 47ba 2fbe d81b 043e af98 b0be
000003b0: 6117 8a3e b6f6 de3d 4280 aa3e adae a93e
000003c0: b0fd abbe 9b55 aebe 2e2d 04be 284b f43e
000003d0: bd9c b0be 4632 b0be 7aa5 eabd f204 9ebd
000003e0: e519 96be 3a4f 2f3d 9efc 033f 95bc 953e
000003f0: b9c1 adbe a5a0 b0be ad1b 9c3e 8360 be3e

decoder.layers.0.feed_forward.w_2.bias f4 [32]
-0.009590408 0.102258965 0.04514187 0.06476958 -0.02205109 -0.21856579 -0.026351687 -0.1599521
-0.0037166486 -0.27970588 0.017980061 0.35325202 -0.1029666 -0.035140593 -0.010941214 0.10031244
-0.06934507 0.047920268 0.13070609 -0.3548849 0.17407632 0.123476386 0.014706296 0.040311765
-0.06376975 -0.16057889 -0.19147289 0.0031921319 -0.11045981 0.1564355 0.33972433 0.17401432
00000000: 1621 1dbc 266d d13d aee6 383d eaa5 843d
00000010: 7da4 b4bc b6cf 5fbe 7edf d7bc 7cca 23be
00000020: 0493 73bb 9c35 8fbe ec4a 933c 73dd b43e
00000030: 27e0 d2bd 95ef 0fbd c742 33bc 9c70 cd3d
00000040: ca04 8ebd 0b48 443d d1d7 053e 79b3 b5be
00000050: 1041 323e 30e1 fc3d adf2 703c f31d 253d
00000060: b799 82bd cb6e 24be 7811 44be 1633 513b
00000070: c138 e2bd a130 203e 59f0 ad3e cf30 323e
